digraph G {
  compound = true;
  subgraph cluster_1 {
    v2 [label = " ", shape = plain];
    label = "builtin.module : ()\n\ntfl.description: \"TinyML: Anonomly De...\ntfl.metadata: {SL_PARAMSv1 = \"\\0C\\...\ntfl.schema_version: 3 : i32";
    subgraph cluster_3 {
      v4 [label = " ", shape = plain];
      label = "";
      subgraph cluster_5 {
        v6 [label = " ", shape = plain];
        label = "func.func : ()\n\nfunction_type: (tensor<?x5x128x1xf3...\nsym_name: \"main\"\ntf.entry_function: {inputs = \"input_1\",...";
        subgraph cluster_7 {
          v8 [label = " ", shape = plain];
          label = "";
          v9 [label = "arg0", shape = ellipse];
          v10 [fillcolor = "0.000000 1.0 1.0", label = "tosa.const : (tensor<1x1x1x1xf32>)\n\nvalue: dense<0.871905148> : tensor<1x1x1x1xf32>", shape = ellipse, style = filled];
          v11 [fillcolor = "0.000000 1.0 1.0", label = "tosa.const : (tensor<1x1x1x1xf32>)\n\nvalue: dense<-1.280000e+02> : tensor<1x1x1x1xf32>", shape = ellipse, style = filled];
          v12 [fillcolor = "0.000000 1.0 1.0", label = "tosa.const : (tensor<1x1x1x1xi32>)\n\nvalue: dense<-128> : tensor<1x1x1x1xi32>", shape = ellipse, style = filled];
          v13 [fillcolor = "0.000000 1.0 1.0", label = "tosa.const : (tensor<640xi32>)\n\nvalue: [...] : tensor<640xi32>", shape = ellipse, style = filled];
          v14 [fillcolor = "0.000000 1.0 1.0", label = "tosa.const : (tensor<640x128xi8>)\n\nvalue: [[...]] : tensor<640x128xi8>", shape = ellipse, style = filled];
          v15 [fillcolor = "0.000000 1.0 1.0", label = "tosa.const : (tensor<128xi32>)\n\nvalue: [...] : tensor<128xi32>", shape = ellipse, style = filled];
          v16 [fillcolor = "0.000000 1.0 1.0", label = "tosa.const : (tensor<128x128xi8>)\n\nvalue: [[...]] : tensor<128x128xi8>", shape = ellipse, style = filled];
          v17 [fillcolor = "0.000000 1.0 1.0", label = "tosa.const : (tensor<128xi32>)\n\nvalue: [...] : tensor<128xi32>", shape = ellipse, style = filled];
          v18 [fillcolor = "0.000000 1.0 1.0", label = "tosa.const : (tensor<128x128xi8>)\n\nvalue: [[...]] : tensor<128x128xi8>", shape = ellipse, style = filled];
          v19 [fillcolor = "0.000000 1.0 1.0", label = "tosa.const : (tensor<128xi32>)\n\nvalue: [...] : tensor<128xi32>", shape = ellipse, style = filled];
          v20 [fillcolor = "0.000000 1.0 1.0", label = "tosa.const : (tensor<128x128xi8>)\n\nvalue: [[...]] : tensor<128x128xi8>", shape = ellipse, style = filled];
          v21 [fillcolor = "0.000000 1.0 1.0", label = "tosa.const : (tensor<128xi32>)\n\nvalue: [...] : tensor<128xi32>", shape = ellipse, style = filled];
          v22 [fillcolor = "0.000000 1.0 1.0", label = "tosa.const : (tensor<128x8xi8>)\n\nvalue: [[...]] : tensor<128x8xi8>", shape = ellipse, style = filled];
          v23 [fillcolor = "0.000000 1.0 1.0", label = "tosa.const : (tensor<8xi32>)\n\nvalue: [...] : tensor<8xi32>", shape = ellipse, style = filled];
          v24 [fillcolor = "0.000000 1.0 1.0", label = "tosa.const : (tensor<8x128xi8>)\n\nvalue: [[...]] : tensor<8x128xi8>", shape = ellipse, style = filled];
          v25 [fillcolor = "0.000000 1.0 1.0", label = "tosa.const : (tensor<128xi32>)\n\nvalue: [...] : tensor<128xi32>", shape = ellipse, style = filled];
          v26 [fillcolor = "0.000000 1.0 1.0", label = "tosa.const : (tensor<128x128xi8>)\n\nvalue: [[...]] : tensor<128x128xi8>", shape = ellipse, style = filled];
          v27 [fillcolor = "0.000000 1.0 1.0", label = "tosa.const : (tensor<128xi32>)\n\nvalue: [...] : tensor<128xi32>", shape = ellipse, style = filled];
          v28 [fillcolor = "0.000000 1.0 1.0", label = "tosa.const : (tensor<128x128xi8>)\n\nvalue: [[...]] : tensor<128x128xi8>", shape = ellipse, style = filled];
          v29 [fillcolor = "0.000000 1.0 1.0", label = "tosa.const : (tensor<128xi32>)\n\nvalue: [...] : tensor<128xi32>", shape = ellipse, style = filled];
          v30 [fillcolor = "0.000000 1.0 1.0", label = "tosa.const : (tensor<128x128xi8>)\n\nvalue: [[...]] : tensor<128x128xi8>", shape = ellipse, style = filled];
          v31 [fillcolor = "0.000000 1.0 1.0", label = "tosa.const : (tensor<128xi32>)\n\nvalue: [...] : tensor<128xi32>", shape = ellipse, style = filled];
          v32 [fillcolor = "0.000000 1.0 1.0", label = "tosa.const : (tensor<128x640xi8>)\n\nvalue: [[...]] : tensor<128x640xi8>", shape = ellipse, style = filled];
          v33 [fillcolor = "0.000000 1.0 1.0", label = "tosa.const : (tensor<1x1x1x1xf32>)\n\nvalue: dense<1.07594931> : tensor<1x1x1x1xf32>", shape = ellipse, style = filled];
          v34 [fillcolor = "0.083333 1.0 1.0", label = "tosa.mul : (tensor<?x5x128x1xf32...)\n\nshift: 0 : i8", shape = ellipse, style = filled];
          v35 [fillcolor = "0.166667 1.0 1.0", label = "tosa.cast : (tensor<?x5x128x1xi32...)\n", shape = ellipse, style = filled];
          v36 [fillcolor = "0.250000 1.0 1.0", label = "tosa.add : (tensor<?x5x128x1xi32...)\n", shape = ellipse, style = filled];
          v37 [fillcolor = "0.166667 1.0 1.0", label = "tosa.cast : (tensor<?x5x128x1xi8>)\n", shape = ellipse, style = filled];
          v38 [fillcolor = "0.333333 1.0 1.0", label = "tosa.reshape : (tensor<?x640xi8>)\n\nnew_shape: array<i64: -1, 640>", shape = ellipse, style = filled];
          v39 [fillcolor = "0.416667 1.0 1.0", label = "tosa.fully_connected : (tensor<?x128xi32>)\n\nquantization_info: #tosa.conv_quant<inp...", shape = ellipse, style = filled];
          v40 [fillcolor = "0.500000 1.0 1.0", label = "tosa.rescale : (tensor<?x128xi8>)\n\ndouble_round: true\ninput_zp: 0 : i32\nmultiplier: array<i32: 129479977...\noutput_zp: -128 : i32\nper_channel: false\nscale32: true\nshift: array<i8: 41>", shape = ellipse, style = filled];
          v41 [fillcolor = "0.583333 1.0 1.0", label = "tosa.clamp : (tensor<?x128xi8>)\n\nmax_fp: 0.000000e+00 : f32\nmax_int: 127 : i64\nmin_fp: 0.000000e+00 : f32\nmin_int: -128 : i64", shape = ellipse, style = filled];
          v42 [fillcolor = "0.416667 1.0 1.0", label = "tosa.fully_connected : (tensor<?x128xi32>)\n\nquantization_info: #tosa.conv_quant<inp...", shape = ellipse, style = filled];
          v43 [fillcolor = "0.500000 1.0 1.0", label = "tosa.rescale : (tensor<?x128xi8>)\n\ndouble_round: true\ninput_zp: 0 : i32\nmultiplier: array<i32: 201229743...\noutput_zp: -128 : i32\nper_channel: false\nscale32: true\nshift: array<i8: 39>", shape = ellipse, style = filled];
          v44 [fillcolor = "0.583333 1.0 1.0", label = "tosa.clamp : (tensor<?x128xi8>)\n\nmax_fp: 0.000000e+00 : f32\nmax_int: 127 : i64\nmin_fp: 0.000000e+00 : f32\nmin_int: -128 : i64", shape = ellipse, style = filled];
          v45 [fillcolor = "0.416667 1.0 1.0", label = "tosa.fully_connected : (tensor<?x128xi32>)\n\nquantization_info: #tosa.conv_quant<inp...", shape = ellipse, style = filled];
          v46 [fillcolor = "0.500000 1.0 1.0", label = "tosa.rescale : (tensor<?x128xi8>)\n\ndouble_round: true\ninput_zp: 0 : i32\nmultiplier: array<i32: 184737623...\noutput_zp: -128 : i32\nper_channel: false\nscale32: true\nshift: array<i8: 39>", shape = ellipse, style = filled];
          v47 [fillcolor = "0.583333 1.0 1.0", label = "tosa.clamp : (tensor<?x128xi8>)\n\nmax_fp: 0.000000e+00 : f32\nmax_int: 127 : i64\nmin_fp: 0.000000e+00 : f32\nmin_int: -128 : i64", shape = ellipse, style = filled];
          v48 [fillcolor = "0.416667 1.0 1.0", label = "tosa.fully_connected : (tensor<?x128xi32>)\n\nquantization_info: #tosa.conv_quant<inp...", shape = ellipse, style = filled];
          v49 [fillcolor = "0.500000 1.0 1.0", label = "tosa.rescale : (tensor<?x128xi8>)\n\ndouble_round: true\ninput_zp: 0 : i32\nmultiplier: array<i32: 197312756...\noutput_zp: -128 : i32\nper_channel: false\nscale32: true\nshift: array<i8: 39>", shape = ellipse, style = filled];
          v50 [fillcolor = "0.583333 1.0 1.0", label = "tosa.clamp : (tensor<?x128xi8>)\n\nmax_fp: 0.000000e+00 : f32\nmax_int: 127 : i64\nmin_fp: 0.000000e+00 : f32\nmin_int: -128 : i64", shape = ellipse, style = filled];
          v51 [fillcolor = "0.416667 1.0 1.0", label = "tosa.fully_connected : (tensor<?x8xi32>)\n\nquantization_info: #tosa.conv_quant<inp...", shape = ellipse, style = filled];
          v52 [fillcolor = "0.500000 1.0 1.0", label = "tosa.rescale : (tensor<?x8xi8>)\n\ndouble_round: true\ninput_zp: 0 : i32\nmultiplier: array<i32: 144000853...\noutput_zp: -128 : i32\nper_channel: false\nscale32: true\nshift: array<i8: 39>", shape = ellipse, style = filled];
          v53 [fillcolor = "0.583333 1.0 1.0", label = "tosa.clamp : (tensor<?x8xi8>)\n\nmax_fp: 0.000000e+00 : f32\nmax_int: 127 : i64\nmin_fp: 0.000000e+00 : f32\nmin_int: -128 : i64", shape = ellipse, style = filled];
          v54 [fillcolor = "0.416667 1.0 1.0", label = "tosa.fully_connected : (tensor<?x128xi32>)\n\nquantization_info: #tosa.conv_quant<inp...", shape = ellipse, style = filled];
          v55 [fillcolor = "0.500000 1.0 1.0", label = "tosa.rescale : (tensor<?x128xi8>)\n\ndouble_round: true\ninput_zp: 0 : i32\nmultiplier: array<i32: 153333233...\noutput_zp: -128 : i32\nper_channel: false\nscale32: true\nshift: array<i8: 37>", shape = ellipse, style = filled];
          v56 [fillcolor = "0.583333 1.0 1.0", label = "tosa.clamp : (tensor<?x128xi8>)\n\nmax_fp: 0.000000e+00 : f32\nmax_int: 127 : i64\nmin_fp: 0.000000e+00 : f32\nmin_int: -128 : i64", shape = ellipse, style = filled];
          v57 [fillcolor = "0.416667 1.0 1.0", label = "tosa.fully_connected : (tensor<?x128xi32>)\n\nquantization_info: #tosa.conv_quant<inp...", shape = ellipse, style = filled];
          v58 [fillcolor = "0.500000 1.0 1.0", label = "tosa.rescale : (tensor<?x128xi8>)\n\ndouble_round: true\ninput_zp: 0 : i32\nmultiplier: array<i32: 111284065...\noutput_zp: -128 : i32\nper_channel: false\nscale32: true\nshift: array<i8: 39>", shape = ellipse, style = filled];
          v59 [fillcolor = "0.583333 1.0 1.0", label = "tosa.clamp : (tensor<?x128xi8>)\n\nmax_fp: 0.000000e+00 : f32\nmax_int: 127 : i64\nmin_fp: 0.000000e+00 : f32\nmin_int: -128 : i64", shape = ellipse, style = filled];
          v60 [fillcolor = "0.416667 1.0 1.0", label = "tosa.fully_connected : (tensor<?x128xi32>)\n\nquantization_info: #tosa.conv_quant<inp...", shape = ellipse, style = filled];
          v61 [fillcolor = "0.500000 1.0 1.0", label = "tosa.rescale : (tensor<?x128xi8>)\n\ndouble_round: true\ninput_zp: 0 : i32\nmultiplier: array<i32: 108198882...\noutput_zp: -128 : i32\nper_channel: false\nscale32: true\nshift: array<i8: 38>", shape = ellipse, style = filled];
          v62 [fillcolor = "0.583333 1.0 1.0", label = "tosa.clamp : (tensor<?x128xi8>)\n\nmax_fp: 0.000000e+00 : f32\nmax_int: 127 : i64\nmin_fp: 0.000000e+00 : f32\nmin_int: -128 : i64", shape = ellipse, style = filled];
          v63 [fillcolor = "0.416667 1.0 1.0", label = "tosa.fully_connected : (tensor<?x128xi32>)\n\nquantization_info: #tosa.conv_quant<inp...", shape = ellipse, style = filled];
          v64 [fillcolor = "0.500000 1.0 1.0", label = "tosa.rescale : (tensor<?x128xi8>)\n\ndouble_round: true\ninput_zp: 0 : i32\nmultiplier: array<i32: 206797358...\noutput_zp: -128 : i32\nper_channel: false\nscale32: true\nshift: array<i8: 39>", shape = ellipse, style = filled];
          v65 [fillcolor = "0.583333 1.0 1.0", label = "tosa.clamp : (tensor<?x128xi8>)\n\nmax_fp: 0.000000e+00 : f32\nmax_int: 127 : i64\nmin_fp: 0.000000e+00 : f32\nmin_int: -128 : i64", shape = ellipse, style = filled];
          v66 [fillcolor = "0.416667 1.0 1.0", label = "tosa.fully_connected : (tensor<?x640xi32>)\n\nquantization_info: #tosa.conv_quant<inp...", shape = ellipse, style = filled];
          v67 [fillcolor = "0.500000 1.0 1.0", label = "tosa.rescale : (tensor<?x640xi8>)\n\ndouble_round: true\ninput_zp: 0 : i32\nmultiplier: array<i32: 109431276...\noutput_zp: -128 : i32\nper_channel: false\nscale32: true\nshift: array<i8: 40>", shape = ellipse, style = filled];
          v68 [fillcolor = "0.333333 1.0 1.0", label = "tosa.reshape : (tensor<?x5x128x1xi8>)\n\nnew_shape: array<i64: -1, 5, 12...", shape = ellipse, style = filled];
          v69 [fillcolor = "0.166667 1.0 1.0", label = "tosa.cast : (tensor<?x5x128x1xf32...)\n", shape = ellipse, style = filled];
          v70 [fillcolor = "0.666667 1.0 1.0", label = "tosa.sub : (tensor<?x5x128x1xf32...)\n", shape = ellipse, style = filled];
          v71 [fillcolor = "0.083333 1.0 1.0", label = "tosa.mul : (tensor<?x5x128x1xf32...)\n\nshift: 0 : i8", shape = ellipse, style = filled];
          v72 [fillcolor = "0.750000 1.0 1.0", label = "func.return : ()\n", shape = ellipse, style = filled];
        }
      }
    }
  }
  v9 -> v34 [label = "0", style = solid];
  v33 -> v34 [label = "1", style = solid];
  v34 -> v35 [label = "", style = solid];
  v35 -> v36 [label = "0", style = solid];
  v12 -> v36 [label = "1", style = solid];
  v36 -> v37 [label = "", style = solid];
  v37 -> v38 [label = "", style = solid];
  v38 -> v39 [label = "0", style = solid];
  v32 -> v39 [label = "1", style = solid];
  v31 -> v39 [label = "2", style = solid];
  v39 -> v40 [label = "", style = solid];
  v40 -> v41 [label = "", style = solid];
  v41 -> v42 [label = "0", style = solid];
  v30 -> v42 [label = "1", style = solid];
  v29 -> v42 [label = "2", style = solid];
  v42 -> v43 [label = "", style = solid];
  v43 -> v44 [label = "", style = solid];
  v44 -> v45 [label = "0", style = solid];
  v28 -> v45 [label = "1", style = solid];
  v27 -> v45 [label = "2", style = solid];
  v45 -> v46 [label = "", style = solid];
  v46 -> v47 [label = "", style = solid];
  v47 -> v48 [label = "0", style = solid];
  v26 -> v48 [label = "1", style = solid];
  v25 -> v48 [label = "2", style = solid];
  v48 -> v49 [label = "", style = solid];
  v49 -> v50 [label = "", style = solid];
  v50 -> v51 [label = "0", style = solid];
  v24 -> v51 [label = "1", style = solid];
  v23 -> v51 [label = "2", style = solid];
  v51 -> v52 [label = "", style = solid];
  v52 -> v53 [label = "", style = solid];
  v53 -> v54 [label = "0", style = solid];
  v22 -> v54 [label = "1", style = solid];
  v21 -> v54 [label = "2", style = solid];
  v54 -> v55 [label = "", style = solid];
  v55 -> v56 [label = "", style = solid];
  v56 -> v57 [label = "0", style = solid];
  v20 -> v57 [label = "1", style = solid];
  v19 -> v57 [label = "2", style = solid];
  v57 -> v58 [label = "", style = solid];
  v58 -> v59 [label = "", style = solid];
  v59 -> v60 [label = "0", style = solid];
  v18 -> v60 [label = "1", style = solid];
  v17 -> v60 [label = "2", style = solid];
  v60 -> v61 [label = "", style = solid];
  v61 -> v62 [label = "", style = solid];
  v62 -> v63 [label = "0", style = solid];
  v16 -> v63 [label = "1", style = solid];
  v15 -> v63 [label = "2", style = solid];
  v63 -> v64 [label = "", style = solid];
  v64 -> v65 [label = "", style = solid];
  v65 -> v66 [label = "0", style = solid];
  v14 -> v66 [label = "1", style = solid];
  v13 -> v66 [label = "2", style = solid];
  v66 -> v67 [label = "", style = solid];
  v67 -> v68 [label = "", style = solid];
  v68 -> v69 [label = "", style = solid];
  v69 -> v70 [label = "0", style = solid];
  v11 -> v70 [label = "1", style = solid];
  v70 -> v71 [label = "0", style = solid];
  v10 -> v71 [label = "1", style = solid];
  v71 -> v72 [label = "", style = solid];
}
