digraph G {
  compound = true;
  subgraph cluster_1 {
    v2 [label = " ", shape = plain];
    label = "builtin.module : ()\n\ntfl.description: \"TinyML: Image class...\ntfl.metadata: {SL_PARAMSv1 = \"\\0C\\...\ntfl.schema_version: 3 : i32";
    subgraph cluster_3 {
      v4 [label = " ", shape = plain];
      label = "";
      subgraph cluster_5 {
        v6 [label = " ", shape = plain];
        label = "func.func : ()\n\nfunction_type: (tensor<?x32x32x3xi8...\nsym_name: \"main\"\ntf.entry_function: {inputs = \"input_1_i...";
        subgraph cluster_7 {
          v8 [label = " ", shape = plain];
          label = "";
          v9 [label = "arg0", shape = ellipse];
          v10 [fillcolor = "0.000000 1.0 1.0", label = "tosa.const : (tensor<1x1xi32>)\n\nvalue: dense<35> : tensor<1x1xi32>", shape = ellipse, style = filled];
          v11 [fillcolor = "0.000000 1.0 1.0", label = "tosa.const : (tensor<1x1xi32>)\n\nvalue: dense<4> : tensor<1x1xi32>", shape = ellipse, style = filled];
          v12 [fillcolor = "0.000000 1.0 1.0", label = "tosa.const : (tensor<1x1xi32>)\n\nvalue: dense<536870912> : tensor<1x1xi32>", shape = ellipse, style = filled];
          v13 [fillcolor = "0.000000 1.0 1.0", label = "tosa.const : (tensor<1x1xi32>)\n\nvalue: dense<1515870810> : tensor<1x1xi32>", shape = ellipse, style = filled];
          v14 [fillcolor = "0.000000 1.0 1.0", label = "tosa.const : (tensor<1x1xi32>)\n\nvalue: dense<-1010580540> : tensor<1x1xi32>", shape = ellipse, style = filled];
          v15 [fillcolor = "0.000000 1.0 1.0", label = "tosa.const : (tensor<1x1xi32>)\n\nvalue: dense<12> : tensor<1x1xi32>", shape = ellipse, style = filled];
          v16 [fillcolor = "0.000000 1.0 1.0", label = "tosa.const : (tensor<1x1xi32>)\n\nvalue: dense<7> : tensor<1x1xi32>", shape = ellipse, style = filled];
          v17 [fillcolor = "0.000000 1.0 1.0", label = "tosa.const : (tensor<1x1xi32>)\n\nvalue: dense<1> : tensor<1x1xi32>", shape = ellipse, style = filled];
          v18 [fillcolor = "0.000000 1.0 1.0", label = "tosa.const : (tensor<1x1xi32>)\n\nvalue: dense<9> : tensor<1x1xi32>", shape = ellipse, style = filled];
          v19 [fillcolor = "0.000000 1.0 1.0", label = "tosa.const : (tensor<1x1xi32>)\n\nvalue: dense<17> : tensor<1x1xi32>", shape = ellipse, style = filled];
          v20 [fillcolor = "0.000000 1.0 1.0", label = "tosa.const : (tensor<513xi16>)\n\nvalue: [...] : tensor<513xi16>", shape = ellipse, style = filled];
          v21 [fillcolor = "0.000000 1.0 1.0", label = "tosa.const : (tensor<513xi16>)\n\nvalue: [...] : tensor<513xi16>", shape = ellipse, style = filled];
          v22 [fillcolor = "0.000000 1.0 1.0", label = "tosa.const : (tensor<513xi16>)\n\nvalue: [...] : tensor<513xi16>", shape = ellipse, style = filled];
          v23 [fillcolor = "0.000000 1.0 1.0", label = "tosa.const : (tensor<513xi16>)\n\nvalue: [...] : tensor<513xi16>", shape = ellipse, style = filled];
          v24 [fillcolor = "0.000000 1.0 1.0", label = "tosa.const : (tensor<10xi32>)\n\nvalue: [...] : tensor<10xi32>", shape = ellipse, style = filled];
          v25 [fillcolor = "0.000000 1.0 1.0", label = "tosa.const : (tensor<10x64xi8>)\n\nvalue: [[...]] : tensor<10x64xi8>", shape = ellipse, style = filled];
          v26 [fillcolor = "0.000000 1.0 1.0", label = "tosa.const : (tensor<64xi32>)\n\nvalue: [...] : tensor<64xi32>", shape = ellipse, style = filled];
          v27 [fillcolor = "0.000000 1.0 1.0", label = "tosa.const : (tensor<64x1x1x32xi8>)\n\nvalue: [[[[...]]]] : tensor<64x1x1x32xi8>", shape = ellipse, style = filled];
          v28 [fillcolor = "0.000000 1.0 1.0", label = "tosa.const : (tensor<64xi32>)\n\nvalue: [...] : tensor<64xi32>", shape = ellipse, style = filled];
          v29 [fillcolor = "0.000000 1.0 1.0", label = "tosa.const : (tensor<64x3x3x64xi8>)\n\nvalue: [[[[...]]]] : tensor<64x3x3x64xi8>", shape = ellipse, style = filled];
          v30 [fillcolor = "0.000000 1.0 1.0", label = "tosa.const : (tensor<64xi32>)\n\nvalue: [...] : tensor<64xi32>", shape = ellipse, style = filled];
          v31 [fillcolor = "0.000000 1.0 1.0", label = "tosa.const : (tensor<64x3x3x32xi8>)\n\nvalue: [[[[...]]]] : tensor<64x3x3x32xi8>", shape = ellipse, style = filled];
          v32 [fillcolor = "0.000000 1.0 1.0", label = "tosa.const : (tensor<32xi32>)\n\nvalue: [...] : tensor<32xi32>", shape = ellipse, style = filled];
          v33 [fillcolor = "0.000000 1.0 1.0", label = "tosa.const : (tensor<32x1x1x16xi8>)\n\nvalue: [[[[...]]]] : tensor<32x1x1x16xi8>", shape = ellipse, style = filled];
          v34 [fillcolor = "0.000000 1.0 1.0", label = "tosa.const : (tensor<32xi32>)\n\nvalue: [...] : tensor<32xi32>", shape = ellipse, style = filled];
          v35 [fillcolor = "0.000000 1.0 1.0", label = "tosa.const : (tensor<32x3x3x32xi8>)\n\nvalue: [[[[...]]]] : tensor<32x3x3x32xi8>", shape = ellipse, style = filled];
          v36 [fillcolor = "0.000000 1.0 1.0", label = "tosa.const : (tensor<32xi32>)\n\nvalue: [...] : tensor<32xi32>", shape = ellipse, style = filled];
          v37 [fillcolor = "0.000000 1.0 1.0", label = "tosa.const : (tensor<32x3x3x16xi8>)\n\nvalue: [[[[...]]]] : tensor<32x3x3x16xi8>", shape = ellipse, style = filled];
          v38 [fillcolor = "0.000000 1.0 1.0", label = "tosa.const : (tensor<16xi32>)\n\nvalue: [...] : tensor<16xi32>", shape = ellipse, style = filled];
          v39 [fillcolor = "0.000000 1.0 1.0", label = "tosa.const : (tensor<16x3x3x16xi8>)\n\nvalue: [[[[...]]]] : tensor<16x3x3x16xi8>", shape = ellipse, style = filled];
          v40 [fillcolor = "0.000000 1.0 1.0", label = "tosa.const : (tensor<16xi32>)\n\nvalue: [...] : tensor<16xi32>", shape = ellipse, style = filled];
          v41 [fillcolor = "0.000000 1.0 1.0", label = "tosa.const : (tensor<16x3x3x16xi8>)\n\nvalue: [[[[...]]]] : tensor<16x3x3x16xi8>", shape = ellipse, style = filled];
          v42 [fillcolor = "0.000000 1.0 1.0", label = "tosa.const : (tensor<16x3x3x3xi8>)\n\nvalue: [[[[...]]]] : tensor<16x3x3x3xi8>", shape = ellipse, style = filled];
          v43 [fillcolor = "0.000000 1.0 1.0", label = "tosa.const : (tensor<16xi32>)\n\nvalue: [...] : tensor<16xi32>", shape = ellipse, style = filled];
          v44 [fillcolor = "0.052632 1.0 1.0", label = "tosa.conv2d : (tensor<?x32x32x16xi3...)\n\ndilation: array<i64: 1, 1>\npad: array<i64: 1, 1, 1, ...\nquantization_info: #tosa.conv_quant<inp...\nstride: array<i64: 1, 1>", shape = ellipse, style = filled];
          v45 [fillcolor = "0.105263 1.0 1.0", label = "tosa.rescale : (tensor<?x32x32x16xi8...)\n\ndouble_round: true\ninput_zp: 0 : i32\nmultiplier: array<i32: 170698579...\noutput_zp: -128 : i32\nper_channel: true\nscale32: true\nshift: array<i8: 41, 39, 40...", shape = ellipse, style = filled];
          v46 [fillcolor = "0.157895 1.0 1.0", label = "tosa.clamp : (tensor<?x32x32x16xi8...)\n\nmax_fp: 0.000000e+00 : f32\nmax_int: 127 : i64\nmin_fp: 0.000000e+00 : f32\nmin_int: -128 : i64", shape = ellipse, style = filled];
          v47 [fillcolor = "0.052632 1.0 1.0", label = "tosa.conv2d : (tensor<?x32x32x16xi3...)\n\ndilation: array<i64: 1, 1>\npad: array<i64: 1, 1, 1, ...\nquantization_info: #tosa.conv_quant<inp...\nstride: array<i64: 1, 1>", shape = ellipse, style = filled];
          v48 [fillcolor = "0.105263 1.0 1.0", label = "tosa.rescale : (tensor<?x32x32x16xi8...)\n\ndouble_round: true\ninput_zp: 0 : i32\nmultiplier: array<i32: 207055213...\noutput_zp: -128 : i32\nper_channel: true\nscale32: true\nshift: array<i8: 40, 39, 40...", shape = ellipse, style = filled];
          v49 [fillcolor = "0.157895 1.0 1.0", label = "tosa.clamp : (tensor<?x32x32x16xi8...)\n\nmax_fp: 0.000000e+00 : f32\nmax_int: 127 : i64\nmin_fp: 0.000000e+00 : f32\nmin_int: -128 : i64", shape = ellipse, style = filled];
          v50 [fillcolor = "0.052632 1.0 1.0", label = "tosa.conv2d : (tensor<?x32x32x16xi3...)\n\ndilation: array<i64: 1, 1>\npad: array<i64: 1, 1, 1, ...\nquantization_info: #tosa.conv_quant<inp...\nstride: array<i64: 1, 1>", shape = ellipse, style = filled];
          v51 [fillcolor = "0.105263 1.0 1.0", label = "tosa.rescale : (tensor<?x32x32x16xi8...)\n\ndouble_round: true\ninput_zp: 0 : i32\nmultiplier: array<i32: 192857886...\noutput_zp: 20 : i32\nper_channel: true\nscale32: true\nshift: array<i8: 41, 40, 40...", shape = ellipse, style = filled];
          v52 [fillcolor = "0.105263 1.0 1.0", label = "tosa.rescale : (tensor<?x32x32x16xi3...)\n\ndouble_round: true\ninput_zp: -128 : i32\nmultiplier: array<i32: 107374182...\noutput_zp: 0 : i32\nper_channel: false\nscale32: true\nshift: array<i8: 10>", shape = ellipse, style = filled];
          v53 [fillcolor = "0.105263 1.0 1.0", label = "tosa.rescale : (tensor<?x32x32x16xi3...)\n\ndouble_round: true\ninput_zp: 0 : i32\nmultiplier: array<i32: 179039942...\noutput_zp: 0 : i32\nper_channel: false\nscale32: true\nshift: array<i8: 33>", shape = ellipse, style = filled];
          v54 [fillcolor = "0.105263 1.0 1.0", label = "tosa.rescale : (tensor<?x32x32x16xi3...)\n\ndouble_round: true\ninput_zp: 20 : i32\nmultiplier: array<i32: 107374182...\noutput_zp: 0 : i32\nper_channel: false\nscale32: true\nshift: array<i8: 11>", shape = ellipse, style = filled];
          v55 [fillcolor = "0.210526 1.0 1.0", label = "tosa.add : (tensor<?x32x32x16xi3...)\n", shape = ellipse, style = filled];
          v56 [fillcolor = "0.105263 1.0 1.0", label = "tosa.rescale : (tensor<?x32x32x16xi8...)\n\ndouble_round: true\ninput_zp: 0 : i32\nmultiplier: array<i32: 175846072...\noutput_zp: -128 : i32\nper_channel: false\nscale32: true\nshift: array<i8: 49>", shape = ellipse, style = filled];
          v57 [fillcolor = "0.157895 1.0 1.0", label = "tosa.clamp : (tensor<?x32x32x16xi8...)\n\nmax_fp: 0.000000e+00 : f32\nmax_int: 127 : i64\nmin_fp: 0.000000e+00 : f32\nmin_int: -128 : i64", shape = ellipse, style = filled];
          v58 [fillcolor = "0.052632 1.0 1.0", label = "tosa.conv2d : (tensor<?x16x16x32xi3...)\n\ndilation: array<i64: 1, 1>\npad: array<i64: 0, 1, 0, ...\nquantization_info: #tosa.conv_quant<inp...\nstride: array<i64: 2, 2>", shape = ellipse, style = filled];
          v59 [fillcolor = "0.105263 1.0 1.0", label = "tosa.rescale : (tensor<?x16x16x32xi8...)\n\ndouble_round: true\ninput_zp: 0 : i32\nmultiplier: array<i32: 124743028...\noutput_zp: -128 : i32\nper_channel: true\nscale32: true\nshift: array<i8: 39, 39, 38...", shape = ellipse, style = filled];
          v60 [fillcolor = "0.157895 1.0 1.0", label = "tosa.clamp : (tensor<?x16x16x32xi8...)\n\nmax_fp: 0.000000e+00 : f32\nmax_int: 127 : i64\nmin_fp: 0.000000e+00 : f32\nmin_int: -128 : i64", shape = ellipse, style = filled];
          v61 [fillcolor = "0.052632 1.0 1.0", label = "tosa.conv2d : (tensor<?x16x16x32xi3...)\n\ndilation: array<i64: 1, 1>\npad: array<i64: 1, 1, 1, ...\nquantization_info: #tosa.conv_quant<inp...\nstride: array<i64: 1, 1>", shape = ellipse, style = filled];
          v62 [fillcolor = "0.105263 1.0 1.0", label = "tosa.rescale : (tensor<?x16x16x32xi8...)\n\ndouble_round: true\ninput_zp: 0 : i32\nmultiplier: array<i32: 161451029...\noutput_zp: 26 : i32\nper_channel: true\nscale32: true\nshift: array<i8: 40, 41, 41...", shape = ellipse, style = filled];
          v63 [fillcolor = "0.052632 1.0 1.0", label = "tosa.conv2d : (tensor<?x16x16x32xi3...)\n\ndilation: array<i64: 1, 1>\npad: array<i64: 0, 0, 0, ...\nquantization_info: #tosa.conv_quant<inp...\nstride: array<i64: 2, 2>", shape = ellipse, style = filled];
          v64 [fillcolor = "0.105263 1.0 1.0", label = "tosa.rescale : (tensor<?x16x16x32xi8...)\n\ndouble_round: true\ninput_zp: 0 : i32\nmultiplier: array<i32: 110348188...\noutput_zp: -3 : i32\nper_channel: true\nscale32: true\nshift: array<i8: 38, 39, 40...", shape = ellipse, style = filled];
          v65 [fillcolor = "0.105263 1.0 1.0", label = "tosa.rescale : (tensor<?x16x16x32xi3...)\n\ndouble_round: true\ninput_zp: -3 : i32\nmultiplier: array<i32: 107374182...\noutput_zp: 0 : i32\nper_channel: false\nscale32: true\nshift: array<i8: 10>", shape = ellipse, style = filled];
          v66 [fillcolor = "0.105263 1.0 1.0", label = "tosa.rescale : (tensor<?x16x16x32xi3...)\n\ndouble_round: true\ninput_zp: 0 : i32\nmultiplier: array<i32: 120460663...\noutput_zp: 0 : i32\nper_channel: false\nscale32: true\nshift: array<i8: 33>", shape = ellipse, style = filled];
          v67 [fillcolor = "0.105263 1.0 1.0", label = "tosa.rescale : (tensor<?x16x16x32xi3...)\n\ndouble_round: true\ninput_zp: 26 : i32\nmultiplier: array<i32: 107374182...\noutput_zp: 0 : i32\nper_channel: false\nscale32: true\nshift: array<i8: 11>", shape = ellipse, style = filled];
          v68 [fillcolor = "0.210526 1.0 1.0", label = "tosa.add : (tensor<?x16x16x32xi3...)\n", shape = ellipse, style = filled];
          v69 [fillcolor = "0.105263 1.0 1.0", label = "tosa.rescale : (tensor<?x16x16x32xi8...)\n\ndouble_round: true\ninput_zp: 0 : i32\nmultiplier: array<i32: 137972914...\noutput_zp: -128 : i32\nper_channel: false\nscale32: true\nshift: array<i8: 48>", shape = ellipse, style = filled];
          v70 [fillcolor = "0.157895 1.0 1.0", label = "tosa.clamp : (tensor<?x16x16x32xi8...)\n\nmax_fp: 0.000000e+00 : f32\nmax_int: 127 : i64\nmin_fp: 0.000000e+00 : f32\nmin_int: -128 : i64", shape = ellipse, style = filled];
          v71 [fillcolor = "0.052632 1.0 1.0", label = "tosa.conv2d : (tensor<?x8x8x64xi32>)\n\ndilation: array<i64: 1, 1>\npad: array<i64: 0, 1, 0, ...\nquantization_info: #tosa.conv_quant<inp...\nstride: array<i64: 2, 2>", shape = ellipse, style = filled];
          v72 [fillcolor = "0.105263 1.0 1.0", label = "tosa.rescale : (tensor<?x8x8x64xi8>)\n\ndouble_round: true\ninput_zp: 0 : i32\nmultiplier: array<i32: 174622735...\noutput_zp: -128 : i32\nper_channel: true\nscale32: true\nshift: array<i8: 40, 40, 40...", shape = ellipse, style = filled];
          v73 [fillcolor = "0.157895 1.0 1.0", label = "tosa.clamp : (tensor<?x8x8x64xi8>)\n\nmax_fp: 0.000000e+00 : f32\nmax_int: 127 : i64\nmin_fp: 0.000000e+00 : f32\nmin_int: -128 : i64", shape = ellipse, style = filled];
          v74 [fillcolor = "0.052632 1.0 1.0", label = "tosa.conv2d : (tensor<?x8x8x64xi32>)\n\ndilation: array<i64: 1, 1>\npad: array<i64: 1, 1, 1, ...\nquantization_info: #tosa.conv_quant<inp...\nstride: array<i64: 1, 1>", shape = ellipse, style = filled];
          v75 [fillcolor = "0.105263 1.0 1.0", label = "tosa.rescale : (tensor<?x8x8x64xi8>)\n\ndouble_round: true\ninput_zp: 0 : i32\nmultiplier: array<i32: 181175158...\noutput_zp: -21 : i32\nper_channel: true\nscale32: true\nshift: array<i8: 40, 40, 40...", shape = ellipse, style = filled];
          v76 [fillcolor = "0.052632 1.0 1.0", label = "tosa.conv2d : (tensor<?x8x8x64xi32>)\n\ndilation: array<i64: 1, 1>\npad: array<i64: 0, 0, 0, ...\nquantization_info: #tosa.conv_quant<inp...\nstride: array<i64: 2, 2>", shape = ellipse, style = filled];
          v77 [fillcolor = "0.105263 1.0 1.0", label = "tosa.rescale : (tensor<?x8x8x64xi8>)\n\ndouble_round: true\ninput_zp: 0 : i32\nmultiplier: array<i32: 126923937...\noutput_zp: 52 : i32\nper_channel: true\nscale32: true\nshift: array<i8: 39, 40, 40...", shape = ellipse, style = filled];
          v78 [fillcolor = "0.105263 1.0 1.0", label = "tosa.rescale : (tensor<?x8x8x64xi32>)\n\ndouble_round: true\ninput_zp: 52 : i32\nmultiplier: array<i32: 107374182...\noutput_zp: 0 : i32\nper_channel: false\nscale32: true\nshift: array<i8: 10>", shape = ellipse, style = filled];
          v79 [fillcolor = "0.105263 1.0 1.0", label = "tosa.rescale : (tensor<?x8x8x64xi32>)\n\ndouble_round: true\ninput_zp: 0 : i32\nmultiplier: array<i32: 179422796...\noutput_zp: 0 : i32\nper_channel: false\nscale32: true\nshift: array<i8: 33>", shape = ellipse, style = filled];
          v80 [fillcolor = "0.105263 1.0 1.0", label = "tosa.rescale : (tensor<?x8x8x64xi32>)\n\ndouble_round: true\ninput_zp: -21 : i32\nmultiplier: array<i32: 107374182...\noutput_zp: 0 : i32\nper_channel: false\nscale32: true\nshift: array<i8: 11>", shape = ellipse, style = filled];
          v81 [fillcolor = "0.210526 1.0 1.0", label = "tosa.add : (tensor<?x8x8x64xi32>)\n", shape = ellipse, style = filled];
          v82 [fillcolor = "0.105263 1.0 1.0", label = "tosa.rescale : (tensor<?x8x8x64xi8>)\n\ndouble_round: true\ninput_zp: 0 : i32\nmultiplier: array<i32: 209782800...\noutput_zp: -128 : i32\nper_channel: false\nscale32: true\nshift: array<i8: 49>", shape = ellipse, style = filled];
          v83 [fillcolor = "0.157895 1.0 1.0", label = "tosa.clamp : (tensor<?x8x8x64xi8>)\n\nmax_fp: 0.000000e+00 : f32\nmax_int: 127 : i64\nmin_fp: 0.000000e+00 : f32\nmin_int: -128 : i64", shape = ellipse, style = filled];
          v84 [fillcolor = "0.263158 1.0 1.0", label = "tosa.avg_pool2d : (tensor<?x1x1x64xi8>)\n\nacc_type: i32\nkernel: array<i64: 8, 8>\npad: array<i64: 0, 0, 0, ...\nquantization_info: #tosa.unary_quant<in...\nstride: array<i64: 8, 8>", shape = ellipse, style = filled];
          v85 [fillcolor = "0.315789 1.0 1.0", label = "tosa.reshape : (tensor<?x64xi8>)\n\nnew_shape: array<i64: -1, 64>", shape = ellipse, style = filled];
          v86 [fillcolor = "0.368421 1.0 1.0", label = "tosa.fully_connected : (tensor<?x10xi32>)\n\nquantization_info: #tosa.conv_quant<inp...", shape = ellipse, style = filled];
          v87 [fillcolor = "0.105263 1.0 1.0", label = "tosa.rescale : (tensor<?x10xi8>)\n\ndouble_round: true\ninput_zp: 0 : i32\nmultiplier: array<i32: 107692145...\noutput_zp: 32 : i32\nper_channel: false\nscale32: true\nshift: array<i8: 35>", shape = ellipse, style = filled];
          v88 [fillcolor = "0.105263 1.0 1.0", label = "tosa.rescale : (tensor<?x10xi32>)\n\ndouble_round: false\ninput_zp: 32 : i32\nmultiplier: array<i32: 107374182...\noutput_zp: 0 : i32\nper_channel: false\nscale32: true\nshift: array<i8: 30>", shape = ellipse, style = filled];
          v89 [fillcolor = "0.421053 1.0 1.0", label = "tosa.reduce_max : (tensor<?x1xi32>)\n\naxis: 1 : i32", shape = ellipse, style = filled];
          v90 [fillcolor = "0.473684 1.0 1.0", label = "tosa.sub : (tensor<?x10xi32>)\n", shape = ellipse, style = filled];
          v91 [fillcolor = "0.105263 1.0 1.0", label = "tosa.rescale : (tensor<?x10xi16>)\n\ndouble_round: false\ninput_zp: 0 : i32\nmultiplier: array<i32: 107374182...\noutput_zp: 0 : i32\nper_channel: false\nscale32: true\nshift: array<i8: 23>", shape = ellipse, style = filled];
          v92 [fillcolor = "0.526316 1.0 1.0", label = "tosa.table : (tensor<?x10xi32>)\n", shape = ellipse, style = filled];
          v93 [fillcolor = "0.526316 1.0 1.0", label = "tosa.table : (tensor<?x10xi32>)\n", shape = ellipse, style = filled];
          v94 [fillcolor = "0.526316 1.0 1.0", label = "tosa.table : (tensor<?x10xi32>)\n", shape = ellipse, style = filled];
          v95 [fillcolor = "0.526316 1.0 1.0", label = "tosa.table : (tensor<?x10xi32>)\n", shape = ellipse, style = filled];
          v96 [fillcolor = "0.578947 1.0 1.0", label = "tosa.logical_left_shift : (tensor<?x10xi32>)\n", shape = ellipse, style = filled];
          v97 [fillcolor = "0.578947 1.0 1.0", label = "tosa.logical_left_shift : (tensor<?x10xi32>)\n", shape = ellipse, style = filled];
          v98 [fillcolor = "0.578947 1.0 1.0", label = "tosa.logical_left_shift : (tensor<?x10xi32>)\n", shape = ellipse, style = filled];
          v99 [fillcolor = "0.631579 1.0 1.0", label = "tosa.arithmetic_right_shift : (tensor<?x10xi32>)\n\nround: true", shape = ellipse, style = filled];
          v100 [fillcolor = "0.210526 1.0 1.0", label = "tosa.add : (tensor<?x10xi32>)\n", shape = ellipse, style = filled];
          v101 [fillcolor = "0.210526 1.0 1.0", label = "tosa.add : (tensor<?x10xi32>)\n", shape = ellipse, style = filled];
          v102 [fillcolor = "0.210526 1.0 1.0", label = "tosa.add : (tensor<?x10xi32>)\n", shape = ellipse, style = filled];
          v103 [fillcolor = "0.631579 1.0 1.0", label = "tosa.arithmetic_right_shift : (tensor<?x10xi32>)\n\nround: true", shape = ellipse, style = filled];
          v104 [fillcolor = "0.684211 1.0 1.0", label = "tosa.reduce_sum : (tensor<?x1xi32>)\n\naxis: 1 : i32", shape = ellipse, style = filled];
          v105 [fillcolor = "0.736842 1.0 1.0", label = "tosa.clz : (tensor<?x1xi32>)\n", shape = ellipse, style = filled];
          v106 [fillcolor = "0.473684 1.0 1.0", label = "tosa.sub : (tensor<?x1xi32>)\n", shape = ellipse, style = filled];
          v107 [fillcolor = "0.578947 1.0 1.0", label = "tosa.logical_left_shift : (tensor<?x1xi32>)\n", shape = ellipse, style = filled];
          v108 [fillcolor = "0.789474 1.0 1.0", label = "tosa.mul : (tensor<?x1xi32>)\n\nshift: 31 : i8", shape = ellipse, style = filled];
          v109 [fillcolor = "0.210526 1.0 1.0", label = "tosa.add : (tensor<?x1xi32>)\n", shape = ellipse, style = filled];
          v110 [fillcolor = "0.789474 1.0 1.0", label = "tosa.mul : (tensor<?x1xi32>)\n\nshift: 31 : i8", shape = ellipse, style = filled];
          v111 [fillcolor = "0.473684 1.0 1.0", label = "tosa.sub : (tensor<?x1xi32>)\n", shape = ellipse, style = filled];
          v112 [fillcolor = "0.789474 1.0 1.0", label = "tosa.mul : (tensor<?x1xi32>)\n\nshift: 31 : i8", shape = ellipse, style = filled];
          v113 [fillcolor = "0.789474 1.0 1.0", label = "tosa.mul : (tensor<?x1xi32>)\n\nshift: 0 : i8", shape = ellipse, style = filled];
          v114 [fillcolor = "0.210526 1.0 1.0", label = "tosa.add : (tensor<?x1xi32>)\n", shape = ellipse, style = filled];
          v115 [fillcolor = "0.789474 1.0 1.0", label = "tosa.mul : (tensor<?x1xi32>)\n\nshift: 31 : i8", shape = ellipse, style = filled];
          v116 [fillcolor = "0.473684 1.0 1.0", label = "tosa.sub : (tensor<?x1xi32>)\n", shape = ellipse, style = filled];
          v117 [fillcolor = "0.789474 1.0 1.0", label = "tosa.mul : (tensor<?x1xi32>)\n\nshift: 31 : i8", shape = ellipse, style = filled];
          v118 [fillcolor = "0.789474 1.0 1.0", label = "tosa.mul : (tensor<?x1xi32>)\n\nshift: 0 : i8", shape = ellipse, style = filled];
          v119 [fillcolor = "0.210526 1.0 1.0", label = "tosa.add : (tensor<?x1xi32>)\n", shape = ellipse, style = filled];
          v120 [fillcolor = "0.789474 1.0 1.0", label = "tosa.mul : (tensor<?x1xi32>)\n\nshift: 31 : i8", shape = ellipse, style = filled];
          v121 [fillcolor = "0.473684 1.0 1.0", label = "tosa.sub : (tensor<?x1xi32>)\n", shape = ellipse, style = filled];
          v122 [fillcolor = "0.789474 1.0 1.0", label = "tosa.mul : (tensor<?x1xi32>)\n\nshift: 31 : i8", shape = ellipse, style = filled];
          v123 [fillcolor = "0.789474 1.0 1.0", label = "tosa.mul : (tensor<?x1xi32>)\n\nshift: 0 : i8", shape = ellipse, style = filled];
          v124 [fillcolor = "0.210526 1.0 1.0", label = "tosa.add : (tensor<?x1xi32>)\n", shape = ellipse, style = filled];
          v125 [fillcolor = "0.789474 1.0 1.0", label = "tosa.mul : (tensor<?x10xi32>)\n\nshift: 30 : i8", shape = ellipse, style = filled];
          v126 [fillcolor = "0.473684 1.0 1.0", label = "tosa.sub : (tensor<?x1xi32>)\n", shape = ellipse, style = filled];
          v127 [fillcolor = "0.631579 1.0 1.0", label = "tosa.arithmetic_right_shift : (tensor<?x10xi32>)\n\nround: true", shape = ellipse, style = filled];
          v128 [fillcolor = "0.105263 1.0 1.0", label = "tosa.rescale : (tensor<?x10xi8>)\n\ndouble_round: false\ninput_zp: 0 : i32\nmultiplier: array<i32: 107374182...\noutput_zp: -128 : i32\nper_channel: false\nscale32: true\nshift: array<i8: 30>", shape = ellipse, style = filled];
          v129 [fillcolor = "0.842105 1.0 1.0", label = "func.return : ()\n", shape = ellipse, style = filled];
        }
      }
    }
  }
  v9 -> v44 [label = "0", style = solid];
  v42 -> v44 [label = "1", style = solid];
  v43 -> v44 [label = "2", style = solid];
  v44 -> v45 [label = "", style = solid];
  v45 -> v46 [label = "", style = solid];
  v46 -> v47 [label = "0", style = solid];
  v41 -> v47 [label = "1", style = solid];
  v40 -> v47 [label = "2", style = solid];
  v47 -> v48 [label = "", style = solid];
  v48 -> v49 [label = "", style = solid];
  v49 -> v50 [label = "0", style = solid];
  v39 -> v50 [label = "1", style = solid];
  v38 -> v50 [label = "2", style = solid];
  v50 -> v51 [label = "", style = solid];
  v46 -> v52 [label = "", style = solid];
  v52 -> v53 [label = "", style = solid];
  v51 -> v54 [label = "", style = solid];
  v53 -> v55 [label = "0", style = solid];
  v54 -> v55 [label = "1", style = solid];
  v55 -> v56 [label = "", style = solid];
  v56 -> v57 [label = "", style = solid];
  v57 -> v58 [label = "0", style = solid];
  v37 -> v58 [label = "1", style = solid];
  v36 -> v58 [label = "2", style = solid];
  v58 -> v59 [label = "", style = solid];
  v59 -> v60 [label = "", style = solid];
  v60 -> v61 [label = "0", style = solid];
  v35 -> v61 [label = "1", style = solid];
  v34 -> v61 [label = "2", style = solid];
  v61 -> v62 [label = "", style = solid];
  v57 -> v63 [label = "0", style = solid];
  v33 -> v63 [label = "1", style = solid];
  v32 -> v63 [label = "2", style = solid];
  v63 -> v64 [label = "", style = solid];
  v64 -> v65 [label = "", style = solid];
  v65 -> v66 [label = "", style = solid];
  v62 -> v67 [label = "", style = solid];
  v66 -> v68 [label = "0", style = solid];
  v67 -> v68 [label = "1", style = solid];
  v68 -> v69 [label = "", style = solid];
  v69 -> v70 [label = "", style = solid];
  v70 -> v71 [label = "0", style = solid];
  v31 -> v71 [label = "1", style = solid];
  v30 -> v71 [label = "2", style = solid];
  v71 -> v72 [label = "", style = solid];
  v72 -> v73 [label = "", style = solid];
  v73 -> v74 [label = "0", style = solid];
  v29 -> v74 [label = "1", style = solid];
  v28 -> v74 [label = "2", style = solid];
  v74 -> v75 [label = "", style = solid];
  v70 -> v76 [label = "0", style = solid];
  v27 -> v76 [label = "1", style = solid];
  v26 -> v76 [label = "2", style = solid];
  v76 -> v77 [label = "", style = solid];
  v77 -> v78 [label = "", style = solid];
  v78 -> v79 [label = "", style = solid];
  v75 -> v80 [label = "", style = solid];
  v79 -> v81 [label = "0", style = solid];
  v80 -> v81 [label = "1", style = solid];
  v81 -> v82 [label = "", style = solid];
  v82 -> v83 [label = "", style = solid];
  v83 -> v84 [label = "", style = solid];
  v84 -> v85 [label = "", style = solid];
  v85 -> v86 [label = "0", style = solid];
  v25 -> v86 [label = "1", style = solid];
  v24 -> v86 [label = "2", style = solid];
  v86 -> v87 [label = "", style = solid];
  v87 -> v88 [label = "", style = solid];
  v88 -> v89 [label = "", style = solid];
  v88 -> v90 [label = "0", style = solid];
  v89 -> v90 [label = "1", style = solid];
  v90 -> v91 [label = "", style = solid];
  v91 -> v92 [label = "0", style = solid];
  v23 -> v92 [label = "1", style = solid];
  v91 -> v93 [label = "0", style = solid];
  v22 -> v93 [label = "1", style = solid];
  v91 -> v94 [label = "0", style = solid];
  v21 -> v94 [label = "1", style = solid];
  v91 -> v95 [label = "0", style = solid];
  v20 -> v95 [label = "1", style = solid];
  v92 -> v96 [label = "0", style = solid];
  v19 -> v96 [label = "1", style = solid];
  v93 -> v97 [label = "0", style = solid];
  v18 -> v97 [label = "1", style = solid];
  v94 -> v98 [label = "0", style = solid];
  v17 -> v98 [label = "1", style = solid];
  v95 -> v99 [label = "0", style = solid];
  v16 -> v99 [label = "1", style = solid];
  v96 -> v100 [label = "0", style = solid];
  v97 -> v100 [label = "1", style = solid];
  v100 -> v101 [label = "0", style = solid];
  v98 -> v101 [label = "1", style = solid];
  v101 -> v102 [label = "0", style = solid];
  v99 -> v102 [label = "1", style = solid];
  v102 -> v103 [label = "0", style = solid];
  v15 -> v103 [label = "1", style = solid];
  v103 -> v104 [label = "", style = solid];
  v104 -> v105 [label = "", style = solid];
  v105 -> v106 [label = "0", style = solid];
  v17 -> v106 [label = "1", style = solid];
  v104 -> v107 [label = "0", style = solid];
  v106 -> v107 [label = "1", style = solid];
  v107 -> v108 [label = "0", style = solid];
  v14 -> v108 [label = "1", style = solid];
  v108 -> v109 [label = "0", style = solid];
  v13 -> v109 [label = "1", style = solid];
  v109 -> v110 [label = "0", style = solid];
  v107 -> v110 [label = "1", style = solid];
  v12 -> v111 [label = "0", style = solid];
  v110 -> v111 [label = "1", style = solid];
  v109 -> v112 [label = "0", style = solid];
  v111 -> v112 [label = "1", style = solid];
  v112 -> v113 [label = "0", style = solid];
  v11 -> v113 [label = "1", style = solid];
  v109 -> v114 [label = "0", style = solid];
  v113 -> v114 [label = "1", style = solid];
  v114 -> v115 [label = "0", style = solid];
  v107 -> v115 [label = "1", style = solid];
  v12 -> v116 [label = "0", style = solid];
  v115 -> v116 [label = "1", style = solid];
  v114 -> v117 [label = "0", style = solid];
  v116 -> v117 [label = "1", style = solid];
  v117 -> v118 [label = "0", style = solid];
  v11 -> v118 [label = "1", style = solid];
  v114 -> v119 [label = "0", style = solid];
  v118 -> v119 [label = "1", style = solid];
  v119 -> v120 [label = "0", style = solid];
  v107 -> v120 [label = "1", style = solid];
  v12 -> v121 [label = "0", style = solid];
  v120 -> v121 [label = "1", style = solid];
  v119 -> v122 [label = "0", style = solid];
  v121 -> v122 [label = "1", style = solid];
  v122 -> v123 [label = "0", style = solid];
  v11 -> v123 [label = "1", style = solid];
  v119 -> v124 [label = "0", style = solid];
  v123 -> v124 [label = "1", style = solid];
  v102 -> v125 [label = "0", style = solid];
  v124 -> v125 [label = "1", style = solid];
  v10 -> v126 [label = "0", style = solid];
  v105 -> v126 [label = "1", style = solid];
  v125 -> v127 [label = "0", style = solid];
  v126 -> v127 [label = "1", style = solid];
  v127 -> v128 [label = "", style = solid];
  v128 -> v129 [label = "", style = solid];
}
