digraph G {
  compound = true;
  subgraph cluster_1 {
    v2 [label = " ", shape = plain];
    label = "builtin.module : ()\n\ntfl.description: \"TinyML: Keyword spo...\ntfl.metadata: {SL_PARAMSv1 = \"\\0C\\...\ntfl.schema_version: 3 : i32";
    subgraph cluster_3 {
      v4 [label = " ", shape = plain];
      label = "";
      subgraph cluster_5 {
        v6 [label = " ", shape = plain];
        label = "func.func : ()\n\nfunction_type: (tensor<?x50x10x1xf3...\nsym_name: \"main\"\ntf.entry_function: {inputs = \"input_1\",...";
        subgraph cluster_7 {
          v8 [label = " ", shape = plain];
          label = "";
          v9 [label = "arg0", shape = ellipse];
          v10 [fillcolor = "0.000000 1.0 1.0", label = "tosa.const : (tensor<3x3x64x1xi8>)\n\nvalue: [[[[...]]]] : tensor<3x3x64x1xi8>", shape = ellipse, style = filled];
          v11 [fillcolor = "0.000000 1.0 1.0", label = "tosa.const : (tensor<3x3x64x1xi8>)\n\nvalue: [[[[...]]]] : tensor<3x3x64x1xi8>", shape = ellipse, style = filled];
          v12 [fillcolor = "0.000000 1.0 1.0", label = "tosa.const : (tensor<3x3x64x1xi8>)\n\nvalue: [[[[...]]]] : tensor<3x3x64x1xi8>", shape = ellipse, style = filled];
          v13 [fillcolor = "0.000000 1.0 1.0", label = "tosa.const : (tensor<3x3x64x1xi8>)\n\nvalue: [[[[...]]]] : tensor<3x3x64x1xi8>", shape = ellipse, style = filled];
          v14 [fillcolor = "0.000000 1.0 1.0", label = "tosa.const : (tensor<1x1xf32>)\n\nvalue: dense<3.906250e-03> : tensor<1x1xf32>", shape = ellipse, style = filled];
          v15 [fillcolor = "0.000000 1.0 1.0", label = "tosa.const : (tensor<1x1xf32>)\n\nvalue: dense<-1.280000e+02> : tensor<1x1xf32>", shape = ellipse, style = filled];
          v16 [fillcolor = "0.000000 1.0 1.0", label = "tosa.const : (tensor<1x1xi32>)\n\nvalue: dense<35> : tensor<1x1xi32>", shape = ellipse, style = filled];
          v17 [fillcolor = "0.000000 1.0 1.0", label = "tosa.const : (tensor<1x1xi32>)\n\nvalue: dense<4> : tensor<1x1xi32>", shape = ellipse, style = filled];
          v18 [fillcolor = "0.000000 1.0 1.0", label = "tosa.const : (tensor<1x1xi32>)\n\nvalue: dense<536870912> : tensor<1x1xi32>", shape = ellipse, style = filled];
          v19 [fillcolor = "0.000000 1.0 1.0", label = "tosa.const : (tensor<1x1xi32>)\n\nvalue: dense<1515870810> : tensor<1x1xi32>", shape = ellipse, style = filled];
          v20 [fillcolor = "0.000000 1.0 1.0", label = "tosa.const : (tensor<1x1xi32>)\n\nvalue: dense<-1010580540> : tensor<1x1xi32>", shape = ellipse, style = filled];
          v21 [fillcolor = "0.000000 1.0 1.0", label = "tosa.const : (tensor<1x1xi32>)\n\nvalue: dense<12> : tensor<1x1xi32>", shape = ellipse, style = filled];
          v22 [fillcolor = "0.000000 1.0 1.0", label = "tosa.const : (tensor<1x1xi32>)\n\nvalue: dense<7> : tensor<1x1xi32>", shape = ellipse, style = filled];
          v23 [fillcolor = "0.000000 1.0 1.0", label = "tosa.const : (tensor<1x1xi32>)\n\nvalue: dense<1> : tensor<1x1xi32>", shape = ellipse, style = filled];
          v24 [fillcolor = "0.000000 1.0 1.0", label = "tosa.const : (tensor<1x1xi32>)\n\nvalue: dense<9> : tensor<1x1xi32>", shape = ellipse, style = filled];
          v25 [fillcolor = "0.000000 1.0 1.0", label = "tosa.const : (tensor<1x1xi32>)\n\nvalue: dense<17> : tensor<1x1xi32>", shape = ellipse, style = filled];
          v26 [fillcolor = "0.000000 1.0 1.0", label = "tosa.const : (tensor<1x1x1x1xi32>)\n\nvalue: dense<-128> : tensor<1x1x1x1xi32>", shape = ellipse, style = filled];
          v27 [fillcolor = "0.000000 1.0 1.0", label = "tosa.const : (tensor<513xi16>)\n\nvalue: [...] : tensor<513xi16>", shape = ellipse, style = filled];
          v28 [fillcolor = "0.000000 1.0 1.0", label = "tosa.const : (tensor<513xi16>)\n\nvalue: [...] : tensor<513xi16>", shape = ellipse, style = filled];
          v29 [fillcolor = "0.000000 1.0 1.0", label = "tosa.const : (tensor<513xi16>)\n\nvalue: [...] : tensor<513xi16>", shape = ellipse, style = filled];
          v30 [fillcolor = "0.000000 1.0 1.0", label = "tosa.const : (tensor<513xi16>)\n\nvalue: [...] : tensor<513xi16>", shape = ellipse, style = filled];
          v31 [fillcolor = "0.000000 1.0 1.0", label = "tosa.const : (tensor<12xi32>)\n\nvalue: [...] : tensor<12xi32>", shape = ellipse, style = filled];
          v32 [fillcolor = "0.000000 1.0 1.0", label = "tosa.const : (tensor<12x64xi8>)\n\nvalue: [[...]] : tensor<12x64xi8>", shape = ellipse, style = filled];
          v33 [fillcolor = "0.000000 1.0 1.0", label = "tosa.const : (tensor<64xi32>)\n\nvalue: [...] : tensor<64xi32>", shape = ellipse, style = filled];
          v34 [fillcolor = "0.000000 1.0 1.0", label = "tosa.const : (tensor<64x1x1x64xi8>)\n\nvalue: [[[[...]]]] : tensor<64x1x1x64xi8>", shape = ellipse, style = filled];
          v35 [fillcolor = "0.000000 1.0 1.0", label = "tosa.const : (tensor<64xi32>)\n\nvalue: [...] : tensor<64xi32>", shape = ellipse, style = filled];
          v36 [fillcolor = "0.000000 1.0 1.0", label = "tosa.const : (tensor<64xi32>)\n\nvalue: [...] : tensor<64xi32>", shape = ellipse, style = filled];
          v37 [fillcolor = "0.000000 1.0 1.0", label = "tosa.const : (tensor<64x1x1x64xi8>)\n\nvalue: [[[[...]]]] : tensor<64x1x1x64xi8>", shape = ellipse, style = filled];
          v38 [fillcolor = "0.000000 1.0 1.0", label = "tosa.const : (tensor<64xi32>)\n\nvalue: [...] : tensor<64xi32>", shape = ellipse, style = filled];
          v39 [fillcolor = "0.000000 1.0 1.0", label = "tosa.const : (tensor<64xi32>)\n\nvalue: [...] : tensor<64xi32>", shape = ellipse, style = filled];
          v40 [fillcolor = "0.000000 1.0 1.0", label = "tosa.const : (tensor<64x1x1x64xi8>)\n\nvalue: [[[[...]]]] : tensor<64x1x1x64xi8>", shape = ellipse, style = filled];
          v41 [fillcolor = "0.000000 1.0 1.0", label = "tosa.const : (tensor<64xi32>)\n\nvalue: [...] : tensor<64xi32>", shape = ellipse, style = filled];
          v42 [fillcolor = "0.000000 1.0 1.0", label = "tosa.const : (tensor<64xi32>)\n\nvalue: [...] : tensor<64xi32>", shape = ellipse, style = filled];
          v43 [fillcolor = "0.000000 1.0 1.0", label = "tosa.const : (tensor<64x1x1x64xi8>)\n\nvalue: [[[[...]]]] : tensor<64x1x1x64xi8>", shape = ellipse, style = filled];
          v44 [fillcolor = "0.000000 1.0 1.0", label = "tosa.const : (tensor<64xi32>)\n\nvalue: [...] : tensor<64xi32>", shape = ellipse, style = filled];
          v45 [fillcolor = "0.000000 1.0 1.0", label = "tosa.const : (tensor<64xi32>)\n\nvalue: [...] : tensor<64xi32>", shape = ellipse, style = filled];
          v46 [fillcolor = "0.000000 1.0 1.0", label = "tosa.const : (tensor<64x10x4x1xi8>)\n\nvalue: [[[[...]]]] : tensor<64x10x4x1xi8>", shape = ellipse, style = filled];
          v47 [fillcolor = "0.000000 1.0 1.0", label = "tosa.const : (tensor<1x1x1x1xf32>)\n\nvalue: dense<1.13505387> : tensor<1x1x1x1xf32>", shape = ellipse, style = filled];
          v48 [fillcolor = "0.047619 1.0 1.0", label = "tosa.mul : (tensor<?x50x10x1xf32...)\n\nshift: 0 : i8", shape = ellipse, style = filled];
          v49 [fillcolor = "0.095238 1.0 1.0", label = "tosa.cast : (tensor<?x50x10x1xi32...)\n", shape = ellipse, style = filled];
          v50 [fillcolor = "0.142857 1.0 1.0", label = "tosa.add : (tensor<?x50x10x1xi32...)\n", shape = ellipse, style = filled];
          v51 [fillcolor = "0.095238 1.0 1.0", label = "tosa.cast : (tensor<?x50x10x1xi8>)\n", shape = ellipse, style = filled];
          v52 [fillcolor = "0.190476 1.0 1.0", label = "tosa.conv2d : (tensor<?x25x5x64xi32...)\n\ndilation: array<i64: 1, 1>\npad: array<i64: 4, 4, 1, ...\nquantization_info: #tosa.conv_quant<inp...\nstride: array<i64: 2, 2>", shape = ellipse, style = filled];
          v53 [fillcolor = "0.238095 1.0 1.0", label = "tosa.rescale : (tensor<?x25x5x64xi8>)\n\ndouble_round: true\ninput_zp: 0 : i32\nmultiplier: array<i32: 189029633...\noutput_zp: -128 : i32\nper_channel: true\nscale32: true\nshift: array<i8: 42, 39, 41...", shape = ellipse, style = filled];
          v54 [fillcolor = "0.285714 1.0 1.0", label = "tosa.clamp : (tensor<?x25x5x64xi8>)\n\nmax_fp: 0.000000e+00 : f32\nmax_int: 127 : i64\nmin_fp: 0.000000e+00 : f32\nmin_int: -128 : i64", shape = ellipse, style = filled];
          v55 [fillcolor = "0.333333 1.0 1.0", label = "tosa.depthwise_conv2d : (tensor<?x25x5x64xi32...)\n\ndilation: array<i64: 1, 1>\npad: array<i64: 1, 1, 1, ...\nquantization_info: #tosa.conv_quant<inp...\nstride: array<i64: 1, 1>", shape = ellipse, style = filled];
          v56 [fillcolor = "0.238095 1.0 1.0", label = "tosa.rescale : (tensor<?x25x5x64xi8>)\n\ndouble_round: true\ninput_zp: 0 : i32\nmultiplier: array<i32: 132309157...\noutput_zp: -128 : i32\nper_channel: true\nscale32: true\nshift: array<i8: 37, 38, 38...", shape = ellipse, style = filled];
          v57 [fillcolor = "0.285714 1.0 1.0", label = "tosa.clamp : (tensor<?x25x5x64xi8>)\n\nmax_fp: 0.000000e+00 : f32\nmax_int: 127 : i64\nmin_fp: 0.000000e+00 : f32\nmin_int: -128 : i64", shape = ellipse, style = filled];
          v58 [fillcolor = "0.190476 1.0 1.0", label = "tosa.conv2d : (tensor<?x25x5x64xi32...)\n\ndilation: array<i64: 1, 1>\npad: array<i64: 0, 0, 0, ...\nquantization_info: #tosa.conv_quant<inp...\nstride: array<i64: 1, 1>", shape = ellipse, style = filled];
          v59 [fillcolor = "0.238095 1.0 1.0", label = "tosa.rescale : (tensor<?x25x5x64xi8>)\n\ndouble_round: true\ninput_zp: 0 : i32\nmultiplier: array<i32: 162995926...\noutput_zp: -128 : i32\nper_channel: true\nscale32: true\nshift: array<i8: 39, 38, 38...", shape = ellipse, style = filled];
          v60 [fillcolor = "0.285714 1.0 1.0", label = "tosa.clamp : (tensor<?x25x5x64xi8>)\n\nmax_fp: 0.000000e+00 : f32\nmax_int: 127 : i64\nmin_fp: 0.000000e+00 : f32\nmin_int: -128 : i64", shape = ellipse, style = filled];
          v61 [fillcolor = "0.333333 1.0 1.0", label = "tosa.depthwise_conv2d : (tensor<?x25x5x64xi32...)\n\ndilation: array<i64: 1, 1>\npad: array<i64: 1, 1, 1, ...\nquantization_info: #tosa.conv_quant<inp...\nstride: array<i64: 1, 1>", shape = ellipse, style = filled];
          v62 [fillcolor = "0.238095 1.0 1.0", label = "tosa.rescale : (tensor<?x25x5x64xi8>)\n\ndouble_round: true\ninput_zp: 0 : i32\nmultiplier: array<i32: 121356339...\noutput_zp: -128 : i32\nper_channel: true\nscale32: true\nshift: array<i8: 37, 38, 37...", shape = ellipse, style = filled];
          v63 [fillcolor = "0.285714 1.0 1.0", label = "tosa.clamp : (tensor<?x25x5x64xi8>)\n\nmax_fp: 0.000000e+00 : f32\nmax_int: 127 : i64\nmin_fp: 0.000000e+00 : f32\nmin_int: -128 : i64", shape = ellipse, style = filled];
          v64 [fillcolor = "0.190476 1.0 1.0", label = "tosa.conv2d : (tensor<?x25x5x64xi32...)\n\ndilation: array<i64: 1, 1>\npad: array<i64: 0, 0, 0, ...\nquantization_info: #tosa.conv_quant<inp...\nstride: array<i64: 1, 1>", shape = ellipse, style = filled];
          v65 [fillcolor = "0.238095 1.0 1.0", label = "tosa.rescale : (tensor<?x25x5x64xi8>)\n\ndouble_round: true\ninput_zp: 0 : i32\nmultiplier: array<i32: 136584261...\noutput_zp: -128 : i32\nper_channel: true\nscale32: true\nshift: array<i8: 38, 39, 38...", shape = ellipse, style = filled];
          v66 [fillcolor = "0.285714 1.0 1.0", label = "tosa.clamp : (tensor<?x25x5x64xi8>)\n\nmax_fp: 0.000000e+00 : f32\nmax_int: 127 : i64\nmin_fp: 0.000000e+00 : f32\nmin_int: -128 : i64", shape = ellipse, style = filled];
          v67 [fillcolor = "0.333333 1.0 1.0", label = "tosa.depthwise_conv2d : (tensor<?x25x5x64xi32...)\n\ndilation: array<i64: 1, 1>\npad: array<i64: 1, 1, 1, ...\nquantization_info: #tosa.conv_quant<inp...\nstride: array<i64: 1, 1>", shape = ellipse, style = filled];
          v68 [fillcolor = "0.238095 1.0 1.0", label = "tosa.rescale : (tensor<?x25x5x64xi8>)\n\ndouble_round: true\ninput_zp: 0 : i32\nmultiplier: array<i32: 172059563...\noutput_zp: -128 : i32\nper_channel: true\nscale32: true\nshift: array<i8: 38, 38, 38...", shape = ellipse, style = filled];
          v69 [fillcolor = "0.285714 1.0 1.0", label = "tosa.clamp : (tensor<?x25x5x64xi8>)\n\nmax_fp: 0.000000e+00 : f32\nmax_int: 127 : i64\nmin_fp: 0.000000e+00 : f32\nmin_int: -128 : i64", shape = ellipse, style = filled];
          v70 [fillcolor = "0.190476 1.0 1.0", label = "tosa.conv2d : (tensor<?x25x5x64xi32...)\n\ndilation: array<i64: 1, 1>\npad: array<i64: 0, 0, 0, ...\nquantization_info: #tosa.conv_quant<inp...\nstride: array<i64: 1, 1>", shape = ellipse, style = filled];
          v71 [fillcolor = "0.238095 1.0 1.0", label = "tosa.rescale : (tensor<?x25x5x64xi8>)\n\ndouble_round: true\ninput_zp: 0 : i32\nmultiplier: array<i32: 152845415...\noutput_zp: -128 : i32\nper_channel: true\nscale32: true\nshift: array<i8: 39, 38, 39...", shape = ellipse, style = filled];
          v72 [fillcolor = "0.285714 1.0 1.0", label = "tosa.clamp : (tensor<?x25x5x64xi8>)\n\nmax_fp: 0.000000e+00 : f32\nmax_int: 127 : i64\nmin_fp: 0.000000e+00 : f32\nmin_int: -128 : i64", shape = ellipse, style = filled];
          v73 [fillcolor = "0.333333 1.0 1.0", label = "tosa.depthwise_conv2d : (tensor<?x25x5x64xi32...)\n\ndilation: array<i64: 1, 1>\npad: array<i64: 1, 1, 1, ...\nquantization_info: #tosa.conv_quant<inp...\nstride: array<i64: 1, 1>", shape = ellipse, style = filled];
          v74 [fillcolor = "0.238095 1.0 1.0", label = "tosa.rescale : (tensor<?x25x5x64xi8>)\n\ndouble_round: true\ninput_zp: 0 : i32\nmultiplier: array<i32: 129336319...\noutput_zp: -128 : i32\nper_channel: true\nscale32: true\nshift: array<i8: 37, 39, 38...", shape = ellipse, style = filled];
          v75 [fillcolor = "0.285714 1.0 1.0", label = "tosa.clamp : (tensor<?x25x5x64xi8>)\n\nmax_fp: 0.000000e+00 : f32\nmax_int: 127 : i64\nmin_fp: 0.000000e+00 : f32\nmin_int: -128 : i64", shape = ellipse, style = filled];
          v76 [fillcolor = "0.190476 1.0 1.0", label = "tosa.conv2d : (tensor<?x25x5x64xi32...)\n\ndilation: array<i64: 1, 1>\npad: array<i64: 0, 0, 0, ...\nquantization_info: #tosa.conv_quant<inp...\nstride: array<i64: 1, 1>", shape = ellipse, style = filled];
          v77 [fillcolor = "0.238095 1.0 1.0", label = "tosa.rescale : (tensor<?x25x5x64xi8>)\n\ndouble_round: true\ninput_zp: 0 : i32\nmultiplier: array<i32: 165157882...\noutput_zp: -128 : i32\nper_channel: true\nscale32: true\nshift: array<i8: 38, 38, 38...", shape = ellipse, style = filled];
          v78 [fillcolor = "0.285714 1.0 1.0", label = "tosa.clamp : (tensor<?x25x5x64xi8>)\n\nmax_fp: 0.000000e+00 : f32\nmax_int: 127 : i64\nmin_fp: 0.000000e+00 : f32\nmin_int: -128 : i64", shape = ellipse, style = filled];
          v79 [fillcolor = "0.380952 1.0 1.0", label = "tosa.avg_pool2d : (tensor<?x1x1x64xi8>)\n\nacc_type: i32\nkernel: array<i64: 25, 5>\npad: array<i64: 0, 0, 0, ...\nquantization_info: #tosa.unary_quant<in...\nstride: array<i64: 25, 5>", shape = ellipse, style = filled];
          v80 [fillcolor = "0.428571 1.0 1.0", label = "tosa.reshape : (tensor<?x64xi8>)\n\nnew_shape: array<i64: -1, 64>", shape = ellipse, style = filled];
          v81 [fillcolor = "0.476190 1.0 1.0", label = "tosa.fully_connected : (tensor<?x12xi32>)\n\nquantization_info: #tosa.conv_quant<inp...", shape = ellipse, style = filled];
          v82 [fillcolor = "0.238095 1.0 1.0", label = "tosa.rescale : (tensor<?x12xi8>)\n\ndouble_round: true\ninput_zp: 0 : i32\nmultiplier: array<i32: 168940158...\noutput_zp: 64 : i32\nper_channel: false\nscale32: true\nshift: array<i8: 38>", shape = ellipse, style = filled];
          v83 [fillcolor = "0.238095 1.0 1.0", label = "tosa.rescale : (tensor<?x12xi32>)\n\ndouble_round: false\ninput_zp: 64 : i32\nmultiplier: array<i32: 107374182...\noutput_zp: 0 : i32\nper_channel: false\nscale32: true\nshift: array<i8: 30>", shape = ellipse, style = filled];
          v84 [fillcolor = "0.523810 1.0 1.0", label = "tosa.reduce_max : (tensor<?x1xi32>)\n\naxis: 1 : i32", shape = ellipse, style = filled];
          v85 [fillcolor = "0.571429 1.0 1.0", label = "tosa.sub : (tensor<?x12xi32>)\n", shape = ellipse, style = filled];
          v86 [fillcolor = "0.238095 1.0 1.0", label = "tosa.rescale : (tensor<?x12xi16>)\n\ndouble_round: false\ninput_zp: 0 : i32\nmultiplier: array<i32: 107374182...\noutput_zp: 0 : i32\nper_channel: false\nscale32: true\nshift: array<i8: 23>", shape = ellipse, style = filled];
          v87 [fillcolor = "0.619048 1.0 1.0", label = "tosa.table : (tensor<?x12xi32>)\n", shape = ellipse, style = filled];
          v88 [fillcolor = "0.619048 1.0 1.0", label = "tosa.table : (tensor<?x12xi32>)\n", shape = ellipse, style = filled];
          v89 [fillcolor = "0.619048 1.0 1.0", label = "tosa.table : (tensor<?x12xi32>)\n", shape = ellipse, style = filled];
          v90 [fillcolor = "0.619048 1.0 1.0", label = "tosa.table : (tensor<?x12xi32>)\n", shape = ellipse, style = filled];
          v91 [fillcolor = "0.666667 1.0 1.0", label = "tosa.logical_left_shift : (tensor<?x12xi32>)\n", shape = ellipse, style = filled];
          v92 [fillcolor = "0.666667 1.0 1.0", label = "tosa.logical_left_shift : (tensor<?x12xi32>)\n", shape = ellipse, style = filled];
          v93 [fillcolor = "0.666667 1.0 1.0", label = "tosa.logical_left_shift : (tensor<?x12xi32>)\n", shape = ellipse, style = filled];
          v94 [fillcolor = "0.714286 1.0 1.0", label = "tosa.arithmetic_right_shift : (tensor<?x12xi32>)\n\nround: true", shape = ellipse, style = filled];
          v95 [fillcolor = "0.142857 1.0 1.0", label = "tosa.add : (tensor<?x12xi32>)\n", shape = ellipse, style = filled];
          v96 [fillcolor = "0.142857 1.0 1.0", label = "tosa.add : (tensor<?x12xi32>)\n", shape = ellipse, style = filled];
          v97 [fillcolor = "0.142857 1.0 1.0", label = "tosa.add : (tensor<?x12xi32>)\n", shape = ellipse, style = filled];
          v98 [fillcolor = "0.714286 1.0 1.0", label = "tosa.arithmetic_right_shift : (tensor<?x12xi32>)\n\nround: true", shape = ellipse, style = filled];
          v99 [fillcolor = "0.761905 1.0 1.0", label = "tosa.reduce_sum : (tensor<?x1xi32>)\n\naxis: 1 : i32", shape = ellipse, style = filled];
          v100 [fillcolor = "0.809524 1.0 1.0", label = "tosa.clz : (tensor<?x1xi32>)\n", shape = ellipse, style = filled];
          v101 [fillcolor = "0.571429 1.0 1.0", label = "tosa.sub : (tensor<?x1xi32>)\n", shape = ellipse, style = filled];
          v102 [fillcolor = "0.666667 1.0 1.0", label = "tosa.logical_left_shift : (tensor<?x1xi32>)\n", shape = ellipse, style = filled];
          v103 [fillcolor = "0.047619 1.0 1.0", label = "tosa.mul : (tensor<?x1xi32>)\n\nshift: 31 : i8", shape = ellipse, style = filled];
          v104 [fillcolor = "0.142857 1.0 1.0", label = "tosa.add : (tensor<?x1xi32>)\n", shape = ellipse, style = filled];
          v105 [fillcolor = "0.047619 1.0 1.0", label = "tosa.mul : (tensor<?x1xi32>)\n\nshift: 31 : i8", shape = ellipse, style = filled];
          v106 [fillcolor = "0.571429 1.0 1.0", label = "tosa.sub : (tensor<?x1xi32>)\n", shape = ellipse, style = filled];
          v107 [fillcolor = "0.047619 1.0 1.0", label = "tosa.mul : (tensor<?x1xi32>)\n\nshift: 31 : i8", shape = ellipse, style = filled];
          v108 [fillcolor = "0.047619 1.0 1.0", label = "tosa.mul : (tensor<?x1xi32>)\n\nshift: 0 : i8", shape = ellipse, style = filled];
          v109 [fillcolor = "0.142857 1.0 1.0", label = "tosa.add : (tensor<?x1xi32>)\n", shape = ellipse, style = filled];
          v110 [fillcolor = "0.047619 1.0 1.0", label = "tosa.mul : (tensor<?x1xi32>)\n\nshift: 31 : i8", shape = ellipse, style = filled];
          v111 [fillcolor = "0.571429 1.0 1.0", label = "tosa.sub : (tensor<?x1xi32>)\n", shape = ellipse, style = filled];
          v112 [fillcolor = "0.047619 1.0 1.0", label = "tosa.mul : (tensor<?x1xi32>)\n\nshift: 31 : i8", shape = ellipse, style = filled];
          v113 [fillcolor = "0.047619 1.0 1.0", label = "tosa.mul : (tensor<?x1xi32>)\n\nshift: 0 : i8", shape = ellipse, style = filled];
          v114 [fillcolor = "0.142857 1.0 1.0", label = "tosa.add : (tensor<?x1xi32>)\n", shape = ellipse, style = filled];
          v115 [fillcolor = "0.047619 1.0 1.0", label = "tosa.mul : (tensor<?x1xi32>)\n\nshift: 31 : i8", shape = ellipse, style = filled];
          v116 [fillcolor = "0.571429 1.0 1.0", label = "tosa.sub : (tensor<?x1xi32>)\n", shape = ellipse, style = filled];
          v117 [fillcolor = "0.047619 1.0 1.0", label = "tosa.mul : (tensor<?x1xi32>)\n\nshift: 31 : i8", shape = ellipse, style = filled];
          v118 [fillcolor = "0.047619 1.0 1.0", label = "tosa.mul : (tensor<?x1xi32>)\n\nshift: 0 : i8", shape = ellipse, style = filled];
          v119 [fillcolor = "0.142857 1.0 1.0", label = "tosa.add : (tensor<?x1xi32>)\n", shape = ellipse, style = filled];
          v120 [fillcolor = "0.047619 1.0 1.0", label = "tosa.mul : (tensor<?x12xi32>)\n\nshift: 30 : i8", shape = ellipse, style = filled];
          v121 [fillcolor = "0.571429 1.0 1.0", label = "tosa.sub : (tensor<?x1xi32>)\n", shape = ellipse, style = filled];
          v122 [fillcolor = "0.714286 1.0 1.0", label = "tosa.arithmetic_right_shift : (tensor<?x12xi32>)\n\nround: true", shape = ellipse, style = filled];
          v123 [fillcolor = "0.238095 1.0 1.0", label = "tosa.rescale : (tensor<?x12xi8>)\n\ndouble_round: false\ninput_zp: 0 : i32\nmultiplier: array<i32: 107374182...\noutput_zp: -128 : i32\nper_channel: false\nscale32: true\nshift: array<i8: 30>", shape = ellipse, style = filled];
          v124 [fillcolor = "0.095238 1.0 1.0", label = "tosa.cast : (tensor<?x12xf32>)\n", shape = ellipse, style = filled];
          v125 [fillcolor = "0.571429 1.0 1.0", label = "tosa.sub : (tensor<?x12xf32>)\n", shape = ellipse, style = filled];
          v126 [fillcolor = "0.047619 1.0 1.0", label = "tosa.mul : (tensor<?x12xf32>)\n\nshift: 0 : i8", shape = ellipse, style = filled];
          v127 [fillcolor = "0.857143 1.0 1.0", label = "func.return : ()\n", shape = ellipse, style = filled];
        }
      }
    }
  }
  v9 -> v48 [label = "0", style = solid];
  v47 -> v48 [label = "1", style = solid];
  v48 -> v49 [label = "", style = solid];
  v49 -> v50 [label = "0", style = solid];
  v26 -> v50 [label = "1", style = solid];
  v50 -> v51 [label = "", style = solid];
  v51 -> v52 [label = "0", style = solid];
  v46 -> v52 [label = "1", style = solid];
  v45 -> v52 [label = "2", style = solid];
  v52 -> v53 [label = "", style = solid];
  v53 -> v54 [label = "", style = solid];
  v54 -> v55 [label = "0", style = solid];
  v13 -> v55 [label = "1", style = solid];
  v44 -> v55 [label = "2", style = solid];
  v55 -> v56 [label = "", style = solid];
  v56 -> v57 [label = "", style = solid];
  v57 -> v58 [label = "0", style = solid];
  v43 -> v58 [label = "1", style = solid];
  v42 -> v58 [label = "2", style = solid];
  v58 -> v59 [label = "", style = solid];
  v59 -> v60 [label = "", style = solid];
  v60 -> v61 [label = "0", style = solid];
  v12 -> v61 [label = "1", style = solid];
  v41 -> v61 [label = "2", style = solid];
  v61 -> v62 [label = "", style = solid];
  v62 -> v63 [label = "", style = solid];
  v63 -> v64 [label = "0", style = solid];
  v40 -> v64 [label = "1", style = solid];
  v39 -> v64 [label = "2", style = solid];
  v64 -> v65 [label = "", style = solid];
  v65 -> v66 [label = "", style = solid];
  v66 -> v67 [label = "0", style = solid];
  v11 -> v67 [label = "1", style = solid];
  v38 -> v67 [label = "2", style = solid];
  v67 -> v68 [label = "", style = solid];
  v68 -> v69 [label = "", style = solid];
  v69 -> v70 [label = "0", style = solid];
  v37 -> v70 [label = "1", style = solid];
  v36 -> v70 [label = "2", style = solid];
  v70 -> v71 [label = "", style = solid];
  v71 -> v72 [label = "", style = solid];
  v72 -> v73 [label = "0", style = solid];
  v10 -> v73 [label = "1", style = solid];
  v35 -> v73 [label = "2", style = solid];
  v73 -> v74 [label = "", style = solid];
  v74 -> v75 [label = "", style = solid];
  v75 -> v76 [label = "0", style = solid];
  v34 -> v76 [label = "1", style = solid];
  v33 -> v76 [label = "2", style = solid];
  v76 -> v77 [label = "", style = solid];
  v77 -> v78 [label = "", style = solid];
  v78 -> v79 [label = "", style = solid];
  v79 -> v80 [label = "", style = solid];
  v80 -> v81 [label = "0", style = solid];
  v32 -> v81 [label = "1", style = solid];
  v31 -> v81 [label = "2", style = solid];
  v81 -> v82 [label = "", style = solid];
  v82 -> v83 [label = "", style = solid];
  v83 -> v84 [label = "", style = solid];
  v83 -> v85 [label = "0", style = solid];
  v84 -> v85 [label = "1", style = solid];
  v85 -> v86 [label = "", style = solid];
  v86 -> v87 [label = "0", style = solid];
  v30 -> v87 [label = "1", style = solid];
  v86 -> v88 [label = "0", style = solid];
  v29 -> v88 [label = "1", style = solid];
  v86 -> v89 [label = "0", style = solid];
  v28 -> v89 [label = "1", style = solid];
  v86 -> v90 [label = "0", style = solid];
  v27 -> v90 [label = "1", style = solid];
  v87 -> v91 [label = "0", style = solid];
  v25 -> v91 [label = "1", style = solid];
  v88 -> v92 [label = "0", style = solid];
  v24 -> v92 [label = "1", style = solid];
  v89 -> v93 [label = "0", style = solid];
  v23 -> v93 [label = "1", style = solid];
  v90 -> v94 [label = "0", style = solid];
  v22 -> v94 [label = "1", style = solid];
  v91 -> v95 [label = "0", style = solid];
  v92 -> v95 [label = "1", style = solid];
  v95 -> v96 [label = "0", style = solid];
  v93 -> v96 [label = "1", style = solid];
  v96 -> v97 [label = "0", style = solid];
  v94 -> v97 [label = "1", style = solid];
  v97 -> v98 [label = "0", style = solid];
  v21 -> v98 [label = "1", style = solid];
  v98 -> v99 [label = "", style = solid];
  v99 -> v100 [label = "", style = solid];
  v100 -> v101 [label = "0", style = solid];
  v23 -> v101 [label = "1", style = solid];
  v99 -> v102 [label = "0", style = solid];
  v101 -> v102 [label = "1", style = solid];
  v102 -> v103 [label = "0", style = solid];
  v20 -> v103 [label = "1", style = solid];
  v103 -> v104 [label = "0", style = solid];
  v19 -> v104 [label = "1", style = solid];
  v104 -> v105 [label = "0", style = solid];
  v102 -> v105 [label = "1", style = solid];
  v18 -> v106 [label = "0", style = solid];
  v105 -> v106 [label = "1", style = solid];
  v104 -> v107 [label = "0", style = solid];
  v106 -> v107 [label = "1", style = solid];
  v107 -> v108 [label = "0", style = solid];
  v17 -> v108 [label = "1", style = solid];
  v104 -> v109 [label = "0", style = solid];
  v108 -> v109 [label = "1", style = solid];
  v109 -> v110 [label = "0", style = solid];
  v102 -> v110 [label = "1", style = solid];
  v18 -> v111 [label = "0", style = solid];
  v110 -> v111 [label = "1", style = solid];
  v109 -> v112 [label = "0", style = solid];
  v111 -> v112 [label = "1", style = solid];
  v112 -> v113 [label = "0", style = solid];
  v17 -> v113 [label = "1", style = solid];
  v109 -> v114 [label = "0", style = solid];
  v113 -> v114 [label = "1", style = solid];
  v114 -> v115 [label = "0", style = solid];
  v102 -> v115 [label = "1", style = solid];
  v18 -> v116 [label = "0", style = solid];
  v115 -> v116 [label = "1", style = solid];
  v114 -> v117 [label = "0", style = solid];
  v116 -> v117 [label = "1", style = solid];
  v117 -> v118 [label = "0", style = solid];
  v17 -> v118 [label = "1", style = solid];
  v114 -> v119 [label = "0", style = solid];
  v118 -> v119 [label = "1", style = solid];
  v97 -> v120 [label = "0", style = solid];
  v119 -> v120 [label = "1", style = solid];
  v16 -> v121 [label = "0", style = solid];
  v100 -> v121 [label = "1", style = solid];
  v120 -> v122 [label = "0", style = solid];
  v121 -> v122 [label = "1", style = solid];
  v122 -> v123 [label = "", style = solid];
  v123 -> v124 [label = "", style = solid];
  v124 -> v125 [label = "0", style = solid];
  v15 -> v125 [label = "1", style = solid];
  v125 -> v126 [label = "0", style = solid];
  v14 -> v126 [label = "1", style = solid];
  v126 -> v127 [label = "", style = solid];
}
