digraph G {
  compound = true;
  subgraph cluster_1 {
    v2 [label = " ", shape = plain];
    label = "builtin.module : ()\n\ntfl.description: \"TinyML: Visual Wake...\ntfl.metadata: {SL_PARAMSv1 = \"\\0C\\...\ntfl.schema_version: 3 : i32";
    subgraph cluster_3 {
      v4 [label = " ", shape = plain];
      label = "";
      subgraph cluster_5 {
        v6 [label = " ", shape = plain];
        label = "func.func : ()\n\nfunction_type: (tensor<?x96x96x3xf3...\nsym_name: \"main\"\ntf.entry_function: {inputs = \"input_1\",...";
        subgraph cluster_7 {
          v8 [label = " ", shape = plain];
          label = "";
          v9 [label = "arg0", shape = ellipse];
          v10 [fillcolor = "0.000000 1.0 1.0", label = "tosa.const : (tensor<3x3x256x1xi8>)\n\nvalue: [[[[...]]]] : tensor<3x3x256x1xi8>", shape = ellipse, style = filled];
          v11 [fillcolor = "0.000000 1.0 1.0", label = "tosa.const : (tensor<3x3x128x1xi8>)\n\nvalue: [[[[...]]]] : tensor<3x3x128x1xi8>", shape = ellipse, style = filled];
          v12 [fillcolor = "0.000000 1.0 1.0", label = "tosa.const : (tensor<3x3x128x1xi8>)\n\nvalue: [[[[...]]]] : tensor<3x3x128x1xi8>", shape = ellipse, style = filled];
          v13 [fillcolor = "0.000000 1.0 1.0", label = "tosa.const : (tensor<3x3x128x1xi8>)\n\nvalue: [[[[...]]]] : tensor<3x3x128x1xi8>", shape = ellipse, style = filled];
          v14 [fillcolor = "0.000000 1.0 1.0", label = "tosa.const : (tensor<3x3x128x1xi8>)\n\nvalue: [[[[...]]]] : tensor<3x3x128x1xi8>", shape = ellipse, style = filled];
          v15 [fillcolor = "0.000000 1.0 1.0", label = "tosa.const : (tensor<3x3x128x1xi8>)\n\nvalue: [[[[...]]]] : tensor<3x3x128x1xi8>", shape = ellipse, style = filled];
          v16 [fillcolor = "0.000000 1.0 1.0", label = "tosa.const : (tensor<3x3x128x1xi8>)\n\nvalue: [[[[...]]]] : tensor<3x3x128x1xi8>", shape = ellipse, style = filled];
          v17 [fillcolor = "0.000000 1.0 1.0", label = "tosa.const : (tensor<3x3x64x1xi8>)\n\nvalue: [[[[...]]]] : tensor<3x3x64x1xi8>", shape = ellipse, style = filled];
          v18 [fillcolor = "0.000000 1.0 1.0", label = "tosa.const : (tensor<3x3x64x1xi8>)\n\nvalue: [[[[...]]]] : tensor<3x3x64x1xi8>", shape = ellipse, style = filled];
          v19 [fillcolor = "0.000000 1.0 1.0", label = "tosa.const : (tensor<3x3x32x1xi8>)\n\nvalue: [[[[...]]]] : tensor<3x3x32x1xi8>", shape = ellipse, style = filled];
          v20 [fillcolor = "0.000000 1.0 1.0", label = "tosa.const : (tensor<3x3x32x1xi8>)\n\nvalue: [[[[...]]]] : tensor<3x3x32x1xi8>", shape = ellipse, style = filled];
          v21 [fillcolor = "0.000000 1.0 1.0", label = "tosa.const : (tensor<3x3x16x1xi8>)\n\nvalue: [[[[...]]]] : tensor<3x3x16x1xi8>", shape = ellipse, style = filled];
          v22 [fillcolor = "0.000000 1.0 1.0", label = "tosa.const : (tensor<3x3x8x1xi8>)\n\nvalue: [[[[...]]]] : tensor<3x3x8x1xi8>", shape = ellipse, style = filled];
          v23 [fillcolor = "0.000000 1.0 1.0", label = "tosa.const : (tensor<1x1xf32>)\n\nvalue: dense<3.906250e-03> : tensor<1x1xf32>", shape = ellipse, style = filled];
          v24 [fillcolor = "0.000000 1.0 1.0", label = "tosa.const : (tensor<1x1xf32>)\n\nvalue: dense<-1.280000e+02> : tensor<1x1xf32>", shape = ellipse, style = filled];
          v25 [fillcolor = "0.000000 1.0 1.0", label = "tosa.const : (tensor<1x1xi32>)\n\nvalue: dense<35> : tensor<1x1xi32>", shape = ellipse, style = filled];
          v26 [fillcolor = "0.000000 1.0 1.0", label = "tosa.const : (tensor<1x1xi32>)\n\nvalue: dense<4> : tensor<1x1xi32>", shape = ellipse, style = filled];
          v27 [fillcolor = "0.000000 1.0 1.0", label = "tosa.const : (tensor<1x1xi32>)\n\nvalue: dense<536870912> : tensor<1x1xi32>", shape = ellipse, style = filled];
          v28 [fillcolor = "0.000000 1.0 1.0", label = "tosa.const : (tensor<1x1xi32>)\n\nvalue: dense<1515870810> : tensor<1x1xi32>", shape = ellipse, style = filled];
          v29 [fillcolor = "0.000000 1.0 1.0", label = "tosa.const : (tensor<1x1xi32>)\n\nvalue: dense<-1010580540> : tensor<1x1xi32>", shape = ellipse, style = filled];
          v30 [fillcolor = "0.000000 1.0 1.0", label = "tosa.const : (tensor<1x1xi32>)\n\nvalue: dense<12> : tensor<1x1xi32>", shape = ellipse, style = filled];
          v31 [fillcolor = "0.000000 1.0 1.0", label = "tosa.const : (tensor<1x1xi32>)\n\nvalue: dense<7> : tensor<1x1xi32>", shape = ellipse, style = filled];
          v32 [fillcolor = "0.000000 1.0 1.0", label = "tosa.const : (tensor<1x1xi32>)\n\nvalue: dense<1> : tensor<1x1xi32>", shape = ellipse, style = filled];
          v33 [fillcolor = "0.000000 1.0 1.0", label = "tosa.const : (tensor<1x1xi32>)\n\nvalue: dense<9> : tensor<1x1xi32>", shape = ellipse, style = filled];
          v34 [fillcolor = "0.000000 1.0 1.0", label = "tosa.const : (tensor<1x1xi32>)\n\nvalue: dense<17> : tensor<1x1xi32>", shape = ellipse, style = filled];
          v35 [fillcolor = "0.000000 1.0 1.0", label = "tosa.const : (tensor<1x1x1x1xi32>)\n\nvalue: dense<-128> : tensor<1x1x1x1xi32>", shape = ellipse, style = filled];
          v36 [fillcolor = "0.000000 1.0 1.0", label = "tosa.const : (tensor<513xi16>)\n\nvalue: [...] : tensor<513xi16>", shape = ellipse, style = filled];
          v37 [fillcolor = "0.000000 1.0 1.0", label = "tosa.const : (tensor<513xi16>)\n\nvalue: [...] : tensor<513xi16>", shape = ellipse, style = filled];
          v38 [fillcolor = "0.000000 1.0 1.0", label = "tosa.const : (tensor<513xi16>)\n\nvalue: [...] : tensor<513xi16>", shape = ellipse, style = filled];
          v39 [fillcolor = "0.000000 1.0 1.0", label = "tosa.const : (tensor<513xi16>)\n\nvalue: [...] : tensor<513xi16>", shape = ellipse, style = filled];
          v40 [fillcolor = "0.000000 1.0 1.0", label = "tosa.const : (tensor<2xi32>)\n\nvalue: dense<[-131, 131]> :...", shape = ellipse, style = filled];
          v41 [fillcolor = "0.000000 1.0 1.0", label = "tosa.const : (tensor<2x256xi8>)\n\nvalue: [[...]] : tensor<2x256xi8>", shape = ellipse, style = filled];
          v42 [fillcolor = "0.000000 1.0 1.0", label = "tosa.const : (tensor<256xi32>)\n\nvalue: [...] : tensor<256xi32>", shape = ellipse, style = filled];
          v43 [fillcolor = "0.000000 1.0 1.0", label = "tosa.const : (tensor<256x1x1x256xi...)\n\nvalue: [[[[...]]]] : tensor<256x1x1x256xi8>", shape = ellipse, style = filled];
          v44 [fillcolor = "0.000000 1.0 1.0", label = "tosa.const : (tensor<256xi32>)\n\nvalue: [...] : tensor<256xi32>", shape = ellipse, style = filled];
          v45 [fillcolor = "0.000000 1.0 1.0", label = "tosa.const : (tensor<256xi32>)\n\nvalue: [...] : tensor<256xi32>", shape = ellipse, style = filled];
          v46 [fillcolor = "0.000000 1.0 1.0", label = "tosa.const : (tensor<256x1x1x128xi...)\n\nvalue: [[[[...]]]] : tensor<256x1x1x128xi8>", shape = ellipse, style = filled];
          v47 [fillcolor = "0.000000 1.0 1.0", label = "tosa.const : (tensor<128xi32>)\n\nvalue: [...] : tensor<128xi32>", shape = ellipse, style = filled];
          v48 [fillcolor = "0.000000 1.0 1.0", label = "tosa.const : (tensor<128xi32>)\n\nvalue: [...] : tensor<128xi32>", shape = ellipse, style = filled];
          v49 [fillcolor = "0.000000 1.0 1.0", label = "tosa.const : (tensor<128x1x1x128xi...)\n\nvalue: [[[[...]]]] : tensor<128x1x1x128xi8>", shape = ellipse, style = filled];
          v50 [fillcolor = "0.000000 1.0 1.0", label = "tosa.const : (tensor<128xi32>)\n\nvalue: [...] : tensor<128xi32>", shape = ellipse, style = filled];
          v51 [fillcolor = "0.000000 1.0 1.0", label = "tosa.const : (tensor<128xi32>)\n\nvalue: [...] : tensor<128xi32>", shape = ellipse, style = filled];
          v52 [fillcolor = "0.000000 1.0 1.0", label = "tosa.const : (tensor<128x1x1x128xi...)\n\nvalue: [[[[...]]]] : tensor<128x1x1x128xi8>", shape = ellipse, style = filled];
          v53 [fillcolor = "0.000000 1.0 1.0", label = "tosa.const : (tensor<128xi32>)\n\nvalue: [...] : tensor<128xi32>", shape = ellipse, style = filled];
          v54 [fillcolor = "0.000000 1.0 1.0", label = "tosa.const : (tensor<128xi32>)\n\nvalue: [...] : tensor<128xi32>", shape = ellipse, style = filled];
          v55 [fillcolor = "0.000000 1.0 1.0", label = "tosa.const : (tensor<128x1x1x128xi...)\n\nvalue: [[[[...]]]] : tensor<128x1x1x128xi8>", shape = ellipse, style = filled];
          v56 [fillcolor = "0.000000 1.0 1.0", label = "tosa.const : (tensor<128xi32>)\n\nvalue: [...] : tensor<128xi32>", shape = ellipse, style = filled];
          v57 [fillcolor = "0.000000 1.0 1.0", label = "tosa.const : (tensor<128xi32>)\n\nvalue: [...] : tensor<128xi32>", shape = ellipse, style = filled];
          v58 [fillcolor = "0.000000 1.0 1.0", label = "tosa.const : (tensor<128x1x1x128xi...)\n\nvalue: [[[[...]]]] : tensor<128x1x1x128xi8>", shape = ellipse, style = filled];
          v59 [fillcolor = "0.000000 1.0 1.0", label = "tosa.const : (tensor<128xi32>)\n\nvalue: [...] : tensor<128xi32>", shape = ellipse, style = filled];
          v60 [fillcolor = "0.000000 1.0 1.0", label = "tosa.const : (tensor<128xi32>)\n\nvalue: [...] : tensor<128xi32>", shape = ellipse, style = filled];
          v61 [fillcolor = "0.000000 1.0 1.0", label = "tosa.const : (tensor<128x1x1x128xi...)\n\nvalue: [[[[...]]]] : tensor<128x1x1x128xi8>", shape = ellipse, style = filled];
          v62 [fillcolor = "0.000000 1.0 1.0", label = "tosa.const : (tensor<128xi32>)\n\nvalue: [...] : tensor<128xi32>", shape = ellipse, style = filled];
          v63 [fillcolor = "0.000000 1.0 1.0", label = "tosa.const : (tensor<128xi32>)\n\nvalue: [...] : tensor<128xi32>", shape = ellipse, style = filled];
          v64 [fillcolor = "0.000000 1.0 1.0", label = "tosa.const : (tensor<128x1x1x64xi8...)\n\nvalue: [[[[...]]]] : tensor<128x1x1x64xi8>", shape = ellipse, style = filled];
          v65 [fillcolor = "0.000000 1.0 1.0", label = "tosa.const : (tensor<64xi32>)\n\nvalue: [...] : tensor<64xi32>", shape = ellipse, style = filled];
          v66 [fillcolor = "0.000000 1.0 1.0", label = "tosa.const : (tensor<64xi32>)\n\nvalue: [...] : tensor<64xi32>", shape = ellipse, style = filled];
          v67 [fillcolor = "0.000000 1.0 1.0", label = "tosa.const : (tensor<64x1x1x64xi8>)\n\nvalue: [[[[...]]]] : tensor<64x1x1x64xi8>", shape = ellipse, style = filled];
          v68 [fillcolor = "0.000000 1.0 1.0", label = "tosa.const : (tensor<64xi32>)\n\nvalue: [...] : tensor<64xi32>", shape = ellipse, style = filled];
          v69 [fillcolor = "0.000000 1.0 1.0", label = "tosa.const : (tensor<64xi32>)\n\nvalue: [...] : tensor<64xi32>", shape = ellipse, style = filled];
          v70 [fillcolor = "0.000000 1.0 1.0", label = "tosa.const : (tensor<64x1x1x32xi8>)\n\nvalue: [[[[...]]]] : tensor<64x1x1x32xi8>", shape = ellipse, style = filled];
          v71 [fillcolor = "0.000000 1.0 1.0", label = "tosa.const : (tensor<32xi32>)\n\nvalue: [...] : tensor<32xi32>", shape = ellipse, style = filled];
          v72 [fillcolor = "0.000000 1.0 1.0", label = "tosa.const : (tensor<32xi32>)\n\nvalue: [...] : tensor<32xi32>", shape = ellipse, style = filled];
          v73 [fillcolor = "0.000000 1.0 1.0", label = "tosa.const : (tensor<32x1x1x32xi8>)\n\nvalue: [[[[...]]]] : tensor<32x1x1x32xi8>", shape = ellipse, style = filled];
          v74 [fillcolor = "0.000000 1.0 1.0", label = "tosa.const : (tensor<32xi32>)\n\nvalue: [...] : tensor<32xi32>", shape = ellipse, style = filled];
          v75 [fillcolor = "0.000000 1.0 1.0", label = "tosa.const : (tensor<32xi32>)\n\nvalue: [...] : tensor<32xi32>", shape = ellipse, style = filled];
          v76 [fillcolor = "0.000000 1.0 1.0", label = "tosa.const : (tensor<32x1x1x16xi8>)\n\nvalue: [[[[...]]]] : tensor<32x1x1x16xi8>", shape = ellipse, style = filled];
          v77 [fillcolor = "0.000000 1.0 1.0", label = "tosa.const : (tensor<16xi32>)\n\nvalue: [...] : tensor<16xi32>", shape = ellipse, style = filled];
          v78 [fillcolor = "0.000000 1.0 1.0", label = "tosa.const : (tensor<16xi32>)\n\nvalue: [...] : tensor<16xi32>", shape = ellipse, style = filled];
          v79 [fillcolor = "0.000000 1.0 1.0", label = "tosa.const : (tensor<16x1x1x8xi8>)\n\nvalue: [[[[...]]]] : tensor<16x1x1x8xi8>", shape = ellipse, style = filled];
          v80 [fillcolor = "0.000000 1.0 1.0", label = "tosa.const : (tensor<8xi32>)\n\nvalue: [...] : tensor<8xi32>", shape = ellipse, style = filled];
          v81 [fillcolor = "0.000000 1.0 1.0", label = "tosa.const : (tensor<8xi32>)\n\nvalue: [...] : tensor<8xi32>", shape = ellipse, style = filled];
          v82 [fillcolor = "0.000000 1.0 1.0", label = "tosa.const : (tensor<8x3x3x3xi8>)\n\nvalue: [[[[...]]]] : tensor<8x3x3x3xi8>", shape = ellipse, style = filled];
          v83 [fillcolor = "0.047619 1.0 1.0", label = "tosa.cast : (tensor<?x96x96x3xi32...)\n", shape = ellipse, style = filled];
          v84 [fillcolor = "0.095238 1.0 1.0", label = "tosa.add : (tensor<?x96x96x3xi32...)\n", shape = ellipse, style = filled];
          v85 [fillcolor = "0.047619 1.0 1.0", label = "tosa.cast : (tensor<?x96x96x3xi8>)\n", shape = ellipse, style = filled];
          v86 [fillcolor = "0.142857 1.0 1.0", label = "tosa.conv2d : (tensor<?x48x48x8xi32...)\n\ndilation: array<i64: 1, 1>\npad: array<i64: 0, 1, 0, ...\nquantization_info: #tosa.conv_quant<inp...\nstride: array<i64: 2, 2>", shape = ellipse, style = filled];
          v87 [fillcolor = "0.190476 1.0 1.0", label = "tosa.rescale : (tensor<?x48x48x8xi8>)\n\ndouble_round: true\ninput_zp: 0 : i32\nmultiplier: array<i32: 142052377...\noutput_zp: -128 : i32\nper_channel: true\nscale32: true\nshift: array<i8: 41, 40, 41...", shape = ellipse, style = filled];
          v88 [fillcolor = "0.238095 1.0 1.0", label = "tosa.clamp : (tensor<?x48x48x8xi8>)\n\nmax_fp: 0.000000e+00 : f32\nmax_int: 127 : i64\nmin_fp: 0.000000e+00 : f32\nmin_int: -128 : i64", shape = ellipse, style = filled];
          v89 [fillcolor = "0.285714 1.0 1.0", label = "tosa.depthwise_conv2d : (tensor<?x48x48x8xi32...)\n\ndilation: array<i64: 1, 1>\npad: array<i64: 1, 1, 1, ...\nquantization_info: #tosa.conv_quant<inp...\nstride: array<i64: 1, 1>", shape = ellipse, style = filled];
          v90 [fillcolor = "0.190476 1.0 1.0", label = "tosa.rescale : (tensor<?x48x48x8xi8>)\n\ndouble_round: true\ninput_zp: 0 : i32\nmultiplier: array<i32: 168180826...\noutput_zp: -128 : i32\nper_channel: true\nscale32: true\nshift: array<i8: 38, 37, 38...", shape = ellipse, style = filled];
          v91 [fillcolor = "0.238095 1.0 1.0", label = "tosa.clamp : (tensor<?x48x48x8xi8>)\n\nmax_fp: 0.000000e+00 : f32\nmax_int: 127 : i64\nmin_fp: 0.000000e+00 : f32\nmin_int: -128 : i64", shape = ellipse, style = filled];
          v92 [fillcolor = "0.142857 1.0 1.0", label = "tosa.conv2d : (tensor<?x48x48x16xi3...)\n\ndilation: array<i64: 1, 1>\npad: array<i64: 0, 0, 0, ...\nquantization_info: #tosa.conv_quant<inp...\nstride: array<i64: 1, 1>", shape = ellipse, style = filled];
          v93 [fillcolor = "0.190476 1.0 1.0", label = "tosa.rescale : (tensor<?x48x48x16xi8...)\n\ndouble_round: true\ninput_zp: 0 : i32\nmultiplier: array<i32: 182200787...\noutput_zp: -128 : i32\nper_channel: true\nscale32: true\nshift: array<i8: 38, 38, 39...", shape = ellipse, style = filled];
          v94 [fillcolor = "0.238095 1.0 1.0", label = "tosa.clamp : (tensor<?x48x48x16xi8...)\n\nmax_fp: 0.000000e+00 : f32\nmax_int: 127 : i64\nmin_fp: 0.000000e+00 : f32\nmin_int: -128 : i64", shape = ellipse, style = filled];
          v95 [fillcolor = "0.285714 1.0 1.0", label = "tosa.depthwise_conv2d : (tensor<?x24x24x16xi3...)\n\ndilation: array<i64: 1, 1>\npad: array<i64: 0, 1, 0, ...\nquantization_info: #tosa.conv_quant<inp...\nstride: array<i64: 2, 2>", shape = ellipse, style = filled];
          v96 [fillcolor = "0.190476 1.0 1.0", label = "tosa.rescale : (tensor<?x24x24x16xi8...)\n\ndouble_round: true\ninput_zp: 0 : i32\nmultiplier: array<i32: 201426460...\noutput_zp: -128 : i32\nper_channel: true\nscale32: true\nshift: array<i8: 39, 39, 37...", shape = ellipse, style = filled];
          v97 [fillcolor = "0.238095 1.0 1.0", label = "tosa.clamp : (tensor<?x24x24x16xi8...)\n\nmax_fp: 0.000000e+00 : f32\nmax_int: 127 : i64\nmin_fp: 0.000000e+00 : f32\nmin_int: -128 : i64", shape = ellipse, style = filled];
          v98 [fillcolor = "0.142857 1.0 1.0", label = "tosa.conv2d : (tensor<?x24x24x32xi3...)\n\ndilation: array<i64: 1, 1>\npad: array<i64: 0, 0, 0, ...\nquantization_info: #tosa.conv_quant<inp...\nstride: array<i64: 1, 1>", shape = ellipse, style = filled];
          v99 [fillcolor = "0.190476 1.0 1.0", label = "tosa.rescale : (tensor<?x24x24x32xi8...)\n\ndouble_round: true\ninput_zp: 0 : i32\nmultiplier: array<i32: 192497145...\noutput_zp: -128 : i32\nper_channel: true\nscale32: true\nshift: array<i8: 39, 38, 38...", shape = ellipse, style = filled];
          v100 [fillcolor = "0.238095 1.0 1.0", label = "tosa.clamp : (tensor<?x24x24x32xi8...)\n\nmax_fp: 0.000000e+00 : f32\nmax_int: 127 : i64\nmin_fp: 0.000000e+00 : f32\nmin_int: -128 : i64", shape = ellipse, style = filled];
          v101 [fillcolor = "0.285714 1.0 1.0", label = "tosa.depthwise_conv2d : (tensor<?x24x24x32xi3...)\n\ndilation: array<i64: 1, 1>\npad: array<i64: 1, 1, 1, ...\nquantization_info: #tosa.conv_quant<inp...\nstride: array<i64: 1, 1>", shape = ellipse, style = filled];
          v102 [fillcolor = "0.190476 1.0 1.0", label = "tosa.rescale : (tensor<?x24x24x32xi8...)\n\ndouble_round: true\ninput_zp: 0 : i32\nmultiplier: array<i32: 181198662...\noutput_zp: -128 : i32\nper_channel: true\nscale32: true\nshift: array<i8: 38, 38, 38...", shape = ellipse, style = filled];
          v103 [fillcolor = "0.238095 1.0 1.0", label = "tosa.clamp : (tensor<?x24x24x32xi8...)\n\nmax_fp: 0.000000e+00 : f32\nmax_int: 127 : i64\nmin_fp: 0.000000e+00 : f32\nmin_int: -128 : i64", shape = ellipse, style = filled];
          v104 [fillcolor = "0.142857 1.0 1.0", label = "tosa.conv2d : (tensor<?x24x24x32xi3...)\n\ndilation: array<i64: 1, 1>\npad: array<i64: 0, 0, 0, ...\nquantization_info: #tosa.conv_quant<inp...\nstride: array<i64: 1, 1>", shape = ellipse, style = filled];
          v105 [fillcolor = "0.190476 1.0 1.0", label = "tosa.rescale : (tensor<?x24x24x32xi8...)\n\ndouble_round: true\ninput_zp: 0 : i32\nmultiplier: array<i32: 179495851...\noutput_zp: -128 : i32\nper_channel: true\nscale32: true\nshift: array<i8: 39, 38, 40...", shape = ellipse, style = filled];
          v106 [fillcolor = "0.238095 1.0 1.0", label = "tosa.clamp : (tensor<?x24x24x32xi8...)\n\nmax_fp: 0.000000e+00 : f32\nmax_int: 127 : i64\nmin_fp: 0.000000e+00 : f32\nmin_int: -128 : i64", shape = ellipse, style = filled];
          v107 [fillcolor = "0.285714 1.0 1.0", label = "tosa.depthwise_conv2d : (tensor<?x12x12x32xi3...)\n\ndilation: array<i64: 1, 1>\npad: array<i64: 0, 1, 0, ...\nquantization_info: #tosa.conv_quant<inp...\nstride: array<i64: 2, 2>", shape = ellipse, style = filled];
          v108 [fillcolor = "0.190476 1.0 1.0", label = "tosa.rescale : (tensor<?x12x12x32xi8...)\n\ndouble_round: true\ninput_zp: 0 : i32\nmultiplier: array<i32: 146459495...\noutput_zp: -128 : i32\nper_channel: true\nscale32: true\nshift: array<i8: 38, 38, 38...", shape = ellipse, style = filled];
          v109 [fillcolor = "0.238095 1.0 1.0", label = "tosa.clamp : (tensor<?x12x12x32xi8...)\n\nmax_fp: 0.000000e+00 : f32\nmax_int: 127 : i64\nmin_fp: 0.000000e+00 : f32\nmin_int: -128 : i64", shape = ellipse, style = filled];
          v110 [fillcolor = "0.142857 1.0 1.0", label = "tosa.conv2d : (tensor<?x12x12x64xi3...)\n\ndilation: array<i64: 1, 1>\npad: array<i64: 0, 0, 0, ...\nquantization_info: #tosa.conv_quant<inp...\nstride: array<i64: 1, 1>", shape = ellipse, style = filled];
          v111 [fillcolor = "0.190476 1.0 1.0", label = "tosa.rescale : (tensor<?x12x12x64xi8...)\n\ndouble_round: true\ninput_zp: 0 : i32\nmultiplier: array<i32: 108416419...\noutput_zp: -128 : i32\nper_channel: true\nscale32: true\nshift: array<i8: 38, 38, 38...", shape = ellipse, style = filled];
          v112 [fillcolor = "0.238095 1.0 1.0", label = "tosa.clamp : (tensor<?x12x12x64xi8...)\n\nmax_fp: 0.000000e+00 : f32\nmax_int: 127 : i64\nmin_fp: 0.000000e+00 : f32\nmin_int: -128 : i64", shape = ellipse, style = filled];
          v113 [fillcolor = "0.285714 1.0 1.0", label = "tosa.depthwise_conv2d : (tensor<?x12x12x64xi3...)\n\ndilation: array<i64: 1, 1>\npad: array<i64: 1, 1, 1, ...\nquantization_info: #tosa.conv_quant<inp...\nstride: array<i64: 1, 1>", shape = ellipse, style = filled];
          v114 [fillcolor = "0.190476 1.0 1.0", label = "tosa.rescale : (tensor<?x12x12x64xi8...)\n\ndouble_round: true\ninput_zp: 0 : i32\nmultiplier: array<i32: 144515330...\noutput_zp: -128 : i32\nper_channel: true\nscale32: true\nshift: array<i8: 37, 38, 37...", shape = ellipse, style = filled];
          v115 [fillcolor = "0.238095 1.0 1.0", label = "tosa.clamp : (tensor<?x12x12x64xi8...)\n\nmax_fp: 0.000000e+00 : f32\nmax_int: 127 : i64\nmin_fp: 0.000000e+00 : f32\nmin_int: -128 : i64", shape = ellipse, style = filled];
          v116 [fillcolor = "0.142857 1.0 1.0", label = "tosa.conv2d : (tensor<?x12x12x64xi3...)\n\ndilation: array<i64: 1, 1>\npad: array<i64: 0, 0, 0, ...\nquantization_info: #tosa.conv_quant<inp...\nstride: array<i64: 1, 1>", shape = ellipse, style = filled];
          v117 [fillcolor = "0.190476 1.0 1.0", label = "tosa.rescale : (tensor<?x12x12x64xi8...)\n\ndouble_round: true\ninput_zp: 0 : i32\nmultiplier: array<i32: 128026248...\noutput_zp: -128 : i32\nper_channel: true\nscale32: true\nshift: array<i8: 39, 39, 60...", shape = ellipse, style = filled];
          v118 [fillcolor = "0.238095 1.0 1.0", label = "tosa.clamp : (tensor<?x12x12x64xi8...)\n\nmax_fp: 0.000000e+00 : f32\nmax_int: 127 : i64\nmin_fp: 0.000000e+00 : f32\nmin_int: -128 : i64", shape = ellipse, style = filled];
          v119 [fillcolor = "0.285714 1.0 1.0", label = "tosa.depthwise_conv2d : (tensor<?x6x6x64xi32>)\n\ndilation: array<i64: 1, 1>\npad: array<i64: 0, 1, 0, ...\nquantization_info: #tosa.conv_quant<inp...\nstride: array<i64: 2, 2>", shape = ellipse, style = filled];
          v120 [fillcolor = "0.190476 1.0 1.0", label = "tosa.rescale : (tensor<?x6x6x64xi8>)\n\ndouble_round: true\ninput_zp: 0 : i32\nmultiplier: array<i32: 149211325...\noutput_zp: -128 : i32\nper_channel: true\nscale32: true\nshift: array<i8: 37, 37, 34...", shape = ellipse, style = filled];
          v121 [fillcolor = "0.238095 1.0 1.0", label = "tosa.clamp : (tensor<?x6x6x64xi8>)\n\nmax_fp: 0.000000e+00 : f32\nmax_int: 127 : i64\nmin_fp: 0.000000e+00 : f32\nmin_int: -128 : i64", shape = ellipse, style = filled];
          v122 [fillcolor = "0.142857 1.0 1.0", label = "tosa.conv2d : (tensor<?x6x6x128xi32...)\n\ndilation: array<i64: 1, 1>\npad: array<i64: 0, 0, 0, ...\nquantization_info: #tosa.conv_quant<inp...\nstride: array<i64: 1, 1>", shape = ellipse, style = filled];
          v123 [fillcolor = "0.190476 1.0 1.0", label = "tosa.rescale : (tensor<?x6x6x128xi8>)\n\ndouble_round: true\ninput_zp: 0 : i32\nmultiplier: array<i32: 196233155...\noutput_zp: -128 : i32\nper_channel: true\nscale32: true\nshift: array<i8: 40, 39, 40...", shape = ellipse, style = filled];
          v124 [fillcolor = "0.238095 1.0 1.0", label = "tosa.clamp : (tensor<?x6x6x128xi8>)\n\nmax_fp: 0.000000e+00 : f32\nmax_int: 127 : i64\nmin_fp: 0.000000e+00 : f32\nmin_int: -128 : i64", shape = ellipse, style = filled];
          v125 [fillcolor = "0.285714 1.0 1.0", label = "tosa.depthwise_conv2d : (tensor<?x6x6x128xi32...)\n\ndilation: array<i64: 1, 1>\npad: array<i64: 1, 1, 1, ...\nquantization_info: #tosa.conv_quant<inp...\nstride: array<i64: 1, 1>", shape = ellipse, style = filled];
          v126 [fillcolor = "0.190476 1.0 1.0", label = "tosa.rescale : (tensor<?x6x6x128xi8>)\n\ndouble_round: true\ninput_zp: 0 : i32\nmultiplier: array<i32: 110486979...\noutput_zp: -128 : i32\nper_channel: true\nscale32: true\nshift: array<i8: 37, 38, 37...", shape = ellipse, style = filled];
          v127 [fillcolor = "0.238095 1.0 1.0", label = "tosa.clamp : (tensor<?x6x6x128xi8>)\n\nmax_fp: 0.000000e+00 : f32\nmax_int: 127 : i64\nmin_fp: 0.000000e+00 : f32\nmin_int: -128 : i64", shape = ellipse, style = filled];
          v128 [fillcolor = "0.142857 1.0 1.0", label = "tosa.conv2d : (tensor<?x6x6x128xi32...)\n\ndilation: array<i64: 1, 1>\npad: array<i64: 0, 0, 0, ...\nquantization_info: #tosa.conv_quant<inp...\nstride: array<i64: 1, 1>", shape = ellipse, style = filled];
          v129 [fillcolor = "0.190476 1.0 1.0", label = "tosa.rescale : (tensor<?x6x6x128xi8>)\n\ndouble_round: true\ninput_zp: 0 : i32\nmultiplier: array<i32: 132910701...\noutput_zp: -128 : i32\nper_channel: true\nscale32: true\nshift: array<i8: 39, 60, 39...", shape = ellipse, style = filled];
          v130 [fillcolor = "0.238095 1.0 1.0", label = "tosa.clamp : (tensor<?x6x6x128xi8>)\n\nmax_fp: 0.000000e+00 : f32\nmax_int: 127 : i64\nmin_fp: 0.000000e+00 : f32\nmin_int: -128 : i64", shape = ellipse, style = filled];
          v131 [fillcolor = "0.285714 1.0 1.0", label = "tosa.depthwise_conv2d : (tensor<?x6x6x128xi32...)\n\ndilation: array<i64: 1, 1>\npad: array<i64: 1, 1, 1, ...\nquantization_info: #tosa.conv_quant<inp...\nstride: array<i64: 1, 1>", shape = ellipse, style = filled];
          v132 [fillcolor = "0.190476 1.0 1.0", label = "tosa.rescale : (tensor<?x6x6x128xi8>)\n\ndouble_round: true\ninput_zp: 0 : i32\nmultiplier: array<i32: 186836998...\noutput_zp: -128 : i32\nper_channel: true\nscale32: true\nshift: array<i8: 38, 35, 38...", shape = ellipse, style = filled];
          v133 [fillcolor = "0.238095 1.0 1.0", label = "tosa.clamp : (tensor<?x6x6x128xi8>)\n\nmax_fp: 0.000000e+00 : f32\nmax_int: 127 : i64\nmin_fp: 0.000000e+00 : f32\nmin_int: -128 : i64", shape = ellipse, style = filled];
          v134 [fillcolor = "0.142857 1.0 1.0", label = "tosa.conv2d : (tensor<?x6x6x128xi32...)\n\ndilation: array<i64: 1, 1>\npad: array<i64: 0, 0, 0, ...\nquantization_info: #tosa.conv_quant<inp...\nstride: array<i64: 1, 1>", shape = ellipse, style = filled];
          v135 [fillcolor = "0.190476 1.0 1.0", label = "tosa.rescale : (tensor<?x6x6x128xi8>)\n\ndouble_round: true\ninput_zp: 0 : i32\nmultiplier: array<i32: 112233857...\noutput_zp: -128 : i32\nper_channel: true\nscale32: true\nshift: array<i8: 38, 58, 59...", shape = ellipse, style = filled];
          v136 [fillcolor = "0.238095 1.0 1.0", label = "tosa.clamp : (tensor<?x6x6x128xi8>)\n\nmax_fp: 0.000000e+00 : f32\nmax_int: 127 : i64\nmin_fp: 0.000000e+00 : f32\nmin_int: -128 : i64", shape = ellipse, style = filled];
          v137 [fillcolor = "0.285714 1.0 1.0", label = "tosa.depthwise_conv2d : (tensor<?x6x6x128xi32...)\n\ndilation: array<i64: 1, 1>\npad: array<i64: 1, 1, 1, ...\nquantization_info: #tosa.conv_quant<inp...\nstride: array<i64: 1, 1>", shape = ellipse, style = filled];
          v138 [fillcolor = "0.190476 1.0 1.0", label = "tosa.rescale : (tensor<?x6x6x128xi8>)\n\ndouble_round: true\ninput_zp: 0 : i32\nmultiplier: array<i32: 142256399...\noutput_zp: -128 : i32\nper_channel: true\nscale32: true\nshift: array<i8: 38, 36, 35...", shape = ellipse, style = filled];
          v139 [fillcolor = "0.238095 1.0 1.0", label = "tosa.clamp : (tensor<?x6x6x128xi8>)\n\nmax_fp: 0.000000e+00 : f32\nmax_int: 127 : i64\nmin_fp: 0.000000e+00 : f32\nmin_int: -128 : i64", shape = ellipse, style = filled];
          v140 [fillcolor = "0.142857 1.0 1.0", label = "tosa.conv2d : (tensor<?x6x6x128xi32...)\n\ndilation: array<i64: 1, 1>\npad: array<i64: 0, 0, 0, ...\nquantization_info: #tosa.conv_quant<inp...\nstride: array<i64: 1, 1>", shape = ellipse, style = filled];
          v141 [fillcolor = "0.190476 1.0 1.0", label = "tosa.rescale : (tensor<?x6x6x128xi8>)\n\ndouble_round: true\ninput_zp: 0 : i32\nmultiplier: array<i32: 197035473...\noutput_zp: -128 : i32\nper_channel: true\nscale32: true\nshift: array<i8: 59, 39, 39...", shape = ellipse, style = filled];
          v142 [fillcolor = "0.238095 1.0 1.0", label = "tosa.clamp : (tensor<?x6x6x128xi8>)\n\nmax_fp: 0.000000e+00 : f32\nmax_int: 127 : i64\nmin_fp: 0.000000e+00 : f32\nmin_int: -128 : i64", shape = ellipse, style = filled];
          v143 [fillcolor = "0.285714 1.0 1.0", label = "tosa.depthwise_conv2d : (tensor<?x6x6x128xi32...)\n\ndilation: array<i64: 1, 1>\npad: array<i64: 1, 1, 1, ...\nquantization_info: #tosa.conv_quant<inp...\nstride: array<i64: 1, 1>", shape = ellipse, style = filled];
          v144 [fillcolor = "0.190476 1.0 1.0", label = "tosa.rescale : (tensor<?x6x6x128xi8>)\n\ndouble_round: true\ninput_zp: 0 : i32\nmultiplier: array<i32: 153391781...\noutput_zp: -128 : i32\nper_channel: true\nscale32: true\nshift: array<i8: 36, 39, 38...", shape = ellipse, style = filled];
          v145 [fillcolor = "0.238095 1.0 1.0", label = "tosa.clamp : (tensor<?x6x6x128xi8>)\n\nmax_fp: 0.000000e+00 : f32\nmax_int: 127 : i64\nmin_fp: 0.000000e+00 : f32\nmin_int: -128 : i64", shape = ellipse, style = filled];
          v146 [fillcolor = "0.142857 1.0 1.0", label = "tosa.conv2d : (tensor<?x6x6x128xi32...)\n\ndilation: array<i64: 1, 1>\npad: array<i64: 0, 0, 0, ...\nquantization_info: #tosa.conv_quant<inp...\nstride: array<i64: 1, 1>", shape = ellipse, style = filled];
          v147 [fillcolor = "0.190476 1.0 1.0", label = "tosa.rescale : (tensor<?x6x6x128xi8>)\n\ndouble_round: true\ninput_zp: 0 : i32\nmultiplier: array<i32: 168843327...\noutput_zp: -128 : i32\nper_channel: true\nscale32: true\nshift: array<i8: 60, 58, 59...", shape = ellipse, style = filled];
          v148 [fillcolor = "0.238095 1.0 1.0", label = "tosa.clamp : (tensor<?x6x6x128xi8>)\n\nmax_fp: 0.000000e+00 : f32\nmax_int: 127 : i64\nmin_fp: 0.000000e+00 : f32\nmin_int: -128 : i64", shape = ellipse, style = filled];
          v149 [fillcolor = "0.285714 1.0 1.0", label = "tosa.depthwise_conv2d : (tensor<?x6x6x128xi32...)\n\ndilation: array<i64: 1, 1>\npad: array<i64: 1, 1, 1, ...\nquantization_info: #tosa.conv_quant<inp...\nstride: array<i64: 1, 1>", shape = ellipse, style = filled];
          v150 [fillcolor = "0.190476 1.0 1.0", label = "tosa.rescale : (tensor<?x6x6x128xi8>)\n\ndouble_round: true\ninput_zp: 0 : i32\nmultiplier: array<i32: 174088846...\noutput_zp: -128 : i32\nper_channel: true\nscale32: true\nshift: array<i8: 36, 36, 36...", shape = ellipse, style = filled];
          v151 [fillcolor = "0.238095 1.0 1.0", label = "tosa.clamp : (tensor<?x6x6x128xi8>)\n\nmax_fp: 0.000000e+00 : f32\nmax_int: 127 : i64\nmin_fp: 0.000000e+00 : f32\nmin_int: -128 : i64", shape = ellipse, style = filled];
          v152 [fillcolor = "0.142857 1.0 1.0", label = "tosa.conv2d : (tensor<?x6x6x128xi32...)\n\ndilation: array<i64: 1, 1>\npad: array<i64: 0, 0, 0, ...\nquantization_info: #tosa.conv_quant<inp...\nstride: array<i64: 1, 1>", shape = ellipse, style = filled];
          v153 [fillcolor = "0.190476 1.0 1.0", label = "tosa.rescale : (tensor<?x6x6x128xi8>)\n\ndouble_round: true\ninput_zp: 0 : i32\nmultiplier: array<i32: 173424944...\noutput_zp: -128 : i32\nper_channel: true\nscale32: true\nshift: array<i8: 60, 60, 60...", shape = ellipse, style = filled];
          v154 [fillcolor = "0.238095 1.0 1.0", label = "tosa.clamp : (tensor<?x6x6x128xi8>)\n\nmax_fp: 0.000000e+00 : f32\nmax_int: 127 : i64\nmin_fp: 0.000000e+00 : f32\nmin_int: -128 : i64", shape = ellipse, style = filled];
          v155 [fillcolor = "0.285714 1.0 1.0", label = "tosa.depthwise_conv2d : (tensor<?x3x3x128xi32...)\n\ndilation: array<i64: 1, 1>\npad: array<i64: 0, 1, 0, ...\nquantization_info: #tosa.conv_quant<inp...\nstride: array<i64: 2, 2>", shape = ellipse, style = filled];
          v156 [fillcolor = "0.190476 1.0 1.0", label = "tosa.rescale : (tensor<?x3x3x128xi8>)\n\ndouble_round: true\ninput_zp: 0 : i32\nmultiplier: array<i32: 194063853...\noutput_zp: -128 : i32\nper_channel: true\nscale32: true\nshift: array<i8: 36, 36, 36...", shape = ellipse, style = filled];
          v157 [fillcolor = "0.238095 1.0 1.0", label = "tosa.clamp : (tensor<?x3x3x128xi8>)\n\nmax_fp: 0.000000e+00 : f32\nmax_int: 127 : i64\nmin_fp: 0.000000e+00 : f32\nmin_int: -128 : i64", shape = ellipse, style = filled];
          v158 [fillcolor = "0.142857 1.0 1.0", label = "tosa.conv2d : (tensor<?x3x3x256xi32...)\n\ndilation: array<i64: 1, 1>\npad: array<i64: 0, 0, 0, ...\nquantization_info: #tosa.conv_quant<inp...\nstride: array<i64: 1, 1>", shape = ellipse, style = filled];
          v159 [fillcolor = "0.190476 1.0 1.0", label = "tosa.rescale : (tensor<?x3x3x256xi8>)\n\ndouble_round: true\ninput_zp: 0 : i32\nmultiplier: array<i32: 136962801...\noutput_zp: -128 : i32\nper_channel: true\nscale32: true\nshift: array<i8: 61, 59, 39...", shape = ellipse, style = filled];
          v160 [fillcolor = "0.238095 1.0 1.0", label = "tosa.clamp : (tensor<?x3x3x256xi8>)\n\nmax_fp: 0.000000e+00 : f32\nmax_int: 127 : i64\nmin_fp: 0.000000e+00 : f32\nmin_int: -128 : i64", shape = ellipse, style = filled];
          v161 [fillcolor = "0.285714 1.0 1.0", label = "tosa.depthwise_conv2d : (tensor<?x3x3x256xi32...)\n\ndilation: array<i64: 1, 1>\npad: array<i64: 1, 1, 1, ...\nquantization_info: #tosa.conv_quant<inp...\nstride: array<i64: 1, 1>", shape = ellipse, style = filled];
          v162 [fillcolor = "0.190476 1.0 1.0", label = "tosa.rescale : (tensor<?x3x3x256xi8>)\n\ndouble_round: true\ninput_zp: 0 : i32\nmultiplier: array<i32: 132300970...\noutput_zp: -128 : i32\nper_channel: true\nscale32: true\nshift: array<i8: 35, 36, 37...", shape = ellipse, style = filled];
          v163 [fillcolor = "0.238095 1.0 1.0", label = "tosa.clamp : (tensor<?x3x3x256xi8>)\n\nmax_fp: 0.000000e+00 : f32\nmax_int: 127 : i64\nmin_fp: 0.000000e+00 : f32\nmin_int: -128 : i64", shape = ellipse, style = filled];
          v164 [fillcolor = "0.142857 1.0 1.0", label = "tosa.conv2d : (tensor<?x3x3x256xi32...)\n\ndilation: array<i64: 1, 1>\npad: array<i64: 0, 0, 0, ...\nquantization_info: #tosa.conv_quant<inp...\nstride: array<i64: 1, 1>", shape = ellipse, style = filled];
          v165 [fillcolor = "0.190476 1.0 1.0", label = "tosa.rescale : (tensor<?x3x3x256xi8>)\n\ndouble_round: true\ninput_zp: 0 : i32\nmultiplier: array<i32: 115174428...\noutput_zp: -128 : i32\nper_channel: true\nscale32: true\nshift: array<i8: 57, 57, 57...", shape = ellipse, style = filled];
          v166 [fillcolor = "0.238095 1.0 1.0", label = "tosa.clamp : (tensor<?x3x3x256xi8>)\n\nmax_fp: 0.000000e+00 : f32\nmax_int: 127 : i64\nmin_fp: 0.000000e+00 : f32\nmin_int: -128 : i64", shape = ellipse, style = filled];
          v167 [fillcolor = "0.333333 1.0 1.0", label = "tosa.avg_pool2d : (tensor<?x1x1x256xi8>)\n\nacc_type: i32\nkernel: array<i64: 3, 3>\npad: array<i64: 0, 0, 0, ...\nquantization_info: #tosa.unary_quant<in...\nstride: array<i64: 3, 3>", shape = ellipse, style = filled];
          v168 [fillcolor = "0.380952 1.0 1.0", label = "tosa.reshape : (tensor<?x256xi8>)\n\nnew_shape: array<i64: -1, 256>", shape = ellipse, style = filled];
          v169 [fillcolor = "0.428571 1.0 1.0", label = "tosa.fully_connected : (tensor<?x2xi32>)\n\nquantization_info: #tosa.conv_quant<inp...", shape = ellipse, style = filled];
          v170 [fillcolor = "0.190476 1.0 1.0", label = "tosa.rescale : (tensor<?x2xi8>)\n\ndouble_round: true\ninput_zp: 0 : i32\nmultiplier: array<i32: 184476933...\noutput_zp: 0 : i32\nper_channel: false\nscale32: true\nshift: array<i8: 40>", shape = ellipse, style = filled];
          v171 [fillcolor = "0.190476 1.0 1.0", label = "tosa.rescale : (tensor<?x2xi32>)\n\ndouble_round: false\ninput_zp: 0 : i32\nmultiplier: array<i32: 107374182...\noutput_zp: 0 : i32\nper_channel: false\nscale32: true\nshift: array<i8: 30>", shape = ellipse, style = filled];
          v172 [fillcolor = "0.476190 1.0 1.0", label = "tosa.reduce_max : (tensor<?x1xi32>)\n\naxis: 1 : i32", shape = ellipse, style = filled];
          v173 [fillcolor = "0.523810 1.0 1.0", label = "tosa.sub : (tensor<?x2xi32>)\n", shape = ellipse, style = filled];
          v174 [fillcolor = "0.190476 1.0 1.0", label = "tosa.rescale : (tensor<?x2xi16>)\n\ndouble_round: false\ninput_zp: 0 : i32\nmultiplier: array<i32: 107374182...\noutput_zp: 0 : i32\nper_channel: false\nscale32: true\nshift: array<i8: 23>", shape = ellipse, style = filled];
          v175 [fillcolor = "0.571429 1.0 1.0", label = "tosa.table : (tensor<?x2xi32>)\n", shape = ellipse, style = filled];
          v176 [fillcolor = "0.571429 1.0 1.0", label = "tosa.table : (tensor<?x2xi32>)\n", shape = ellipse, style = filled];
          v177 [fillcolor = "0.571429 1.0 1.0", label = "tosa.table : (tensor<?x2xi32>)\n", shape = ellipse, style = filled];
          v178 [fillcolor = "0.571429 1.0 1.0", label = "tosa.table : (tensor<?x2xi32>)\n", shape = ellipse, style = filled];
          v179 [fillcolor = "0.619048 1.0 1.0", label = "tosa.logical_left_shift : (tensor<?x2xi32>)\n", shape = ellipse, style = filled];
          v180 [fillcolor = "0.619048 1.0 1.0", label = "tosa.logical_left_shift : (tensor<?x2xi32>)\n", shape = ellipse, style = filled];
          v181 [fillcolor = "0.619048 1.0 1.0", label = "tosa.logical_left_shift : (tensor<?x2xi32>)\n", shape = ellipse, style = filled];
          v182 [fillcolor = "0.666667 1.0 1.0", label = "tosa.arithmetic_right_shift : (tensor<?x2xi32>)\n\nround: true", shape = ellipse, style = filled];
          v183 [fillcolor = "0.095238 1.0 1.0", label = "tosa.add : (tensor<?x2xi32>)\n", shape = ellipse, style = filled];
          v184 [fillcolor = "0.095238 1.0 1.0", label = "tosa.add : (tensor<?x2xi32>)\n", shape = ellipse, style = filled];
          v185 [fillcolor = "0.095238 1.0 1.0", label = "tosa.add : (tensor<?x2xi32>)\n", shape = ellipse, style = filled];
          v186 [fillcolor = "0.666667 1.0 1.0", label = "tosa.arithmetic_right_shift : (tensor<?x2xi32>)\n\nround: true", shape = ellipse, style = filled];
          v187 [fillcolor = "0.714286 1.0 1.0", label = "tosa.reduce_sum : (tensor<?x1xi32>)\n\naxis: 1 : i32", shape = ellipse, style = filled];
          v188 [fillcolor = "0.761905 1.0 1.0", label = "tosa.clz : (tensor<?x1xi32>)\n", shape = ellipse, style = filled];
          v189 [fillcolor = "0.523810 1.0 1.0", label = "tosa.sub : (tensor<?x1xi32>)\n", shape = ellipse, style = filled];
          v190 [fillcolor = "0.619048 1.0 1.0", label = "tosa.logical_left_shift : (tensor<?x1xi32>)\n", shape = ellipse, style = filled];
          v191 [fillcolor = "0.809524 1.0 1.0", label = "tosa.mul : (tensor<?x1xi32>)\n\nshift: 31 : i8", shape = ellipse, style = filled];
          v192 [fillcolor = "0.095238 1.0 1.0", label = "tosa.add : (tensor<?x1xi32>)\n", shape = ellipse, style = filled];
          v193 [fillcolor = "0.809524 1.0 1.0", label = "tosa.mul : (tensor<?x1xi32>)\n\nshift: 31 : i8", shape = ellipse, style = filled];
          v194 [fillcolor = "0.523810 1.0 1.0", label = "tosa.sub : (tensor<?x1xi32>)\n", shape = ellipse, style = filled];
          v195 [fillcolor = "0.809524 1.0 1.0", label = "tosa.mul : (tensor<?x1xi32>)\n\nshift: 31 : i8", shape = ellipse, style = filled];
          v196 [fillcolor = "0.809524 1.0 1.0", label = "tosa.mul : (tensor<?x1xi32>)\n\nshift: 0 : i8", shape = ellipse, style = filled];
          v197 [fillcolor = "0.095238 1.0 1.0", label = "tosa.add : (tensor<?x1xi32>)\n", shape = ellipse, style = filled];
          v198 [fillcolor = "0.809524 1.0 1.0", label = "tosa.mul : (tensor<?x1xi32>)\n\nshift: 31 : i8", shape = ellipse, style = filled];
          v199 [fillcolor = "0.523810 1.0 1.0", label = "tosa.sub : (tensor<?x1xi32>)\n", shape = ellipse, style = filled];
          v200 [fillcolor = "0.809524 1.0 1.0", label = "tosa.mul : (tensor<?x1xi32>)\n\nshift: 31 : i8", shape = ellipse, style = filled];
          v201 [fillcolor = "0.809524 1.0 1.0", label = "tosa.mul : (tensor<?x1xi32>)\n\nshift: 0 : i8", shape = ellipse, style = filled];
          v202 [fillcolor = "0.095238 1.0 1.0", label = "tosa.add : (tensor<?x1xi32>)\n", shape = ellipse, style = filled];
          v203 [fillcolor = "0.809524 1.0 1.0", label = "tosa.mul : (tensor<?x1xi32>)\n\nshift: 31 : i8", shape = ellipse, style = filled];
          v204 [fillcolor = "0.523810 1.0 1.0", label = "tosa.sub : (tensor<?x1xi32>)\n", shape = ellipse, style = filled];
          v205 [fillcolor = "0.809524 1.0 1.0", label = "tosa.mul : (tensor<?x1xi32>)\n\nshift: 31 : i8", shape = ellipse, style = filled];
          v206 [fillcolor = "0.809524 1.0 1.0", label = "tosa.mul : (tensor<?x1xi32>)\n\nshift: 0 : i8", shape = ellipse, style = filled];
          v207 [fillcolor = "0.095238 1.0 1.0", label = "tosa.add : (tensor<?x1xi32>)\n", shape = ellipse, style = filled];
          v208 [fillcolor = "0.809524 1.0 1.0", label = "tosa.mul : (tensor<?x2xi32>)\n\nshift: 30 : i8", shape = ellipse, style = filled];
          v209 [fillcolor = "0.523810 1.0 1.0", label = "tosa.sub : (tensor<?x1xi32>)\n", shape = ellipse, style = filled];
          v210 [fillcolor = "0.666667 1.0 1.0", label = "tosa.arithmetic_right_shift : (tensor<?x2xi32>)\n\nround: true", shape = ellipse, style = filled];
          v211 [fillcolor = "0.190476 1.0 1.0", label = "tosa.rescale : (tensor<?x2xi8>)\n\ndouble_round: false\ninput_zp: 0 : i32\nmultiplier: array<i32: 107374182...\noutput_zp: -128 : i32\nper_channel: false\nscale32: true\nshift: array<i8: 30>", shape = ellipse, style = filled];
          v212 [fillcolor = "0.047619 1.0 1.0", label = "tosa.cast : (tensor<?x2xf32>)\n", shape = ellipse, style = filled];
          v213 [fillcolor = "0.523810 1.0 1.0", label = "tosa.sub : (tensor<?x2xf32>)\n", shape = ellipse, style = filled];
          v214 [fillcolor = "0.809524 1.0 1.0", label = "tosa.mul : (tensor<?x2xf32>)\n\nshift: 0 : i8", shape = ellipse, style = filled];
          v215 [fillcolor = "0.857143 1.0 1.0", label = "func.return : ()\n", shape = ellipse, style = filled];
        }
      }
    }
  }
  v9 -> v83 [label = "", style = solid];
  v83 -> v84 [label = "0", style = solid];
  v35 -> v84 [label = "1", style = solid];
  v84 -> v85 [label = "", style = solid];
  v85 -> v86 [label = "0", style = solid];
  v82 -> v86 [label = "1", style = solid];
  v81 -> v86 [label = "2", style = solid];
  v86 -> v87 [label = "", style = solid];
  v87 -> v88 [label = "", style = solid];
  v88 -> v89 [label = "0", style = solid];
  v22 -> v89 [label = "1", style = solid];
  v80 -> v89 [label = "2", style = solid];
  v89 -> v90 [label = "", style = solid];
  v90 -> v91 [label = "", style = solid];
  v91 -> v92 [label = "0", style = solid];
  v79 -> v92 [label = "1", style = solid];
  v78 -> v92 [label = "2", style = solid];
  v92 -> v93 [label = "", style = solid];
  v93 -> v94 [label = "", style = solid];
  v94 -> v95 [label = "0", style = solid];
  v21 -> v95 [label = "1", style = solid];
  v77 -> v95 [label = "2", style = solid];
  v95 -> v96 [label = "", style = solid];
  v96 -> v97 [label = "", style = solid];
  v97 -> v98 [label = "0", style = solid];
  v76 -> v98 [label = "1", style = solid];
  v75 -> v98 [label = "2", style = solid];
  v98 -> v99 [label = "", style = solid];
  v99 -> v100 [label = "", style = solid];
  v100 -> v101 [label = "0", style = solid];
  v20 -> v101 [label = "1", style = solid];
  v74 -> v101 [label = "2", style = solid];
  v101 -> v102 [label = "", style = solid];
  v102 -> v103 [label = "", style = solid];
  v103 -> v104 [label = "0", style = solid];
  v73 -> v104 [label = "1", style = solid];
  v72 -> v104 [label = "2", style = solid];
  v104 -> v105 [label = "", style = solid];
  v105 -> v106 [label = "", style = solid];
  v106 -> v107 [label = "0", style = solid];
  v19 -> v107 [label = "1", style = solid];
  v71 -> v107 [label = "2", style = solid];
  v107 -> v108 [label = "", style = solid];
  v108 -> v109 [label = "", style = solid];
  v109 -> v110 [label = "0", style = solid];
  v70 -> v110 [label = "1", style = solid];
  v69 -> v110 [label = "2", style = solid];
  v110 -> v111 [label = "", style = solid];
  v111 -> v112 [label = "", style = solid];
  v112 -> v113 [label = "0", style = solid];
  v18 -> v113 [label = "1", style = solid];
  v68 -> v113 [label = "2", style = solid];
  v113 -> v114 [label = "", style = solid];
  v114 -> v115 [label = "", style = solid];
  v115 -> v116 [label = "0", style = solid];
  v67 -> v116 [label = "1", style = solid];
  v66 -> v116 [label = "2", style = solid];
  v116 -> v117 [label = "", style = solid];
  v117 -> v118 [label = "", style = solid];
  v118 -> v119 [label = "0", style = solid];
  v17 -> v119 [label = "1", style = solid];
  v65 -> v119 [label = "2", style = solid];
  v119 -> v120 [label = "", style = solid];
  v120 -> v121 [label = "", style = solid];
  v121 -> v122 [label = "0", style = solid];
  v64 -> v122 [label = "1", style = solid];
  v63 -> v122 [label = "2", style = solid];
  v122 -> v123 [label = "", style = solid];
  v123 -> v124 [label = "", style = solid];
  v124 -> v125 [label = "0", style = solid];
  v16 -> v125 [label = "1", style = solid];
  v62 -> v125 [label = "2", style = solid];
  v125 -> v126 [label = "", style = solid];
  v126 -> v127 [label = "", style = solid];
  v127 -> v128 [label = "0", style = solid];
  v61 -> v128 [label = "1", style = solid];
  v60 -> v128 [label = "2", style = solid];
  v128 -> v129 [label = "", style = solid];
  v129 -> v130 [label = "", style = solid];
  v130 -> v131 [label = "0", style = solid];
  v15 -> v131 [label = "1", style = solid];
  v59 -> v131 [label = "2", style = solid];
  v131 -> v132 [label = "", style = solid];
  v132 -> v133 [label = "", style = solid];
  v133 -> v134 [label = "0", style = solid];
  v58 -> v134 [label = "1", style = solid];
  v57 -> v134 [label = "2", style = solid];
  v134 -> v135 [label = "", style = solid];
  v135 -> v136 [label = "", style = solid];
  v136 -> v137 [label = "0", style = solid];
  v14 -> v137 [label = "1", style = solid];
  v56 -> v137 [label = "2", style = solid];
  v137 -> v138 [label = "", style = solid];
  v138 -> v139 [label = "", style = solid];
  v139 -> v140 [label = "0", style = solid];
  v55 -> v140 [label = "1", style = solid];
  v54 -> v140 [label = "2", style = solid];
  v140 -> v141 [label = "", style = solid];
  v141 -> v142 [label = "", style = solid];
  v142 -> v143 [label = "0", style = solid];
  v13 -> v143 [label = "1", style = solid];
  v53 -> v143 [label = "2", style = solid];
  v143 -> v144 [label = "", style = solid];
  v144 -> v145 [label = "", style = solid];
  v145 -> v146 [label = "0", style = solid];
  v52 -> v146 [label = "1", style = solid];
  v51 -> v146 [label = "2", style = solid];
  v146 -> v147 [label = "", style = solid];
  v147 -> v148 [label = "", style = solid];
  v148 -> v149 [label = "0", style = solid];
  v12 -> v149 [label = "1", style = solid];
  v50 -> v149 [label = "2", style = solid];
  v149 -> v150 [label = "", style = solid];
  v150 -> v151 [label = "", style = solid];
  v151 -> v152 [label = "0", style = solid];
  v49 -> v152 [label = "1", style = solid];
  v48 -> v152 [label = "2", style = solid];
  v152 -> v153 [label = "", style = solid];
  v153 -> v154 [label = "", style = solid];
  v154 -> v155 [label = "0", style = solid];
  v11 -> v155 [label = "1", style = solid];
  v47 -> v155 [label = "2", style = solid];
  v155 -> v156 [label = "", style = solid];
  v156 -> v157 [label = "", style = solid];
  v157 -> v158 [label = "0", style = solid];
  v46 -> v158 [label = "1", style = solid];
  v45 -> v158 [label = "2", style = solid];
  v158 -> v159 [label = "", style = solid];
  v159 -> v160 [label = "", style = solid];
  v160 -> v161 [label = "0", style = solid];
  v10 -> v161 [label = "1", style = solid];
  v44 -> v161 [label = "2", style = solid];
  v161 -> v162 [label = "", style = solid];
  v162 -> v163 [label = "", style = solid];
  v163 -> v164 [label = "0", style = solid];
  v43 -> v164 [label = "1", style = solid];
  v42 -> v164 [label = "2", style = solid];
  v164 -> v165 [label = "", style = solid];
  v165 -> v166 [label = "", style = solid];
  v166 -> v167 [label = "", style = solid];
  v167 -> v168 [label = "", style = solid];
  v168 -> v169 [label = "0", style = solid];
  v41 -> v169 [label = "1", style = solid];
  v40 -> v169 [label = "2", style = solid];
  v169 -> v170 [label = "", style = solid];
  v170 -> v171 [label = "", style = solid];
  v171 -> v172 [label = "", style = solid];
  v171 -> v173 [label = "0", style = solid];
  v172 -> v173 [label = "1", style = solid];
  v173 -> v174 [label = "", style = solid];
  v174 -> v175 [label = "0", style = solid];
  v39 -> v175 [label = "1", style = solid];
  v174 -> v176 [label = "0", style = solid];
  v38 -> v176 [label = "1", style = solid];
  v174 -> v177 [label = "0", style = solid];
  v37 -> v177 [label = "1", style = solid];
  v174 -> v178 [label = "0", style = solid];
  v36 -> v178 [label = "1", style = solid];
  v175 -> v179 [label = "0", style = solid];
  v34 -> v179 [label = "1", style = solid];
  v176 -> v180 [label = "0", style = solid];
  v33 -> v180 [label = "1", style = solid];
  v177 -> v181 [label = "0", style = solid];
  v32 -> v181 [label = "1", style = solid];
  v178 -> v182 [label = "0", style = solid];
  v31 -> v182 [label = "1", style = solid];
  v179 -> v183 [label = "0", style = solid];
  v180 -> v183 [label = "1", style = solid];
  v183 -> v184 [label = "0", style = solid];
  v181 -> v184 [label = "1", style = solid];
  v184 -> v185 [label = "0", style = solid];
  v182 -> v185 [label = "1", style = solid];
  v185 -> v186 [label = "0", style = solid];
  v30 -> v186 [label = "1", style = solid];
  v186 -> v187 [label = "", style = solid];
  v187 -> v188 [label = "", style = solid];
  v188 -> v189 [label = "0", style = solid];
  v32 -> v189 [label = "1", style = solid];
  v187 -> v190 [label = "0", style = solid];
  v189 -> v190 [label = "1", style = solid];
  v190 -> v191 [label = "0", style = solid];
  v29 -> v191 [label = "1", style = solid];
  v191 -> v192 [label = "0", style = solid];
  v28 -> v192 [label = "1", style = solid];
  v192 -> v193 [label = "0", style = solid];
  v190 -> v193 [label = "1", style = solid];
  v27 -> v194 [label = "0", style = solid];
  v193 -> v194 [label = "1", style = solid];
  v192 -> v195 [label = "0", style = solid];
  v194 -> v195 [label = "1", style = solid];
  v195 -> v196 [label = "0", style = solid];
  v26 -> v196 [label = "1", style = solid];
  v192 -> v197 [label = "0", style = solid];
  v196 -> v197 [label = "1", style = solid];
  v197 -> v198 [label = "0", style = solid];
  v190 -> v198 [label = "1", style = solid];
  v27 -> v199 [label = "0", style = solid];
  v198 -> v199 [label = "1", style = solid];
  v197 -> v200 [label = "0", style = solid];
  v199 -> v200 [label = "1", style = solid];
  v200 -> v201 [label = "0", style = solid];
  v26 -> v201 [label = "1", style = solid];
  v197 -> v202 [label = "0", style = solid];
  v201 -> v202 [label = "1", style = solid];
  v202 -> v203 [label = "0", style = solid];
  v190 -> v203 [label = "1", style = solid];
  v27 -> v204 [label = "0", style = solid];
  v203 -> v204 [label = "1", style = solid];
  v202 -> v205 [label = "0", style = solid];
  v204 -> v205 [label = "1", style = solid];
  v205 -> v206 [label = "0", style = solid];
  v26 -> v206 [label = "1", style = solid];
  v202 -> v207 [label = "0", style = solid];
  v206 -> v207 [label = "1", style = solid];
  v185 -> v208 [label = "0", style = solid];
  v207 -> v208 [label = "1", style = solid];
  v25 -> v209 [label = "0", style = solid];
  v188 -> v209 [label = "1", style = solid];
  v208 -> v210 [label = "0", style = solid];
  v209 -> v210 [label = "1", style = solid];
  v210 -> v211 [label = "", style = solid];
  v211 -> v212 [label = "", style = solid];
  v212 -> v213 [label = "0", style = solid];
  v24 -> v213 [label = "1", style = solid];
  v213 -> v214 [label = "0", style = solid];
  v23 -> v214 [label = "1", style = solid];
  v214 -> v215 [label = "", style = solid];
}
