digraph G {
  compound = true;
  subgraph cluster_1 {
    v2 [label = " ", shape = plain];
    label = "builtin.module : ()\n\ntorch.debug_module_name: \"ResNet\"";
    subgraph cluster_3 {
      v4 [label = " ", shape = plain];
      label = "";
      subgraph cluster_5 {
        v6 [label = " ", shape = plain];
        label = "func.func : ()\n\nfunction_type: (tensor<4x3x224x224x...\nsym_name: \"forward\"";
        subgraph cluster_7 {
          v8 [label = " ", shape = plain];
          label = "";
          v9 [label = "arg0", shape = ellipse];
          v10 [fillcolor = "0.000000 1.0 1.0", label = "tosa.const : (tensor<1x512x1x1xf32...)\n\nvalue: [[[[...]]]] : tensor<1x512x1x1xf32>", shape = ellipse, style = filled];
          v11 [fillcolor = "0.000000 1.0 1.0", label = "tosa.const : (tensor<1x256x1x1xf32...)\n\nvalue: [[[[...]]]] : tensor<1x256x1x1xf32>", shape = ellipse, style = filled];
          v12 [fillcolor = "0.000000 1.0 1.0", label = "tosa.const : (tensor<1x128x1x1xf32...)\n\nvalue: [[[[...]]]] : tensor<1x128x1x1xf32>", shape = ellipse, style = filled];
          v13 [fillcolor = "0.000000 1.0 1.0", label = "tosa.const : (tensor<1000x512xf32>)\n\nvalue: [[...]] : tensor<1000x512xf32>", shape = ellipse, style = filled];
          v14 [fillcolor = "0.000000 1.0 1.0", label = "tosa.const : (tensor<512x512x3x3xf...)\n\nvalue: [[[[...]]]] : tensor<512x512x3x3xf32>", shape = ellipse, style = filled];
          v15 [fillcolor = "0.000000 1.0 1.0", label = "tosa.const : (tensor<512x512x3x3xf...)\n\nvalue: [[[[...]]]] : tensor<512x512x3x3xf32>", shape = ellipse, style = filled];
          v16 [fillcolor = "0.000000 1.0 1.0", label = "tosa.const : (tensor<512x512x3x3xf...)\n\nvalue: [[[[...]]]] : tensor<512x512x3x3xf32>", shape = ellipse, style = filled];
          v17 [fillcolor = "0.000000 1.0 1.0", label = "tosa.const : (tensor<512x256x3x3xf...)\n\nvalue: [[[[...]]]] : tensor<512x256x3x3xf32>", shape = ellipse, style = filled];
          v18 [fillcolor = "0.000000 1.0 1.0", label = "tosa.const : (tensor<256x256x3x3xf...)\n\nvalue: [[[[...]]]] : tensor<256x256x3x3xf32>", shape = ellipse, style = filled];
          v19 [fillcolor = "0.000000 1.0 1.0", label = "tosa.const : (tensor<256x256x3x3xf...)\n\nvalue: [[[[...]]]] : tensor<256x256x3x3xf32>", shape = ellipse, style = filled];
          v20 [fillcolor = "0.000000 1.0 1.0", label = "tosa.const : (tensor<256x256x3x3xf...)\n\nvalue: [[[[...]]]] : tensor<256x256x3x3xf32>", shape = ellipse, style = filled];
          v21 [fillcolor = "0.000000 1.0 1.0", label = "tosa.const : (tensor<256x128x3x3xf...)\n\nvalue: [[[[...]]]] : tensor<256x128x3x3xf32>", shape = ellipse, style = filled];
          v22 [fillcolor = "0.000000 1.0 1.0", label = "tosa.const : (tensor<128x128x3x3xf...)\n\nvalue: [[[[...]]]] : tensor<128x128x3x3xf32>", shape = ellipse, style = filled];
          v23 [fillcolor = "0.000000 1.0 1.0", label = "tosa.const : (tensor<128x128x3x3xf...)\n\nvalue: [[[[...]]]] : tensor<128x128x3x3xf32>", shape = ellipse, style = filled];
          v24 [fillcolor = "0.000000 1.0 1.0", label = "tosa.const : (tensor<128x128x3x3xf...)\n\nvalue: [[[[...]]]] : tensor<128x128x3x3xf32>", shape = ellipse, style = filled];
          v25 [fillcolor = "0.000000 1.0 1.0", label = "tosa.const : (tensor<128x64x3x3xf3...)\n\nvalue: [[[[...]]]] : tensor<128x64x3x3xf32>", shape = ellipse, style = filled];
          v26 [fillcolor = "0.000000 1.0 1.0", label = "tosa.const : (tensor<64x64x3x3xf32...)\n\nvalue: [[[[...]]]] : tensor<64x64x3x3xf32>", shape = ellipse, style = filled];
          v27 [fillcolor = "0.000000 1.0 1.0", label = "tosa.const : (tensor<64x64x3x3xf32...)\n\nvalue: [[[[...]]]] : tensor<64x64x3x3xf32>", shape = ellipse, style = filled];
          v28 [fillcolor = "0.000000 1.0 1.0", label = "tosa.const : (tensor<64x64x3x3xf32...)\n\nvalue: [[[[...]]]] : tensor<64x64x3x3xf32>", shape = ellipse, style = filled];
          v29 [fillcolor = "0.000000 1.0 1.0", label = "tosa.const : (tensor<64x64x3x3xf32...)\n\nvalue: [[[[...]]]] : tensor<64x64x3x3xf32>", shape = ellipse, style = filled];
          v30 [fillcolor = "0.000000 1.0 1.0", label = "tosa.const : (tensor<64x3x7x7xf32>)\n\nvalue: [[[[...]]]] : tensor<64x3x7x7xf32>", shape = ellipse, style = filled];
          v31 [fillcolor = "0.000000 1.0 1.0", label = "tosa.const : (tensor<64xf32>)\n\nvalue: dense<0.000000e+00> : tensor<64xf32>", shape = ellipse, style = filled];
          v32 [fillcolor = "0.000000 1.0 1.0", label = "tosa.const : (tensor<4xi32>)\n\nvalue: [...] : tensor<4xi32>", shape = ellipse, style = filled];
          v33 [fillcolor = "0.000000 1.0 1.0", label = "tosa.const : (tensor<4xi32>)\n\nvalue: [...] : tensor<4xi32>", shape = ellipse, style = filled];
          v34 [fillcolor = "0.000000 1.0 1.0", label = "tosa.const : (tensor<128xf32>)\n\nvalue: dense<0.000000e+00> : tensor<128xf32>", shape = ellipse, style = filled];
          v35 [fillcolor = "0.000000 1.0 1.0", label = "tosa.const : (tensor<256xf32>)\n\nvalue: dense<0.000000e+00> : tensor<256xf32>", shape = ellipse, style = filled];
          v36 [fillcolor = "0.000000 1.0 1.0", label = "tosa.const : (tensor<512xf32>)\n\nvalue: dense<0.000000e+00> : tensor<512xf32>", shape = ellipse, style = filled];
          v37 [fillcolor = "0.000000 1.0 1.0", label = "tosa.const : (tensor<2xi32>)\n\nvalue: dense<[1, 0]> : tens...", shape = ellipse, style = filled];
          v38 [fillcolor = "0.000000 1.0 1.0", label = "tosa.const : (tensor<64x1x1xf32>)\n\nvalue: [[[...]]] : tensor<64x1x1xf32>", shape = ellipse, style = filled];
          v39 [fillcolor = "0.000000 1.0 1.0", label = "tosa.const : (tensor<1x1x1xf32>)\n\nvalue: dense<9.99999974E-6> : tensor<1x1x1xf32>", shape = ellipse, style = filled];
          v40 [fillcolor = "0.000000 1.0 1.0", label = "tosa.const : (tensor<64x1x1xf32>)\n\nvalue: [[[...]]] : tensor<64x1x1xf32>", shape = ellipse, style = filled];
          v41 [fillcolor = "0.000000 1.0 1.0", label = "tosa.const : (tensor<64x1x1xf32>)\n\nvalue: [[[...]]] : tensor<64x1x1xf32>", shape = ellipse, style = filled];
          v42 [fillcolor = "0.000000 1.0 1.0", label = "tosa.const : (tensor<64x1x1xf32>)\n\nvalue: [[[...]]] : tensor<64x1x1xf32>", shape = ellipse, style = filled];
          v43 [fillcolor = "0.000000 1.0 1.0", label = "tosa.const : (tensor<64x1x1xf32>)\n\nvalue: [[[...]]] : tensor<64x1x1xf32>", shape = ellipse, style = filled];
          v44 [fillcolor = "0.000000 1.0 1.0", label = "tosa.const : (tensor<128x1x1xf32>)\n\nvalue: [[[...]]] : tensor<128x1x1xf32>", shape = ellipse, style = filled];
          v45 [fillcolor = "0.000000 1.0 1.0", label = "tosa.const : (tensor<128x1x1xf32>)\n\nvalue: [[[...]]] : tensor<128x1x1xf32>", shape = ellipse, style = filled];
          v46 [fillcolor = "0.000000 1.0 1.0", label = "tosa.const : (tensor<128x1x1xf32>)\n\nvalue: [[[...]]] : tensor<128x1x1xf32>", shape = ellipse, style = filled];
          v47 [fillcolor = "0.000000 1.0 1.0", label = "tosa.const : (tensor<128x1x1xf32>)\n\nvalue: [[[...]]] : tensor<128x1x1xf32>", shape = ellipse, style = filled];
          v48 [fillcolor = "0.000000 1.0 1.0", label = "tosa.const : (tensor<128x1x1xf32>)\n\nvalue: [[[...]]] : tensor<128x1x1xf32>", shape = ellipse, style = filled];
          v49 [fillcolor = "0.000000 1.0 1.0", label = "tosa.const : (tensor<256x1x1xf32>)\n\nvalue: [[[...]]] : tensor<256x1x1xf32>", shape = ellipse, style = filled];
          v50 [fillcolor = "0.000000 1.0 1.0", label = "tosa.const : (tensor<256x1x1xf32>)\n\nvalue: [[[...]]] : tensor<256x1x1xf32>", shape = ellipse, style = filled];
          v51 [fillcolor = "0.000000 1.0 1.0", label = "tosa.const : (tensor<256x1x1xf32>)\n\nvalue: [[[...]]] : tensor<256x1x1xf32>", shape = ellipse, style = filled];
          v52 [fillcolor = "0.000000 1.0 1.0", label = "tosa.const : (tensor<256x1x1xf32>)\n\nvalue: [[[...]]] : tensor<256x1x1xf32>", shape = ellipse, style = filled];
          v53 [fillcolor = "0.000000 1.0 1.0", label = "tosa.const : (tensor<256x1x1xf32>)\n\nvalue: [[[...]]] : tensor<256x1x1xf32>", shape = ellipse, style = filled];
          v54 [fillcolor = "0.000000 1.0 1.0", label = "tosa.const : (tensor<512x1x1xf32>)\n\nvalue: [[[...]]] : tensor<512x1x1xf32>", shape = ellipse, style = filled];
          v55 [fillcolor = "0.000000 1.0 1.0", label = "tosa.const : (tensor<512x1x1xf32>)\n\nvalue: [[[...]]] : tensor<512x1x1xf32>", shape = ellipse, style = filled];
          v56 [fillcolor = "0.000000 1.0 1.0", label = "tosa.const : (tensor<512x1x1xf32>)\n\nvalue: [[[...]]] : tensor<512x1x1xf32>", shape = ellipse, style = filled];
          v57 [fillcolor = "0.000000 1.0 1.0", label = "tosa.const : (tensor<512x1x1xf32>)\n\nvalue: [[[...]]] : tensor<512x1x1xf32>", shape = ellipse, style = filled];
          v58 [fillcolor = "0.000000 1.0 1.0", label = "tosa.const : (tensor<512x1x1xf32>)\n\nvalue: [[[...]]] : tensor<512x1x1xf32>", shape = ellipse, style = filled];
          v59 [fillcolor = "0.000000 1.0 1.0", label = "tosa.const : (tensor<1x1000xf32>)\n\nvalue: [[...]] : tensor<1x1000xf32>", shape = ellipse, style = filled];
          v60 [fillcolor = "0.000000 1.0 1.0", label = "tosa.const : (tensor<1x64x1x1xf32>)\n\nvalue: [[[[...]]]] : tensor<1x64x1x1xf32>", shape = ellipse, style = filled];
          v61 [fillcolor = "0.000000 1.0 1.0", label = "tosa.const : (tensor<1x64x1x1xf32>)\n\nvalue: [[[[...]]]] : tensor<1x64x1x1xf32>", shape = ellipse, style = filled];
          v62 [fillcolor = "0.000000 1.0 1.0", label = "tosa.const : (tensor<1x64x1x1xf32>)\n\nvalue: [[[[...]]]] : tensor<1x64x1x1xf32>", shape = ellipse, style = filled];
          v63 [fillcolor = "0.000000 1.0 1.0", label = "tosa.const : (tensor<1x64x1x1xf32>)\n\nvalue: [[[[...]]]] : tensor<1x64x1x1xf32>", shape = ellipse, style = filled];
          v64 [fillcolor = "0.000000 1.0 1.0", label = "tosa.const : (tensor<1x64x1x1xf32>)\n\nvalue: [[[[...]]]] : tensor<1x64x1x1xf32>", shape = ellipse, style = filled];
          v65 [fillcolor = "0.000000 1.0 1.0", label = "tosa.const : (tensor<1x64x1x1xf32>)\n\nvalue: [[[[...]]]] : tensor<1x64x1x1xf32>", shape = ellipse, style = filled];
          v66 [fillcolor = "0.000000 1.0 1.0", label = "tosa.const : (tensor<1x64x1x1xf32>)\n\nvalue: [[[[...]]]] : tensor<1x64x1x1xf32>", shape = ellipse, style = filled];
          v67 [fillcolor = "0.000000 1.0 1.0", label = "tosa.const : (tensor<1x64x1x1xf32>)\n\nvalue: [[[[...]]]] : tensor<1x64x1x1xf32>", shape = ellipse, style = filled];
          v68 [fillcolor = "0.000000 1.0 1.0", label = "tosa.const : (tensor<1x64x1x1xf32>)\n\nvalue: [[[[...]]]] : tensor<1x64x1x1xf32>", shape = ellipse, style = filled];
          v69 [fillcolor = "0.000000 1.0 1.0", label = "tosa.const : (tensor<1x64x1x1xf32>)\n\nvalue: [[[[...]]]] : tensor<1x64x1x1xf32>", shape = ellipse, style = filled];
          v70 [fillcolor = "0.000000 1.0 1.0", label = "tosa.const : (tensor<1x64x1x1xf32>)\n\nvalue: [[[[...]]]] : tensor<1x64x1x1xf32>", shape = ellipse, style = filled];
          v71 [fillcolor = "0.000000 1.0 1.0", label = "tosa.const : (tensor<1x64x1x1xf32>)\n\nvalue: [[[[...]]]] : tensor<1x64x1x1xf32>", shape = ellipse, style = filled];
          v72 [fillcolor = "0.000000 1.0 1.0", label = "tosa.const : (tensor<1x64x1x1xf32>)\n\nvalue: [[[[...]]]] : tensor<1x64x1x1xf32>", shape = ellipse, style = filled];
          v73 [fillcolor = "0.000000 1.0 1.0", label = "tosa.const : (tensor<1x64x1x1xf32>)\n\nvalue: [[[[...]]]] : tensor<1x64x1x1xf32>", shape = ellipse, style = filled];
          v74 [fillcolor = "0.000000 1.0 1.0", label = "tosa.const : (tensor<1x64x1x1xf32>)\n\nvalue: [[[[...]]]] : tensor<1x64x1x1xf32>", shape = ellipse, style = filled];
          v75 [fillcolor = "0.000000 1.0 1.0", label = "tosa.const : (tensor<1x128x1x1xf32...)\n\nvalue: [[[[...]]]] : tensor<1x128x1x1xf32>", shape = ellipse, style = filled];
          v76 [fillcolor = "0.000000 1.0 1.0", label = "tosa.const : (tensor<1x128x1x1xf32...)\n\nvalue: [[[[...]]]] : tensor<1x128x1x1xf32>", shape = ellipse, style = filled];
          v77 [fillcolor = "0.000000 1.0 1.0", label = "tosa.const : (tensor<1x128x1x1xf32...)\n\nvalue: [[[[...]]]] : tensor<1x128x1x1xf32>", shape = ellipse, style = filled];
          v78 [fillcolor = "0.000000 1.0 1.0", label = "tosa.const : (tensor<1x128x1x1xf32...)\n\nvalue: [[[[...]]]] : tensor<1x128x1x1xf32>", shape = ellipse, style = filled];
          v79 [fillcolor = "0.000000 1.0 1.0", label = "tosa.const : (tensor<1x128x1x1xf32...)\n\nvalue: [[[[...]]]] : tensor<1x128x1x1xf32>", shape = ellipse, style = filled];
          v80 [fillcolor = "0.000000 1.0 1.0", label = "tosa.const : (tensor<1x128x1x1xf32...)\n\nvalue: [[[[...]]]] : tensor<1x128x1x1xf32>", shape = ellipse, style = filled];
          v81 [fillcolor = "0.000000 1.0 1.0", label = "tosa.const : (tensor<1x128x1x1xf32...)\n\nvalue: [[[[...]]]] : tensor<1x128x1x1xf32>", shape = ellipse, style = filled];
          v82 [fillcolor = "0.000000 1.0 1.0", label = "tosa.const : (tensor<1x128x1x1xf32...)\n\nvalue: [[[[...]]]] : tensor<1x128x1x1xf32>", shape = ellipse, style = filled];
          v83 [fillcolor = "0.000000 1.0 1.0", label = "tosa.const : (tensor<1x128x1x1xf32...)\n\nvalue: [[[[...]]]] : tensor<1x128x1x1xf32>", shape = ellipse, style = filled];
          v84 [fillcolor = "0.000000 1.0 1.0", label = "tosa.const : (tensor<1x128x1x1xf32...)\n\nvalue: [[[[...]]]] : tensor<1x128x1x1xf32>", shape = ellipse, style = filled];
          v85 [fillcolor = "0.000000 1.0 1.0", label = "tosa.const : (tensor<1x128x1x1xf32...)\n\nvalue: [[[[...]]]] : tensor<1x128x1x1xf32>", shape = ellipse, style = filled];
          v86 [fillcolor = "0.000000 1.0 1.0", label = "tosa.const : (tensor<1x128x1x1xf32...)\n\nvalue: [[[[...]]]] : tensor<1x128x1x1xf32>", shape = ellipse, style = filled];
          v87 [fillcolor = "0.000000 1.0 1.0", label = "tosa.const : (tensor<1x128x1x1xf32...)\n\nvalue: [[[[...]]]] : tensor<1x128x1x1xf32>", shape = ellipse, style = filled];
          v88 [fillcolor = "0.000000 1.0 1.0", label = "tosa.const : (tensor<1x256x1x1xf32...)\n\nvalue: [[[[...]]]] : tensor<1x256x1x1xf32>", shape = ellipse, style = filled];
          v89 [fillcolor = "0.000000 1.0 1.0", label = "tosa.const : (tensor<1x256x1x1xf32...)\n\nvalue: [[[[...]]]] : tensor<1x256x1x1xf32>", shape = ellipse, style = filled];
          v90 [fillcolor = "0.000000 1.0 1.0", label = "tosa.const : (tensor<1x256x1x1xf32...)\n\nvalue: [[[[...]]]] : tensor<1x256x1x1xf32>", shape = ellipse, style = filled];
          v91 [fillcolor = "0.000000 1.0 1.0", label = "tosa.const : (tensor<1x256x1x1xf32...)\n\nvalue: [[[[...]]]] : tensor<1x256x1x1xf32>", shape = ellipse, style = filled];
          v92 [fillcolor = "0.000000 1.0 1.0", label = "tosa.const : (tensor<1x256x1x1xf32...)\n\nvalue: [[[[...]]]] : tensor<1x256x1x1xf32>", shape = ellipse, style = filled];
          v93 [fillcolor = "0.000000 1.0 1.0", label = "tosa.const : (tensor<1x256x1x1xf32...)\n\nvalue: [[[[...]]]] : tensor<1x256x1x1xf32>", shape = ellipse, style = filled];
          v94 [fillcolor = "0.000000 1.0 1.0", label = "tosa.const : (tensor<1x256x1x1xf32...)\n\nvalue: [[[[...]]]] : tensor<1x256x1x1xf32>", shape = ellipse, style = filled];
          v95 [fillcolor = "0.000000 1.0 1.0", label = "tosa.const : (tensor<1x256x1x1xf32...)\n\nvalue: [[[[...]]]] : tensor<1x256x1x1xf32>", shape = ellipse, style = filled];
          v96 [fillcolor = "0.000000 1.0 1.0", label = "tosa.const : (tensor<1x256x1x1xf32...)\n\nvalue: [[[[...]]]] : tensor<1x256x1x1xf32>", shape = ellipse, style = filled];
          v97 [fillcolor = "0.000000 1.0 1.0", label = "tosa.const : (tensor<1x256x1x1xf32...)\n\nvalue: [[[[...]]]] : tensor<1x256x1x1xf32>", shape = ellipse, style = filled];
          v98 [fillcolor = "0.000000 1.0 1.0", label = "tosa.const : (tensor<1x256x1x1xf32...)\n\nvalue: [[[[...]]]] : tensor<1x256x1x1xf32>", shape = ellipse, style = filled];
          v99 [fillcolor = "0.000000 1.0 1.0", label = "tosa.const : (tensor<1x256x1x1xf32...)\n\nvalue: [[[[...]]]] : tensor<1x256x1x1xf32>", shape = ellipse, style = filled];
          v100 [fillcolor = "0.000000 1.0 1.0", label = "tosa.const : (tensor<1x256x1x1xf32...)\n\nvalue: [[[[...]]]] : tensor<1x256x1x1xf32>", shape = ellipse, style = filled];
          v101 [fillcolor = "0.000000 1.0 1.0", label = "tosa.const : (tensor<1x512x1x1xf32...)\n\nvalue: [[[[...]]]] : tensor<1x512x1x1xf32>", shape = ellipse, style = filled];
          v102 [fillcolor = "0.000000 1.0 1.0", label = "tosa.const : (tensor<1x512x1x1xf32...)\n\nvalue: [[[[...]]]] : tensor<1x512x1x1xf32>", shape = ellipse, style = filled];
          v103 [fillcolor = "0.000000 1.0 1.0", label = "tosa.const : (tensor<1x512x1x1xf32...)\n\nvalue: [[[[...]]]] : tensor<1x512x1x1xf32>", shape = ellipse, style = filled];
          v104 [fillcolor = "0.000000 1.0 1.0", label = "tosa.const : (tensor<1x512x1x1xf32...)\n\nvalue: [[[[...]]]] : tensor<1x512x1x1xf32>", shape = ellipse, style = filled];
          v105 [fillcolor = "0.000000 1.0 1.0", label = "tosa.const : (tensor<1x512x1x1xf32...)\n\nvalue: [[[[...]]]] : tensor<1x512x1x1xf32>", shape = ellipse, style = filled];
          v106 [fillcolor = "0.000000 1.0 1.0", label = "tosa.const : (tensor<1x512x1x1xf32...)\n\nvalue: [[[[...]]]] : tensor<1x512x1x1xf32>", shape = ellipse, style = filled];
          v107 [fillcolor = "0.000000 1.0 1.0", label = "tosa.const : (tensor<1x512x1x1xf32...)\n\nvalue: [[[[...]]]] : tensor<1x512x1x1xf32>", shape = ellipse, style = filled];
          v108 [fillcolor = "0.000000 1.0 1.0", label = "tosa.const : (tensor<1x512x1x1xf32...)\n\nvalue: [[[[...]]]] : tensor<1x512x1x1xf32>", shape = ellipse, style = filled];
          v109 [fillcolor = "0.000000 1.0 1.0", label = "tosa.const : (tensor<1x512x1x1xf32...)\n\nvalue: [[[[...]]]] : tensor<1x512x1x1xf32>", shape = ellipse, style = filled];
          v110 [fillcolor = "0.000000 1.0 1.0", label = "tosa.const : (tensor<1x512x1x1xf32...)\n\nvalue: [[[[...]]]] : tensor<1x512x1x1xf32>", shape = ellipse, style = filled];
          v111 [fillcolor = "0.000000 1.0 1.0", label = "tosa.const : (tensor<1x512x1x1xf32...)\n\nvalue: [[[[...]]]] : tensor<1x512x1x1xf32>", shape = ellipse, style = filled];
          v112 [fillcolor = "0.000000 1.0 1.0", label = "tosa.const : (tensor<1x512x1x1xf32...)\n\nvalue: [[[[...]]]] : tensor<1x512x1x1xf32>", shape = ellipse, style = filled];
          v113 [fillcolor = "0.000000 1.0 1.0", label = "tosa.const : (tensor<1x512x1x1xf32...)\n\nvalue: [[[[...]]]] : tensor<1x512x1x1xf32>", shape = ellipse, style = filled];
          v114 [fillcolor = "0.000000 1.0 1.0", label = "tosa.const : (tensor<128x1x1x64xf3...)\n\nvalue: [[[[...]]]] : tensor<128x1x1x64xf32>", shape = ellipse, style = filled];
          v115 [fillcolor = "0.000000 1.0 1.0", label = "tosa.const : (tensor<256x1x1x128xf...)\n\nvalue: [[[[...]]]] : tensor<256x1x1x128xf32>", shape = ellipse, style = filled];
          v116 [fillcolor = "0.000000 1.0 1.0", label = "tosa.const : (tensor<512x1x1x256xf...)\n\nvalue: [[[[...]]]] : tensor<512x1x1x256xf32>", shape = ellipse, style = filled];
          v117 [fillcolor = "0.066667 1.0 1.0", label = "tosa.transpose : (tensor<4x224x224x3xf...)\n", shape = ellipse, style = filled];
          v118 [fillcolor = "0.066667 1.0 1.0", label = "tosa.transpose : (tensor<64x7x7x3xf32>)\n", shape = ellipse, style = filled];
          v119 [fillcolor = "0.133333 1.0 1.0", label = "tosa.conv2d : (tensor<4x112x112x64x...)\n\ndilation: array<i64: 1, 1>\npad: array<i64: 3, 3, 3, ...\nstride: array<i64: 2, 2>", shape = ellipse, style = filled];
          v120 [fillcolor = "0.066667 1.0 1.0", label = "tosa.transpose : (tensor<4x64x112x112x...)\n", shape = ellipse, style = filled];
          v121 [fillcolor = "0.200000 1.0 1.0", label = "tosa.sub : (tensor<4x64x112x112x...)\n", shape = ellipse, style = filled];
          v122 [fillcolor = "0.266667 1.0 1.0", label = "tosa.add : (tensor<64x1x1xf32>)\n", shape = ellipse, style = filled];
          v123 [fillcolor = "0.333333 1.0 1.0", label = "tosa.rsqrt : (tensor<64x1x1xf32>)\n", shape = ellipse, style = filled];
          v124 [fillcolor = "0.400000 1.0 1.0", label = "tosa.reshape : (tensor<1x64x1x1xf32>)\n\nnew_shape: array<i64: 1, 64, 1,...", shape = ellipse, style = filled];
          v125 [fillcolor = "0.466667 1.0 1.0", label = "tosa.mul : (tensor<4x64x112x112x...)\n\nshift: 0 : i8", shape = ellipse, style = filled];
          v126 [fillcolor = "0.466667 1.0 1.0", label = "tosa.mul : (tensor<4x64x112x112x...)\n\nshift: 0 : i8", shape = ellipse, style = filled];
          v127 [fillcolor = "0.266667 1.0 1.0", label = "tosa.add : (tensor<4x64x112x112x...)\n", shape = ellipse, style = filled];
          v128 [fillcolor = "0.533333 1.0 1.0", label = "tosa.clamp : (tensor<4x64x112x112x...)\n\nmax_fp: 3.40282347E+38 : f32\nmax_int: 2147483647 : i64\nmin_fp: 0.000000e+00 : f32\nmin_int: 0 : i64", shape = ellipse, style = filled];
          v129 [fillcolor = "0.066667 1.0 1.0", label = "tosa.transpose : (tensor<4x112x112x64x...)\n", shape = ellipse, style = filled];
          v130 [fillcolor = "0.600000 1.0 1.0", label = "tosa.max_pool2d : (tensor<4x56x56x64xf3...)\n\nkernel: array<i64: 3, 3>\npad: array<i64: 1, 0, 1, ...\nstride: array<i64: 2, 2>", shape = ellipse, style = filled];
          v131 [fillcolor = "0.066667 1.0 1.0", label = "tosa.transpose : (tensor<4x64x56x56xf3...)\n", shape = ellipse, style = filled];
          v132 [fillcolor = "0.066667 1.0 1.0", label = "tosa.transpose : (tensor<64x3x3x64xf32...)\n", shape = ellipse, style = filled];
          v133 [fillcolor = "0.133333 1.0 1.0", label = "tosa.conv2d : (tensor<4x56x56x64xf3...)\n\ndilation: array<i64: 1, 1>\npad: array<i64: 1, 1, 1, ...\nstride: array<i64: 1, 1>", shape = ellipse, style = filled];
          v134 [fillcolor = "0.066667 1.0 1.0", label = "tosa.transpose : (tensor<4x64x56x56xf3...)\n", shape = ellipse, style = filled];
          v135 [fillcolor = "0.200000 1.0 1.0", label = "tosa.sub : (tensor<4x64x56x56xf3...)\n", shape = ellipse, style = filled];
          v136 [fillcolor = "0.266667 1.0 1.0", label = "tosa.add : (tensor<64x1x1xf32>)\n", shape = ellipse, style = filled];
          v137 [fillcolor = "0.333333 1.0 1.0", label = "tosa.rsqrt : (tensor<64x1x1xf32>)\n", shape = ellipse, style = filled];
          v138 [fillcolor = "0.400000 1.0 1.0", label = "tosa.reshape : (tensor<1x64x1x1xf32>)\n\nnew_shape: array<i64: 1, 64, 1,...", shape = ellipse, style = filled];
          v139 [fillcolor = "0.466667 1.0 1.0", label = "tosa.mul : (tensor<4x64x56x56xf3...)\n\nshift: 0 : i8", shape = ellipse, style = filled];
          v140 [fillcolor = "0.466667 1.0 1.0", label = "tosa.mul : (tensor<4x64x56x56xf3...)\n\nshift: 0 : i8", shape = ellipse, style = filled];
          v141 [fillcolor = "0.266667 1.0 1.0", label = "tosa.add : (tensor<4x64x56x56xf3...)\n", shape = ellipse, style = filled];
          v142 [fillcolor = "0.533333 1.0 1.0", label = "tosa.clamp : (tensor<4x64x56x56xf3...)\n\nmax_fp: 3.40282347E+38 : f32\nmax_int: 2147483647 : i64\nmin_fp: 0.000000e+00 : f32\nmin_int: 0 : i64", shape = ellipse, style = filled];
          v143 [fillcolor = "0.066667 1.0 1.0", label = "tosa.transpose : (tensor<4x56x56x64xf3...)\n", shape = ellipse, style = filled];
          v144 [fillcolor = "0.066667 1.0 1.0", label = "tosa.transpose : (tensor<64x3x3x64xf32...)\n", shape = ellipse, style = filled];
          v145 [fillcolor = "0.133333 1.0 1.0", label = "tosa.conv2d : (tensor<4x56x56x64xf3...)\n\ndilation: array<i64: 1, 1>\npad: array<i64: 1, 1, 1, ...\nstride: array<i64: 1, 1>", shape = ellipse, style = filled];
          v146 [fillcolor = "0.066667 1.0 1.0", label = "tosa.transpose : (tensor<4x64x56x56xf3...)\n", shape = ellipse, style = filled];
          v147 [fillcolor = "0.200000 1.0 1.0", label = "tosa.sub : (tensor<4x64x56x56xf3...)\n", shape = ellipse, style = filled];
          v148 [fillcolor = "0.266667 1.0 1.0", label = "tosa.add : (tensor<64x1x1xf32>)\n", shape = ellipse, style = filled];
          v149 [fillcolor = "0.333333 1.0 1.0", label = "tosa.rsqrt : (tensor<64x1x1xf32>)\n", shape = ellipse, style = filled];
          v150 [fillcolor = "0.400000 1.0 1.0", label = "tosa.reshape : (tensor<1x64x1x1xf32>)\n\nnew_shape: array<i64: 1, 64, 1,...", shape = ellipse, style = filled];
          v151 [fillcolor = "0.466667 1.0 1.0", label = "tosa.mul : (tensor<4x64x56x56xf3...)\n\nshift: 0 : i8", shape = ellipse, style = filled];
          v152 [fillcolor = "0.466667 1.0 1.0", label = "tosa.mul : (tensor<4x64x56x56xf3...)\n\nshift: 0 : i8", shape = ellipse, style = filled];
          v153 [fillcolor = "0.266667 1.0 1.0", label = "tosa.add : (tensor<4x64x56x56xf3...)\n", shape = ellipse, style = filled];
          v154 [fillcolor = "0.266667 1.0 1.0", label = "tosa.add : (tensor<4x64x56x56xf3...)\n", shape = ellipse, style = filled];
          v155 [fillcolor = "0.533333 1.0 1.0", label = "tosa.clamp : (tensor<4x64x56x56xf3...)\n\nmax_fp: 3.40282347E+38 : f32\nmax_int: 2147483647 : i64\nmin_fp: 0.000000e+00 : f32\nmin_int: 0 : i64", shape = ellipse, style = filled];
          v156 [fillcolor = "0.066667 1.0 1.0", label = "tosa.transpose : (tensor<4x56x56x64xf3...)\n", shape = ellipse, style = filled];
          v157 [fillcolor = "0.066667 1.0 1.0", label = "tosa.transpose : (tensor<64x3x3x64xf32...)\n", shape = ellipse, style = filled];
          v158 [fillcolor = "0.133333 1.0 1.0", label = "tosa.conv2d : (tensor<4x56x56x64xf3...)\n\ndilation: array<i64: 1, 1>\npad: array<i64: 1, 1, 1, ...\nstride: array<i64: 1, 1>", shape = ellipse, style = filled];
          v159 [fillcolor = "0.066667 1.0 1.0", label = "tosa.transpose : (tensor<4x64x56x56xf3...)\n", shape = ellipse, style = filled];
          v160 [fillcolor = "0.200000 1.0 1.0", label = "tosa.sub : (tensor<4x64x56x56xf3...)\n", shape = ellipse, style = filled];
          v161 [fillcolor = "0.266667 1.0 1.0", label = "tosa.add : (tensor<64x1x1xf32>)\n", shape = ellipse, style = filled];
          v162 [fillcolor = "0.333333 1.0 1.0", label = "tosa.rsqrt : (tensor<64x1x1xf32>)\n", shape = ellipse, style = filled];
          v163 [fillcolor = "0.400000 1.0 1.0", label = "tosa.reshape : (tensor<1x64x1x1xf32>)\n\nnew_shape: array<i64: 1, 64, 1,...", shape = ellipse, style = filled];
          v164 [fillcolor = "0.466667 1.0 1.0", label = "tosa.mul : (tensor<4x64x56x56xf3...)\n\nshift: 0 : i8", shape = ellipse, style = filled];
          v165 [fillcolor = "0.466667 1.0 1.0", label = "tosa.mul : (tensor<4x64x56x56xf3...)\n\nshift: 0 : i8", shape = ellipse, style = filled];
          v166 [fillcolor = "0.266667 1.0 1.0", label = "tosa.add : (tensor<4x64x56x56xf3...)\n", shape = ellipse, style = filled];
          v167 [fillcolor = "0.533333 1.0 1.0", label = "tosa.clamp : (tensor<4x64x56x56xf3...)\n\nmax_fp: 3.40282347E+38 : f32\nmax_int: 2147483647 : i64\nmin_fp: 0.000000e+00 : f32\nmin_int: 0 : i64", shape = ellipse, style = filled];
          v168 [fillcolor = "0.066667 1.0 1.0", label = "tosa.transpose : (tensor<4x56x56x64xf3...)\n", shape = ellipse, style = filled];
          v169 [fillcolor = "0.066667 1.0 1.0", label = "tosa.transpose : (tensor<64x3x3x64xf32...)\n", shape = ellipse, style = filled];
          v170 [fillcolor = "0.133333 1.0 1.0", label = "tosa.conv2d : (tensor<4x56x56x64xf3...)\n\ndilation: array<i64: 1, 1>\npad: array<i64: 1, 1, 1, ...\nstride: array<i64: 1, 1>", shape = ellipse, style = filled];
          v171 [fillcolor = "0.066667 1.0 1.0", label = "tosa.transpose : (tensor<4x64x56x56xf3...)\n", shape = ellipse, style = filled];
          v172 [fillcolor = "0.200000 1.0 1.0", label = "tosa.sub : (tensor<4x64x56x56xf3...)\n", shape = ellipse, style = filled];
          v173 [fillcolor = "0.266667 1.0 1.0", label = "tosa.add : (tensor<64x1x1xf32>)\n", shape = ellipse, style = filled];
          v174 [fillcolor = "0.333333 1.0 1.0", label = "tosa.rsqrt : (tensor<64x1x1xf32>)\n", shape = ellipse, style = filled];
          v175 [fillcolor = "0.400000 1.0 1.0", label = "tosa.reshape : (tensor<1x64x1x1xf32>)\n\nnew_shape: array<i64: 1, 64, 1,...", shape = ellipse, style = filled];
          v176 [fillcolor = "0.466667 1.0 1.0", label = "tosa.mul : (tensor<4x64x56x56xf3...)\n\nshift: 0 : i8", shape = ellipse, style = filled];
          v177 [fillcolor = "0.466667 1.0 1.0", label = "tosa.mul : (tensor<4x64x56x56xf3...)\n\nshift: 0 : i8", shape = ellipse, style = filled];
          v178 [fillcolor = "0.266667 1.0 1.0", label = "tosa.add : (tensor<4x64x56x56xf3...)\n", shape = ellipse, style = filled];
          v179 [fillcolor = "0.266667 1.0 1.0", label = "tosa.add : (tensor<4x64x56x56xf3...)\n", shape = ellipse, style = filled];
          v180 [fillcolor = "0.533333 1.0 1.0", label = "tosa.clamp : (tensor<4x64x56x56xf3...)\n\nmax_fp: 3.40282347E+38 : f32\nmax_int: 2147483647 : i64\nmin_fp: 0.000000e+00 : f32\nmin_int: 0 : i64", shape = ellipse, style = filled];
          v181 [fillcolor = "0.066667 1.0 1.0", label = "tosa.transpose : (tensor<4x56x56x64xf3...)\n", shape = ellipse, style = filled];
          v182 [fillcolor = "0.066667 1.0 1.0", label = "tosa.transpose : (tensor<128x3x3x64xf3...)\n", shape = ellipse, style = filled];
          v183 [fillcolor = "0.133333 1.0 1.0", label = "tosa.conv2d : (tensor<4x28x28x128xf...)\n\ndilation: array<i64: 1, 1>\npad: array<i64: 1, 1, 1, ...\nstride: array<i64: 2, 2>", shape = ellipse, style = filled];
          v184 [fillcolor = "0.066667 1.0 1.0", label = "tosa.transpose : (tensor<4x128x28x28xf...)\n", shape = ellipse, style = filled];
          v185 [fillcolor = "0.200000 1.0 1.0", label = "tosa.sub : (tensor<4x128x28x28xf...)\n", shape = ellipse, style = filled];
          v186 [fillcolor = "0.266667 1.0 1.0", label = "tosa.add : (tensor<128x1x1xf32>)\n", shape = ellipse, style = filled];
          v187 [fillcolor = "0.333333 1.0 1.0", label = "tosa.rsqrt : (tensor<128x1x1xf32>)\n", shape = ellipse, style = filled];
          v188 [fillcolor = "0.400000 1.0 1.0", label = "tosa.reshape : (tensor<1x128x1x1xf32...)\n\nnew_shape: array<i64: 1, 128, 1...", shape = ellipse, style = filled];
          v189 [fillcolor = "0.466667 1.0 1.0", label = "tosa.mul : (tensor<4x128x28x28xf...)\n\nshift: 0 : i8", shape = ellipse, style = filled];
          v190 [fillcolor = "0.466667 1.0 1.0", label = "tosa.mul : (tensor<4x128x28x28xf...)\n\nshift: 0 : i8", shape = ellipse, style = filled];
          v191 [fillcolor = "0.266667 1.0 1.0", label = "tosa.add : (tensor<4x128x28x28xf...)\n", shape = ellipse, style = filled];
          v192 [fillcolor = "0.533333 1.0 1.0", label = "tosa.clamp : (tensor<4x128x28x28xf...)\n\nmax_fp: 3.40282347E+38 : f32\nmax_int: 2147483647 : i64\nmin_fp: 0.000000e+00 : f32\nmin_int: 0 : i64", shape = ellipse, style = filled];
          v193 [fillcolor = "0.066667 1.0 1.0", label = "tosa.transpose : (tensor<4x28x28x128xf...)\n", shape = ellipse, style = filled];
          v194 [fillcolor = "0.066667 1.0 1.0", label = "tosa.transpose : (tensor<128x3x3x128xf...)\n", shape = ellipse, style = filled];
          v195 [fillcolor = "0.133333 1.0 1.0", label = "tosa.conv2d : (tensor<4x28x28x128xf...)\n\ndilation: array<i64: 1, 1>\npad: array<i64: 1, 1, 1, ...\nstride: array<i64: 1, 1>", shape = ellipse, style = filled];
          v196 [fillcolor = "0.066667 1.0 1.0", label = "tosa.transpose : (tensor<4x128x28x28xf...)\n", shape = ellipse, style = filled];
          v197 [fillcolor = "0.200000 1.0 1.0", label = "tosa.sub : (tensor<4x128x28x28xf...)\n", shape = ellipse, style = filled];
          v198 [fillcolor = "0.266667 1.0 1.0", label = "tosa.add : (tensor<128x1x1xf32>)\n", shape = ellipse, style = filled];
          v199 [fillcolor = "0.333333 1.0 1.0", label = "tosa.rsqrt : (tensor<128x1x1xf32>)\n", shape = ellipse, style = filled];
          v200 [fillcolor = "0.400000 1.0 1.0", label = "tosa.reshape : (tensor<1x128x1x1xf32...)\n\nnew_shape: array<i64: 1, 128, 1...", shape = ellipse, style = filled];
          v201 [fillcolor = "0.466667 1.0 1.0", label = "tosa.mul : (tensor<4x128x28x28xf...)\n\nshift: 0 : i8", shape = ellipse, style = filled];
          v202 [fillcolor = "0.466667 1.0 1.0", label = "tosa.mul : (tensor<4x128x28x28xf...)\n\nshift: 0 : i8", shape = ellipse, style = filled];
          v203 [fillcolor = "0.266667 1.0 1.0", label = "tosa.add : (tensor<4x128x28x28xf...)\n", shape = ellipse, style = filled];
          v204 [fillcolor = "0.133333 1.0 1.0", label = "tosa.conv2d : (tensor<4x28x28x128xf...)\n\ndilation: array<i64: 1, 1>\npad: array<i64: 0, 0, 0, ...\nstride: array<i64: 2, 2>", shape = ellipse, style = filled];
          v205 [fillcolor = "0.066667 1.0 1.0", label = "tosa.transpose : (tensor<4x128x28x28xf...)\n", shape = ellipse, style = filled];
          v206 [fillcolor = "0.200000 1.0 1.0", label = "tosa.sub : (tensor<4x128x28x28xf...)\n", shape = ellipse, style = filled];
          v207 [fillcolor = "0.266667 1.0 1.0", label = "tosa.add : (tensor<128x1x1xf32>)\n", shape = ellipse, style = filled];
          v208 [fillcolor = "0.333333 1.0 1.0", label = "tosa.rsqrt : (tensor<128x1x1xf32>)\n", shape = ellipse, style = filled];
          v209 [fillcolor = "0.400000 1.0 1.0", label = "tosa.reshape : (tensor<1x128x1x1xf32...)\n\nnew_shape: array<i64: 1, 128, 1...", shape = ellipse, style = filled];
          v210 [fillcolor = "0.466667 1.0 1.0", label = "tosa.mul : (tensor<4x128x28x28xf...)\n\nshift: 0 : i8", shape = ellipse, style = filled];
          v211 [fillcolor = "0.466667 1.0 1.0", label = "tosa.mul : (tensor<4x128x28x28xf...)\n\nshift: 0 : i8", shape = ellipse, style = filled];
          v212 [fillcolor = "0.266667 1.0 1.0", label = "tosa.add : (tensor<4x128x28x28xf...)\n", shape = ellipse, style = filled];
          v213 [fillcolor = "0.266667 1.0 1.0", label = "tosa.add : (tensor<4x128x28x28xf...)\n", shape = ellipse, style = filled];
          v214 [fillcolor = "0.533333 1.0 1.0", label = "tosa.clamp : (tensor<4x128x28x28xf...)\n\nmax_fp: 3.40282347E+38 : f32\nmax_int: 2147483647 : i64\nmin_fp: 0.000000e+00 : f32\nmin_int: 0 : i64", shape = ellipse, style = filled];
          v215 [fillcolor = "0.066667 1.0 1.0", label = "tosa.transpose : (tensor<4x28x28x128xf...)\n", shape = ellipse, style = filled];
          v216 [fillcolor = "0.066667 1.0 1.0", label = "tosa.transpose : (tensor<128x3x3x128xf...)\n", shape = ellipse, style = filled];
          v217 [fillcolor = "0.133333 1.0 1.0", label = "tosa.conv2d : (tensor<4x28x28x128xf...)\n\ndilation: array<i64: 1, 1>\npad: array<i64: 1, 1, 1, ...\nstride: array<i64: 1, 1>", shape = ellipse, style = filled];
          v218 [fillcolor = "0.066667 1.0 1.0", label = "tosa.transpose : (tensor<4x128x28x28xf...)\n", shape = ellipse, style = filled];
          v219 [fillcolor = "0.200000 1.0 1.0", label = "tosa.sub : (tensor<4x128x28x28xf...)\n", shape = ellipse, style = filled];
          v220 [fillcolor = "0.266667 1.0 1.0", label = "tosa.add : (tensor<128x1x1xf32>)\n", shape = ellipse, style = filled];
          v221 [fillcolor = "0.333333 1.0 1.0", label = "tosa.rsqrt : (tensor<128x1x1xf32>)\n", shape = ellipse, style = filled];
          v222 [fillcolor = "0.400000 1.0 1.0", label = "tosa.reshape : (tensor<1x128x1x1xf32...)\n\nnew_shape: array<i64: 1, 128, 1...", shape = ellipse, style = filled];
          v223 [fillcolor = "0.466667 1.0 1.0", label = "tosa.mul : (tensor<4x128x28x28xf...)\n\nshift: 0 : i8", shape = ellipse, style = filled];
          v224 [fillcolor = "0.466667 1.0 1.0", label = "tosa.mul : (tensor<4x128x28x28xf...)\n\nshift: 0 : i8", shape = ellipse, style = filled];
          v225 [fillcolor = "0.266667 1.0 1.0", label = "tosa.add : (tensor<4x128x28x28xf...)\n", shape = ellipse, style = filled];
          v226 [fillcolor = "0.533333 1.0 1.0", label = "tosa.clamp : (tensor<4x128x28x28xf...)\n\nmax_fp: 3.40282347E+38 : f32\nmax_int: 2147483647 : i64\nmin_fp: 0.000000e+00 : f32\nmin_int: 0 : i64", shape = ellipse, style = filled];
          v227 [fillcolor = "0.066667 1.0 1.0", label = "tosa.transpose : (tensor<4x28x28x128xf...)\n", shape = ellipse, style = filled];
          v228 [fillcolor = "0.066667 1.0 1.0", label = "tosa.transpose : (tensor<128x3x3x128xf...)\n", shape = ellipse, style = filled];
          v229 [fillcolor = "0.133333 1.0 1.0", label = "tosa.conv2d : (tensor<4x28x28x128xf...)\n\ndilation: array<i64: 1, 1>\npad: array<i64: 1, 1, 1, ...\nstride: array<i64: 1, 1>", shape = ellipse, style = filled];
          v230 [fillcolor = "0.066667 1.0 1.0", label = "tosa.transpose : (tensor<4x128x28x28xf...)\n", shape = ellipse, style = filled];
          v231 [fillcolor = "0.200000 1.0 1.0", label = "tosa.sub : (tensor<4x128x28x28xf...)\n", shape = ellipse, style = filled];
          v232 [fillcolor = "0.266667 1.0 1.0", label = "tosa.add : (tensor<128x1x1xf32>)\n", shape = ellipse, style = filled];
          v233 [fillcolor = "0.333333 1.0 1.0", label = "tosa.rsqrt : (tensor<128x1x1xf32>)\n", shape = ellipse, style = filled];
          v234 [fillcolor = "0.400000 1.0 1.0", label = "tosa.reshape : (tensor<1x128x1x1xf32...)\n\nnew_shape: array<i64: 1, 128, 1...", shape = ellipse, style = filled];
          v235 [fillcolor = "0.466667 1.0 1.0", label = "tosa.mul : (tensor<4x128x28x28xf...)\n\nshift: 0 : i8", shape = ellipse, style = filled];
          v236 [fillcolor = "0.466667 1.0 1.0", label = "tosa.mul : (tensor<4x128x28x28xf...)\n\nshift: 0 : i8", shape = ellipse, style = filled];
          v237 [fillcolor = "0.266667 1.0 1.0", label = "tosa.add : (tensor<4x128x28x28xf...)\n", shape = ellipse, style = filled];
          v238 [fillcolor = "0.266667 1.0 1.0", label = "tosa.add : (tensor<4x128x28x28xf...)\n", shape = ellipse, style = filled];
          v239 [fillcolor = "0.533333 1.0 1.0", label = "tosa.clamp : (tensor<4x128x28x28xf...)\n\nmax_fp: 3.40282347E+38 : f32\nmax_int: 2147483647 : i64\nmin_fp: 0.000000e+00 : f32\nmin_int: 0 : i64", shape = ellipse, style = filled];
          v240 [fillcolor = "0.066667 1.0 1.0", label = "tosa.transpose : (tensor<4x28x28x128xf...)\n", shape = ellipse, style = filled];
          v241 [fillcolor = "0.066667 1.0 1.0", label = "tosa.transpose : (tensor<256x3x3x128xf...)\n", shape = ellipse, style = filled];
          v242 [fillcolor = "0.133333 1.0 1.0", label = "tosa.conv2d : (tensor<4x14x14x256xf...)\n\ndilation: array<i64: 1, 1>\npad: array<i64: 1, 1, 1, ...\nstride: array<i64: 2, 2>", shape = ellipse, style = filled];
          v243 [fillcolor = "0.066667 1.0 1.0", label = "tosa.transpose : (tensor<4x256x14x14xf...)\n", shape = ellipse, style = filled];
          v244 [fillcolor = "0.200000 1.0 1.0", label = "tosa.sub : (tensor<4x256x14x14xf...)\n", shape = ellipse, style = filled];
          v245 [fillcolor = "0.266667 1.0 1.0", label = "tosa.add : (tensor<256x1x1xf32>)\n", shape = ellipse, style = filled];
          v246 [fillcolor = "0.333333 1.0 1.0", label = "tosa.rsqrt : (tensor<256x1x1xf32>)\n", shape = ellipse, style = filled];
          v247 [fillcolor = "0.400000 1.0 1.0", label = "tosa.reshape : (tensor<1x256x1x1xf32...)\n\nnew_shape: array<i64: 1, 256, 1...", shape = ellipse, style = filled];
          v248 [fillcolor = "0.466667 1.0 1.0", label = "tosa.mul : (tensor<4x256x14x14xf...)\n\nshift: 0 : i8", shape = ellipse, style = filled];
          v249 [fillcolor = "0.466667 1.0 1.0", label = "tosa.mul : (tensor<4x256x14x14xf...)\n\nshift: 0 : i8", shape = ellipse, style = filled];
          v250 [fillcolor = "0.266667 1.0 1.0", label = "tosa.add : (tensor<4x256x14x14xf...)\n", shape = ellipse, style = filled];
          v251 [fillcolor = "0.533333 1.0 1.0", label = "tosa.clamp : (tensor<4x256x14x14xf...)\n\nmax_fp: 3.40282347E+38 : f32\nmax_int: 2147483647 : i64\nmin_fp: 0.000000e+00 : f32\nmin_int: 0 : i64", shape = ellipse, style = filled];
          v252 [fillcolor = "0.066667 1.0 1.0", label = "tosa.transpose : (tensor<4x14x14x256xf...)\n", shape = ellipse, style = filled];
          v253 [fillcolor = "0.066667 1.0 1.0", label = "tosa.transpose : (tensor<256x3x3x256xf...)\n", shape = ellipse, style = filled];
          v254 [fillcolor = "0.133333 1.0 1.0", label = "tosa.conv2d : (tensor<4x14x14x256xf...)\n\ndilation: array<i64: 1, 1>\npad: array<i64: 1, 1, 1, ...\nstride: array<i64: 1, 1>", shape = ellipse, style = filled];
          v255 [fillcolor = "0.066667 1.0 1.0", label = "tosa.transpose : (tensor<4x256x14x14xf...)\n", shape = ellipse, style = filled];
          v256 [fillcolor = "0.200000 1.0 1.0", label = "tosa.sub : (tensor<4x256x14x14xf...)\n", shape = ellipse, style = filled];
          v257 [fillcolor = "0.266667 1.0 1.0", label = "tosa.add : (tensor<256x1x1xf32>)\n", shape = ellipse, style = filled];
          v258 [fillcolor = "0.333333 1.0 1.0", label = "tosa.rsqrt : (tensor<256x1x1xf32>)\n", shape = ellipse, style = filled];
          v259 [fillcolor = "0.400000 1.0 1.0", label = "tosa.reshape : (tensor<1x256x1x1xf32...)\n\nnew_shape: array<i64: 1, 256, 1...", shape = ellipse, style = filled];
          v260 [fillcolor = "0.466667 1.0 1.0", label = "tosa.mul : (tensor<4x256x14x14xf...)\n\nshift: 0 : i8", shape = ellipse, style = filled];
          v261 [fillcolor = "0.466667 1.0 1.0", label = "tosa.mul : (tensor<4x256x14x14xf...)\n\nshift: 0 : i8", shape = ellipse, style = filled];
          v262 [fillcolor = "0.266667 1.0 1.0", label = "tosa.add : (tensor<4x256x14x14xf...)\n", shape = ellipse, style = filled];
          v263 [fillcolor = "0.133333 1.0 1.0", label = "tosa.conv2d : (tensor<4x14x14x256xf...)\n\ndilation: array<i64: 1, 1>\npad: array<i64: 0, 0, 0, ...\nstride: array<i64: 2, 2>", shape = ellipse, style = filled];
          v264 [fillcolor = "0.066667 1.0 1.0", label = "tosa.transpose : (tensor<4x256x14x14xf...)\n", shape = ellipse, style = filled];
          v265 [fillcolor = "0.200000 1.0 1.0", label = "tosa.sub : (tensor<4x256x14x14xf...)\n", shape = ellipse, style = filled];
          v266 [fillcolor = "0.266667 1.0 1.0", label = "tosa.add : (tensor<256x1x1xf32>)\n", shape = ellipse, style = filled];
          v267 [fillcolor = "0.333333 1.0 1.0", label = "tosa.rsqrt : (tensor<256x1x1xf32>)\n", shape = ellipse, style = filled];
          v268 [fillcolor = "0.400000 1.0 1.0", label = "tosa.reshape : (tensor<1x256x1x1xf32...)\n\nnew_shape: array<i64: 1, 256, 1...", shape = ellipse, style = filled];
          v269 [fillcolor = "0.466667 1.0 1.0", label = "tosa.mul : (tensor<4x256x14x14xf...)\n\nshift: 0 : i8", shape = ellipse, style = filled];
          v270 [fillcolor = "0.466667 1.0 1.0", label = "tosa.mul : (tensor<4x256x14x14xf...)\n\nshift: 0 : i8", shape = ellipse, style = filled];
          v271 [fillcolor = "0.266667 1.0 1.0", label = "tosa.add : (tensor<4x256x14x14xf...)\n", shape = ellipse, style = filled];
          v272 [fillcolor = "0.266667 1.0 1.0", label = "tosa.add : (tensor<4x256x14x14xf...)\n", shape = ellipse, style = filled];
          v273 [fillcolor = "0.533333 1.0 1.0", label = "tosa.clamp : (tensor<4x256x14x14xf...)\n\nmax_fp: 3.40282347E+38 : f32\nmax_int: 2147483647 : i64\nmin_fp: 0.000000e+00 : f32\nmin_int: 0 : i64", shape = ellipse, style = filled];
          v274 [fillcolor = "0.066667 1.0 1.0", label = "tosa.transpose : (tensor<4x14x14x256xf...)\n", shape = ellipse, style = filled];
          v275 [fillcolor = "0.066667 1.0 1.0", label = "tosa.transpose : (tensor<256x3x3x256xf...)\n", shape = ellipse, style = filled];
          v276 [fillcolor = "0.133333 1.0 1.0", label = "tosa.conv2d : (tensor<4x14x14x256xf...)\n\ndilation: array<i64: 1, 1>\npad: array<i64: 1, 1, 1, ...\nstride: array<i64: 1, 1>", shape = ellipse, style = filled];
          v277 [fillcolor = "0.066667 1.0 1.0", label = "tosa.transpose : (tensor<4x256x14x14xf...)\n", shape = ellipse, style = filled];
          v278 [fillcolor = "0.200000 1.0 1.0", label = "tosa.sub : (tensor<4x256x14x14xf...)\n", shape = ellipse, style = filled];
          v279 [fillcolor = "0.266667 1.0 1.0", label = "tosa.add : (tensor<256x1x1xf32>)\n", shape = ellipse, style = filled];
          v280 [fillcolor = "0.333333 1.0 1.0", label = "tosa.rsqrt : (tensor<256x1x1xf32>)\n", shape = ellipse, style = filled];
          v281 [fillcolor = "0.400000 1.0 1.0", label = "tosa.reshape : (tensor<1x256x1x1xf32...)\n\nnew_shape: array<i64: 1, 256, 1...", shape = ellipse, style = filled];
          v282 [fillcolor = "0.466667 1.0 1.0", label = "tosa.mul : (tensor<4x256x14x14xf...)\n\nshift: 0 : i8", shape = ellipse, style = filled];
          v283 [fillcolor = "0.466667 1.0 1.0", label = "tosa.mul : (tensor<4x256x14x14xf...)\n\nshift: 0 : i8", shape = ellipse, style = filled];
          v284 [fillcolor = "0.266667 1.0 1.0", label = "tosa.add : (tensor<4x256x14x14xf...)\n", shape = ellipse, style = filled];
          v285 [fillcolor = "0.533333 1.0 1.0", label = "tosa.clamp : (tensor<4x256x14x14xf...)\n\nmax_fp: 3.40282347E+38 : f32\nmax_int: 2147483647 : i64\nmin_fp: 0.000000e+00 : f32\nmin_int: 0 : i64", shape = ellipse, style = filled];
          v286 [fillcolor = "0.066667 1.0 1.0", label = "tosa.transpose : (tensor<4x14x14x256xf...)\n", shape = ellipse, style = filled];
          v287 [fillcolor = "0.066667 1.0 1.0", label = "tosa.transpose : (tensor<256x3x3x256xf...)\n", shape = ellipse, style = filled];
          v288 [fillcolor = "0.133333 1.0 1.0", label = "tosa.conv2d : (tensor<4x14x14x256xf...)\n\ndilation: array<i64: 1, 1>\npad: array<i64: 1, 1, 1, ...\nstride: array<i64: 1, 1>", shape = ellipse, style = filled];
          v289 [fillcolor = "0.066667 1.0 1.0", label = "tosa.transpose : (tensor<4x256x14x14xf...)\n", shape = ellipse, style = filled];
          v290 [fillcolor = "0.200000 1.0 1.0", label = "tosa.sub : (tensor<4x256x14x14xf...)\n", shape = ellipse, style = filled];
          v291 [fillcolor = "0.266667 1.0 1.0", label = "tosa.add : (tensor<256x1x1xf32>)\n", shape = ellipse, style = filled];
          v292 [fillcolor = "0.333333 1.0 1.0", label = "tosa.rsqrt : (tensor<256x1x1xf32>)\n", shape = ellipse, style = filled];
          v293 [fillcolor = "0.400000 1.0 1.0", label = "tosa.reshape : (tensor<1x256x1x1xf32...)\n\nnew_shape: array<i64: 1, 256, 1...", shape = ellipse, style = filled];
          v294 [fillcolor = "0.466667 1.0 1.0", label = "tosa.mul : (tensor<4x256x14x14xf...)\n\nshift: 0 : i8", shape = ellipse, style = filled];
          v295 [fillcolor = "0.466667 1.0 1.0", label = "tosa.mul : (tensor<4x256x14x14xf...)\n\nshift: 0 : i8", shape = ellipse, style = filled];
          v296 [fillcolor = "0.266667 1.0 1.0", label = "tosa.add : (tensor<4x256x14x14xf...)\n", shape = ellipse, style = filled];
          v297 [fillcolor = "0.266667 1.0 1.0", label = "tosa.add : (tensor<4x256x14x14xf...)\n", shape = ellipse, style = filled];
          v298 [fillcolor = "0.533333 1.0 1.0", label = "tosa.clamp : (tensor<4x256x14x14xf...)\n\nmax_fp: 3.40282347E+38 : f32\nmax_int: 2147483647 : i64\nmin_fp: 0.000000e+00 : f32\nmin_int: 0 : i64", shape = ellipse, style = filled];
          v299 [fillcolor = "0.066667 1.0 1.0", label = "tosa.transpose : (tensor<4x14x14x256xf...)\n", shape = ellipse, style = filled];
          v300 [fillcolor = "0.066667 1.0 1.0", label = "tosa.transpose : (tensor<512x3x3x256xf...)\n", shape = ellipse, style = filled];
          v301 [fillcolor = "0.133333 1.0 1.0", label = "tosa.conv2d : (tensor<4x7x7x512xf32...)\n\ndilation: array<i64: 1, 1>\npad: array<i64: 1, 1, 1, ...\nstride: array<i64: 2, 2>", shape = ellipse, style = filled];
          v302 [fillcolor = "0.066667 1.0 1.0", label = "tosa.transpose : (tensor<4x512x7x7xf32...)\n", shape = ellipse, style = filled];
          v303 [fillcolor = "0.200000 1.0 1.0", label = "tosa.sub : (tensor<4x512x7x7xf32...)\n", shape = ellipse, style = filled];
          v304 [fillcolor = "0.266667 1.0 1.0", label = "tosa.add : (tensor<512x1x1xf32>)\n", shape = ellipse, style = filled];
          v305 [fillcolor = "0.333333 1.0 1.0", label = "tosa.rsqrt : (tensor<512x1x1xf32>)\n", shape = ellipse, style = filled];
          v306 [fillcolor = "0.400000 1.0 1.0", label = "tosa.reshape : (tensor<1x512x1x1xf32...)\n\nnew_shape: array<i64: 1, 512, 1...", shape = ellipse, style = filled];
          v307 [fillcolor = "0.466667 1.0 1.0", label = "tosa.mul : (tensor<4x512x7x7xf32...)\n\nshift: 0 : i8", shape = ellipse, style = filled];
          v308 [fillcolor = "0.466667 1.0 1.0", label = "tosa.mul : (tensor<4x512x7x7xf32...)\n\nshift: 0 : i8", shape = ellipse, style = filled];
          v309 [fillcolor = "0.266667 1.0 1.0", label = "tosa.add : (tensor<4x512x7x7xf32...)\n", shape = ellipse, style = filled];
          v310 [fillcolor = "0.533333 1.0 1.0", label = "tosa.clamp : (tensor<4x512x7x7xf32...)\n\nmax_fp: 3.40282347E+38 : f32\nmax_int: 2147483647 : i64\nmin_fp: 0.000000e+00 : f32\nmin_int: 0 : i64", shape = ellipse, style = filled];
          v311 [fillcolor = "0.066667 1.0 1.0", label = "tosa.transpose : (tensor<4x7x7x512xf32...)\n", shape = ellipse, style = filled];
          v312 [fillcolor = "0.066667 1.0 1.0", label = "tosa.transpose : (tensor<512x3x3x512xf...)\n", shape = ellipse, style = filled];
          v313 [fillcolor = "0.133333 1.0 1.0", label = "tosa.conv2d : (tensor<4x7x7x512xf32...)\n\ndilation: array<i64: 1, 1>\npad: array<i64: 1, 1, 1, ...\nstride: array<i64: 1, 1>", shape = ellipse, style = filled];
          v314 [fillcolor = "0.066667 1.0 1.0", label = "tosa.transpose : (tensor<4x512x7x7xf32...)\n", shape = ellipse, style = filled];
          v315 [fillcolor = "0.200000 1.0 1.0", label = "tosa.sub : (tensor<4x512x7x7xf32...)\n", shape = ellipse, style = filled];
          v316 [fillcolor = "0.266667 1.0 1.0", label = "tosa.add : (tensor<512x1x1xf32>)\n", shape = ellipse, style = filled];
          v317 [fillcolor = "0.333333 1.0 1.0", label = "tosa.rsqrt : (tensor<512x1x1xf32>)\n", shape = ellipse, style = filled];
          v318 [fillcolor = "0.400000 1.0 1.0", label = "tosa.reshape : (tensor<1x512x1x1xf32...)\n\nnew_shape: array<i64: 1, 512, 1...", shape = ellipse, style = filled];
          v319 [fillcolor = "0.466667 1.0 1.0", label = "tosa.mul : (tensor<4x512x7x7xf32...)\n\nshift: 0 : i8", shape = ellipse, style = filled];
          v320 [fillcolor = "0.466667 1.0 1.0", label = "tosa.mul : (tensor<4x512x7x7xf32...)\n\nshift: 0 : i8", shape = ellipse, style = filled];
          v321 [fillcolor = "0.266667 1.0 1.0", label = "tosa.add : (tensor<4x512x7x7xf32...)\n", shape = ellipse, style = filled];
          v322 [fillcolor = "0.133333 1.0 1.0", label = "tosa.conv2d : (tensor<4x7x7x512xf32...)\n\ndilation: array<i64: 1, 1>\npad: array<i64: 0, 0, 0, ...\nstride: array<i64: 2, 2>", shape = ellipse, style = filled];
          v323 [fillcolor = "0.066667 1.0 1.0", label = "tosa.transpose : (tensor<4x512x7x7xf32...)\n", shape = ellipse, style = filled];
          v324 [fillcolor = "0.200000 1.0 1.0", label = "tosa.sub : (tensor<4x512x7x7xf32...)\n", shape = ellipse, style = filled];
          v325 [fillcolor = "0.266667 1.0 1.0", label = "tosa.add : (tensor<512x1x1xf32>)\n", shape = ellipse, style = filled];
          v326 [fillcolor = "0.333333 1.0 1.0", label = "tosa.rsqrt : (tensor<512x1x1xf32>)\n", shape = ellipse, style = filled];
          v327 [fillcolor = "0.400000 1.0 1.0", label = "tosa.reshape : (tensor<1x512x1x1xf32...)\n\nnew_shape: array<i64: 1, 512, 1...", shape = ellipse, style = filled];
          v328 [fillcolor = "0.466667 1.0 1.0", label = "tosa.mul : (tensor<4x512x7x7xf32...)\n\nshift: 0 : i8", shape = ellipse, style = filled];
          v329 [fillcolor = "0.466667 1.0 1.0", label = "tosa.mul : (tensor<4x512x7x7xf32...)\n\nshift: 0 : i8", shape = ellipse, style = filled];
          v330 [fillcolor = "0.266667 1.0 1.0", label = "tosa.add : (tensor<4x512x7x7xf32...)\n", shape = ellipse, style = filled];
          v331 [fillcolor = "0.266667 1.0 1.0", label = "tosa.add : (tensor<4x512x7x7xf32...)\n", shape = ellipse, style = filled];
          v332 [fillcolor = "0.533333 1.0 1.0", label = "tosa.clamp : (tensor<4x512x7x7xf32...)\n\nmax_fp: 3.40282347E+38 : f32\nmax_int: 2147483647 : i64\nmin_fp: 0.000000e+00 : f32\nmin_int: 0 : i64", shape = ellipse, style = filled];
          v333 [fillcolor = "0.066667 1.0 1.0", label = "tosa.transpose : (tensor<4x7x7x512xf32...)\n", shape = ellipse, style = filled];
          v334 [fillcolor = "0.066667 1.0 1.0", label = "tosa.transpose : (tensor<512x3x3x512xf...)\n", shape = ellipse, style = filled];
          v335 [fillcolor = "0.133333 1.0 1.0", label = "tosa.conv2d : (tensor<4x7x7x512xf32...)\n\ndilation: array<i64: 1, 1>\npad: array<i64: 1, 1, 1, ...\nstride: array<i64: 1, 1>", shape = ellipse, style = filled];
          v336 [fillcolor = "0.066667 1.0 1.0", label = "tosa.transpose : (tensor<4x512x7x7xf32...)\n", shape = ellipse, style = filled];
          v337 [fillcolor = "0.200000 1.0 1.0", label = "tosa.sub : (tensor<4x512x7x7xf32...)\n", shape = ellipse, style = filled];
          v338 [fillcolor = "0.266667 1.0 1.0", label = "tosa.add : (tensor<512x1x1xf32>)\n", shape = ellipse, style = filled];
          v339 [fillcolor = "0.333333 1.0 1.0", label = "tosa.rsqrt : (tensor<512x1x1xf32>)\n", shape = ellipse, style = filled];
          v340 [fillcolor = "0.400000 1.0 1.0", label = "tosa.reshape : (tensor<1x512x1x1xf32...)\n\nnew_shape: array<i64: 1, 512, 1...", shape = ellipse, style = filled];
          v341 [fillcolor = "0.466667 1.0 1.0", label = "tosa.mul : (tensor<4x512x7x7xf32...)\n\nshift: 0 : i8", shape = ellipse, style = filled];
          v342 [fillcolor = "0.466667 1.0 1.0", label = "tosa.mul : (tensor<4x512x7x7xf32...)\n\nshift: 0 : i8", shape = ellipse, style = filled];
          v343 [fillcolor = "0.266667 1.0 1.0", label = "tosa.add : (tensor<4x512x7x7xf32...)\n", shape = ellipse, style = filled];
          v344 [fillcolor = "0.533333 1.0 1.0", label = "tosa.clamp : (tensor<4x512x7x7xf32...)\n\nmax_fp: 3.40282347E+38 : f32\nmax_int: 2147483647 : i64\nmin_fp: 0.000000e+00 : f32\nmin_int: 0 : i64", shape = ellipse, style = filled];
          v345 [fillcolor = "0.066667 1.0 1.0", label = "tosa.transpose : (tensor<4x7x7x512xf32...)\n", shape = ellipse, style = filled];
          v346 [fillcolor = "0.066667 1.0 1.0", label = "tosa.transpose : (tensor<512x3x3x512xf...)\n", shape = ellipse, style = filled];
          v347 [fillcolor = "0.133333 1.0 1.0", label = "tosa.conv2d : (tensor<4x7x7x512xf32...)\n\ndilation: array<i64: 1, 1>\npad: array<i64: 1, 1, 1, ...\nstride: array<i64: 1, 1>", shape = ellipse, style = filled];
          v348 [fillcolor = "0.066667 1.0 1.0", label = "tosa.transpose : (tensor<4x512x7x7xf32...)\n", shape = ellipse, style = filled];
          v349 [fillcolor = "0.200000 1.0 1.0", label = "tosa.sub : (tensor<4x512x7x7xf32...)\n", shape = ellipse, style = filled];
          v350 [fillcolor = "0.266667 1.0 1.0", label = "tosa.add : (tensor<512x1x1xf32>)\n", shape = ellipse, style = filled];
          v351 [fillcolor = "0.333333 1.0 1.0", label = "tosa.rsqrt : (tensor<512x1x1xf32>)\n", shape = ellipse, style = filled];
          v352 [fillcolor = "0.400000 1.0 1.0", label = "tosa.reshape : (tensor<1x512x1x1xf32...)\n\nnew_shape: array<i64: 1, 512, 1...", shape = ellipse, style = filled];
          v353 [fillcolor = "0.466667 1.0 1.0", label = "tosa.mul : (tensor<4x512x7x7xf32...)\n\nshift: 0 : i8", shape = ellipse, style = filled];
          v354 [fillcolor = "0.466667 1.0 1.0", label = "tosa.mul : (tensor<4x512x7x7xf32...)\n\nshift: 0 : i8", shape = ellipse, style = filled];
          v355 [fillcolor = "0.266667 1.0 1.0", label = "tosa.add : (tensor<4x512x7x7xf32...)\n", shape = ellipse, style = filled];
          v356 [fillcolor = "0.266667 1.0 1.0", label = "tosa.add : (tensor<4x512x7x7xf32...)\n", shape = ellipse, style = filled];
          v357 [fillcolor = "0.533333 1.0 1.0", label = "tosa.clamp : (tensor<4x512x7x7xf32...)\n\nmax_fp: 3.40282347E+38 : f32\nmax_int: 2147483647 : i64\nmin_fp: 0.000000e+00 : f32\nmin_int: 0 : i64", shape = ellipse, style = filled];
          v358 [fillcolor = "0.066667 1.0 1.0", label = "tosa.transpose : (tensor<4x7x7x512xf32...)\n", shape = ellipse, style = filled];
          v359 [fillcolor = "0.666667 1.0 1.0", label = "tosa.avg_pool2d : (tensor<4x1x1x512xf32...)\n\nacc_type: f32\nkernel: array<i64: 7, 7>\npad: array<i64: 0, 0, 0, ...\nstride: array<i64: 7, 7>", shape = ellipse, style = filled];
          v360 [fillcolor = "0.066667 1.0 1.0", label = "tosa.transpose : (tensor<512x1000xf32>)\n", shape = ellipse, style = filled];
          v361 [fillcolor = "0.400000 1.0 1.0", label = "tosa.reshape : (tensor<1x4x512xf32>)\n\nnew_shape: array<i64: 1, 4, 512...", shape = ellipse, style = filled];
          v362 [fillcolor = "0.400000 1.0 1.0", label = "tosa.reshape : (tensor<1x512x1000xf3...)\n\nnew_shape: array<i64: 1, 512, 1...", shape = ellipse, style = filled];
          v363 [fillcolor = "0.733333 1.0 1.0", label = "tosa.matmul : (tensor<1x4x1000xf32>)\n", shape = ellipse, style = filled];
          v364 [fillcolor = "0.400000 1.0 1.0", label = "tosa.reshape : (tensor<4x1000xf32>)\n\nnew_shape: array<i64: 4, 1000>", shape = ellipse, style = filled];
          v365 [fillcolor = "0.266667 1.0 1.0", label = "tosa.add : (tensor<4x1000xf32>)\n", shape = ellipse, style = filled];
          v366 [fillcolor = "0.800000 1.0 1.0", label = "func.return : ()\n", shape = ellipse, style = filled];
        }
      }
    }
  }
  v9 -> v117 [label = "0", style = solid];
  v32 -> v117 [label = "1", style = solid];
  v30 -> v118 [label = "0", style = solid];
  v32 -> v118 [label = "1", style = solid];
  v117 -> v119 [label = "0", style = solid];
  v118 -> v119 [label = "1", style = solid];
  v31 -> v119 [label = "2", style = solid];
  v119 -> v120 [label = "0", style = solid];
  v33 -> v120 [label = "1", style = solid];
  v120 -> v121 [label = "0", style = solid];
  v60 -> v121 [label = "1", style = solid];
  v38 -> v122 [label = "0", style = solid];
  v39 -> v122 [label = "1", style = solid];
  v122 -> v123 [label = "", style = solid];
  v123 -> v124 [label = "", style = solid];
  v121 -> v125 [label = "0", style = solid];
  v124 -> v125 [label = "1", style = solid];
  v125 -> v126 [label = "0", style = solid];
  v61 -> v126 [label = "1", style = solid];
  v126 -> v127 [label = "0", style = solid];
  v62 -> v127 [label = "1", style = solid];
  v127 -> v128 [label = "", style = solid];
  v128 -> v129 [label = "0", style = solid];
  v32 -> v129 [label = "1", style = solid];
  v129 -> v130 [label = "", style = solid];
  v130 -> v131 [label = "0", style = solid];
  v33 -> v131 [label = "1", style = solid];
  v29 -> v132 [label = "0", style = solid];
  v32 -> v132 [label = "1", style = solid];
  v130 -> v133 [label = "0", style = solid];
  v132 -> v133 [label = "1", style = solid];
  v31 -> v133 [label = "2", style = solid];
  v133 -> v134 [label = "0", style = solid];
  v33 -> v134 [label = "1", style = solid];
  v134 -> v135 [label = "0", style = solid];
  v63 -> v135 [label = "1", style = solid];
  v40 -> v136 [label = "0", style = solid];
  v39 -> v136 [label = "1", style = solid];
  v136 -> v137 [label = "", style = solid];
  v137 -> v138 [label = "", style = solid];
  v135 -> v139 [label = "0", style = solid];
  v138 -> v139 [label = "1", style = solid];
  v139 -> v140 [label = "0", style = solid];
  v64 -> v140 [label = "1", style = solid];
  v140 -> v141 [label = "0", style = solid];
  v65 -> v141 [label = "1", style = solid];
  v141 -> v142 [label = "", style = solid];
  v142 -> v143 [label = "0", style = solid];
  v32 -> v143 [label = "1", style = solid];
  v28 -> v144 [label = "0", style = solid];
  v32 -> v144 [label = "1", style = solid];
  v143 -> v145 [label = "0", style = solid];
  v144 -> v145 [label = "1", style = solid];
  v31 -> v145 [label = "2", style = solid];
  v145 -> v146 [label = "0", style = solid];
  v33 -> v146 [label = "1", style = solid];
  v146 -> v147 [label = "0", style = solid];
  v66 -> v147 [label = "1", style = solid];
  v41 -> v148 [label = "0", style = solid];
  v39 -> v148 [label = "1", style = solid];
  v148 -> v149 [label = "", style = solid];
  v149 -> v150 [label = "", style = solid];
  v147 -> v151 [label = "0", style = solid];
  v150 -> v151 [label = "1", style = solid];
  v151 -> v152 [label = "0", style = solid];
  v67 -> v152 [label = "1", style = solid];
  v152 -> v153 [label = "0", style = solid];
  v68 -> v153 [label = "1", style = solid];
  v153 -> v154 [label = "0", style = solid];
  v131 -> v154 [label = "1", style = solid];
  v154 -> v155 [label = "", style = solid];
  v155 -> v156 [label = "0", style = solid];
  v32 -> v156 [label = "1", style = solid];
  v27 -> v157 [label = "0", style = solid];
  v32 -> v157 [label = "1", style = solid];
  v156 -> v158 [label = "0", style = solid];
  v157 -> v158 [label = "1", style = solid];
  v31 -> v158 [label = "2", style = solid];
  v158 -> v159 [label = "0", style = solid];
  v33 -> v159 [label = "1", style = solid];
  v159 -> v160 [label = "0", style = solid];
  v69 -> v160 [label = "1", style = solid];
  v42 -> v161 [label = "0", style = solid];
  v39 -> v161 [label = "1", style = solid];
  v161 -> v162 [label = "", style = solid];
  v162 -> v163 [label = "", style = solid];
  v160 -> v164 [label = "0", style = solid];
  v163 -> v164 [label = "1", style = solid];
  v164 -> v165 [label = "0", style = solid];
  v70 -> v165 [label = "1", style = solid];
  v165 -> v166 [label = "0", style = solid];
  v71 -> v166 [label = "1", style = solid];
  v166 -> v167 [label = "", style = solid];
  v167 -> v168 [label = "0", style = solid];
  v32 -> v168 [label = "1", style = solid];
  v26 -> v169 [label = "0", style = solid];
  v32 -> v169 [label = "1", style = solid];
  v168 -> v170 [label = "0", style = solid];
  v169 -> v170 [label = "1", style = solid];
  v31 -> v170 [label = "2", style = solid];
  v170 -> v171 [label = "0", style = solid];
  v33 -> v171 [label = "1", style = solid];
  v171 -> v172 [label = "0", style = solid];
  v72 -> v172 [label = "1", style = solid];
  v43 -> v173 [label = "0", style = solid];
  v39 -> v173 [label = "1", style = solid];
  v173 -> v174 [label = "", style = solid];
  v174 -> v175 [label = "", style = solid];
  v172 -> v176 [label = "0", style = solid];
  v175 -> v176 [label = "1", style = solid];
  v176 -> v177 [label = "0", style = solid];
  v73 -> v177 [label = "1", style = solid];
  v177 -> v178 [label = "0", style = solid];
  v74 -> v178 [label = "1", style = solid];
  v178 -> v179 [label = "0", style = solid];
  v155 -> v179 [label = "1", style = solid];
  v179 -> v180 [label = "", style = solid];
  v180 -> v181 [label = "0", style = solid];
  v32 -> v181 [label = "1", style = solid];
  v25 -> v182 [label = "0", style = solid];
  v32 -> v182 [label = "1", style = solid];
  v181 -> v183 [label = "0", style = solid];
  v182 -> v183 [label = "1", style = solid];
  v34 -> v183 [label = "2", style = solid];
  v183 -> v184 [label = "0", style = solid];
  v33 -> v184 [label = "1", style = solid];
  v184 -> v185 [label = "0", style = solid];
  v75 -> v185 [label = "1", style = solid];
  v44 -> v186 [label = "0", style = solid];
  v39 -> v186 [label = "1", style = solid];
  v186 -> v187 [label = "", style = solid];
  v187 -> v188 [label = "", style = solid];
  v185 -> v189 [label = "0", style = solid];
  v188 -> v189 [label = "1", style = solid];
  v189 -> v190 [label = "0", style = solid];
  v76 -> v190 [label = "1", style = solid];
  v190 -> v191 [label = "0", style = solid];
  v77 -> v191 [label = "1", style = solid];
  v191 -> v192 [label = "", style = solid];
  v192 -> v193 [label = "0", style = solid];
  v32 -> v193 [label = "1", style = solid];
  v24 -> v194 [label = "0", style = solid];
  v32 -> v194 [label = "1", style = solid];
  v193 -> v195 [label = "0", style = solid];
  v194 -> v195 [label = "1", style = solid];
  v34 -> v195 [label = "2", style = solid];
  v195 -> v196 [label = "0", style = solid];
  v33 -> v196 [label = "1", style = solid];
  v196 -> v197 [label = "0", style = solid];
  v78 -> v197 [label = "1", style = solid];
  v45 -> v198 [label = "0", style = solid];
  v39 -> v198 [label = "1", style = solid];
  v198 -> v199 [label = "", style = solid];
  v199 -> v200 [label = "", style = solid];
  v197 -> v201 [label = "0", style = solid];
  v200 -> v201 [label = "1", style = solid];
  v201 -> v202 [label = "0", style = solid];
  v79 -> v202 [label = "1", style = solid];
  v202 -> v203 [label = "0", style = solid];
  v12 -> v203 [label = "1", style = solid];
  v181 -> v204 [label = "0", style = solid];
  v114 -> v204 [label = "1", style = solid];
  v34 -> v204 [label = "2", style = solid];
  v204 -> v205 [label = "0", style = solid];
  v33 -> v205 [label = "1", style = solid];
  v205 -> v206 [label = "0", style = solid];
  v80 -> v206 [label = "1", style = solid];
  v46 -> v207 [label = "0", style = solid];
  v39 -> v207 [label = "1", style = solid];
  v207 -> v208 [label = "", style = solid];
  v208 -> v209 [label = "", style = solid];
  v206 -> v210 [label = "0", style = solid];
  v209 -> v210 [label = "1", style = solid];
  v210 -> v211 [label = "0", style = solid];
  v81 -> v211 [label = "1", style = solid];
  v211 -> v212 [label = "0", style = solid];
  v12 -> v212 [label = "1", style = solid];
  v203 -> v213 [label = "0", style = solid];
  v212 -> v213 [label = "1", style = solid];
  v213 -> v214 [label = "", style = solid];
  v214 -> v215 [label = "0", style = solid];
  v32 -> v215 [label = "1", style = solid];
  v23 -> v216 [label = "0", style = solid];
  v32 -> v216 [label = "1", style = solid];
  v215 -> v217 [label = "0", style = solid];
  v216 -> v217 [label = "1", style = solid];
  v34 -> v217 [label = "2", style = solid];
  v217 -> v218 [label = "0", style = solid];
  v33 -> v218 [label = "1", style = solid];
  v218 -> v219 [label = "0", style = solid];
  v82 -> v219 [label = "1", style = solid];
  v47 -> v220 [label = "0", style = solid];
  v39 -> v220 [label = "1", style = solid];
  v220 -> v221 [label = "", style = solid];
  v221 -> v222 [label = "", style = solid];
  v219 -> v223 [label = "0", style = solid];
  v222 -> v223 [label = "1", style = solid];
  v223 -> v224 [label = "0", style = solid];
  v83 -> v224 [label = "1", style = solid];
  v224 -> v225 [label = "0", style = solid];
  v84 -> v225 [label = "1", style = solid];
  v225 -> v226 [label = "", style = solid];
  v226 -> v227 [label = "0", style = solid];
  v32 -> v227 [label = "1", style = solid];
  v22 -> v228 [label = "0", style = solid];
  v32 -> v228 [label = "1", style = solid];
  v227 -> v229 [label = "0", style = solid];
  v228 -> v229 [label = "1", style = solid];
  v34 -> v229 [label = "2", style = solid];
  v229 -> v230 [label = "0", style = solid];
  v33 -> v230 [label = "1", style = solid];
  v230 -> v231 [label = "0", style = solid];
  v85 -> v231 [label = "1", style = solid];
  v48 -> v232 [label = "0", style = solid];
  v39 -> v232 [label = "1", style = solid];
  v232 -> v233 [label = "", style = solid];
  v233 -> v234 [label = "", style = solid];
  v231 -> v235 [label = "0", style = solid];
  v234 -> v235 [label = "1", style = solid];
  v235 -> v236 [label = "0", style = solid];
  v86 -> v236 [label = "1", style = solid];
  v236 -> v237 [label = "0", style = solid];
  v87 -> v237 [label = "1", style = solid];
  v237 -> v238 [label = "0", style = solid];
  v214 -> v238 [label = "1", style = solid];
  v238 -> v239 [label = "", style = solid];
  v239 -> v240 [label = "0", style = solid];
  v32 -> v240 [label = "1", style = solid];
  v21 -> v241 [label = "0", style = solid];
  v32 -> v241 [label = "1", style = solid];
  v240 -> v242 [label = "0", style = solid];
  v241 -> v242 [label = "1", style = solid];
  v35 -> v242 [label = "2", style = solid];
  v242 -> v243 [label = "0", style = solid];
  v33 -> v243 [label = "1", style = solid];
  v243 -> v244 [label = "0", style = solid];
  v88 -> v244 [label = "1", style = solid];
  v49 -> v245 [label = "0", style = solid];
  v39 -> v245 [label = "1", style = solid];
  v245 -> v246 [label = "", style = solid];
  v246 -> v247 [label = "", style = solid];
  v244 -> v248 [label = "0", style = solid];
  v247 -> v248 [label = "1", style = solid];
  v248 -> v249 [label = "0", style = solid];
  v89 -> v249 [label = "1", style = solid];
  v249 -> v250 [label = "0", style = solid];
  v90 -> v250 [label = "1", style = solid];
  v250 -> v251 [label = "", style = solid];
  v251 -> v252 [label = "0", style = solid];
  v32 -> v252 [label = "1", style = solid];
  v20 -> v253 [label = "0", style = solid];
  v32 -> v253 [label = "1", style = solid];
  v252 -> v254 [label = "0", style = solid];
  v253 -> v254 [label = "1", style = solid];
  v35 -> v254 [label = "2", style = solid];
  v254 -> v255 [label = "0", style = solid];
  v33 -> v255 [label = "1", style = solid];
  v255 -> v256 [label = "0", style = solid];
  v91 -> v256 [label = "1", style = solid];
  v50 -> v257 [label = "0", style = solid];
  v39 -> v257 [label = "1", style = solid];
  v257 -> v258 [label = "", style = solid];
  v258 -> v259 [label = "", style = solid];
  v256 -> v260 [label = "0", style = solid];
  v259 -> v260 [label = "1", style = solid];
  v260 -> v261 [label = "0", style = solid];
  v92 -> v261 [label = "1", style = solid];
  v261 -> v262 [label = "0", style = solid];
  v11 -> v262 [label = "1", style = solid];
  v240 -> v263 [label = "0", style = solid];
  v115 -> v263 [label = "1", style = solid];
  v35 -> v263 [label = "2", style = solid];
  v263 -> v264 [label = "0", style = solid];
  v33 -> v264 [label = "1", style = solid];
  v264 -> v265 [label = "0", style = solid];
  v93 -> v265 [label = "1", style = solid];
  v51 -> v266 [label = "0", style = solid];
  v39 -> v266 [label = "1", style = solid];
  v266 -> v267 [label = "", style = solid];
  v267 -> v268 [label = "", style = solid];
  v265 -> v269 [label = "0", style = solid];
  v268 -> v269 [label = "1", style = solid];
  v269 -> v270 [label = "0", style = solid];
  v94 -> v270 [label = "1", style = solid];
  v270 -> v271 [label = "0", style = solid];
  v11 -> v271 [label = "1", style = solid];
  v262 -> v272 [label = "0", style = solid];
  v271 -> v272 [label = "1", style = solid];
  v272 -> v273 [label = "", style = solid];
  v273 -> v274 [label = "0", style = solid];
  v32 -> v274 [label = "1", style = solid];
  v19 -> v275 [label = "0", style = solid];
  v32 -> v275 [label = "1", style = solid];
  v274 -> v276 [label = "0", style = solid];
  v275 -> v276 [label = "1", style = solid];
  v35 -> v276 [label = "2", style = solid];
  v276 -> v277 [label = "0", style = solid];
  v33 -> v277 [label = "1", style = solid];
  v277 -> v278 [label = "0", style = solid];
  v95 -> v278 [label = "1", style = solid];
  v52 -> v279 [label = "0", style = solid];
  v39 -> v279 [label = "1", style = solid];
  v279 -> v280 [label = "", style = solid];
  v280 -> v281 [label = "", style = solid];
  v278 -> v282 [label = "0", style = solid];
  v281 -> v282 [label = "1", style = solid];
  v282 -> v283 [label = "0", style = solid];
  v96 -> v283 [label = "1", style = solid];
  v283 -> v284 [label = "0", style = solid];
  v97 -> v284 [label = "1", style = solid];
  v284 -> v285 [label = "", style = solid];
  v285 -> v286 [label = "0", style = solid];
  v32 -> v286 [label = "1", style = solid];
  v18 -> v287 [label = "0", style = solid];
  v32 -> v287 [label = "1", style = solid];
  v286 -> v288 [label = "0", style = solid];
  v287 -> v288 [label = "1", style = solid];
  v35 -> v288 [label = "2", style = solid];
  v288 -> v289 [label = "0", style = solid];
  v33 -> v289 [label = "1", style = solid];
  v289 -> v290 [label = "0", style = solid];
  v98 -> v290 [label = "1", style = solid];
  v53 -> v291 [label = "0", style = solid];
  v39 -> v291 [label = "1", style = solid];
  v291 -> v292 [label = "", style = solid];
  v292 -> v293 [label = "", style = solid];
  v290 -> v294 [label = "0", style = solid];
  v293 -> v294 [label = "1", style = solid];
  v294 -> v295 [label = "0", style = solid];
  v99 -> v295 [label = "1", style = solid];
  v295 -> v296 [label = "0", style = solid];
  v100 -> v296 [label = "1", style = solid];
  v296 -> v297 [label = "0", style = solid];
  v273 -> v297 [label = "1", style = solid];
  v297 -> v298 [label = "", style = solid];
  v298 -> v299 [label = "0", style = solid];
  v32 -> v299 [label = "1", style = solid];
  v17 -> v300 [label = "0", style = solid];
  v32 -> v300 [label = "1", style = solid];
  v299 -> v301 [label = "0", style = solid];
  v300 -> v301 [label = "1", style = solid];
  v36 -> v301 [label = "2", style = solid];
  v301 -> v302 [label = "0", style = solid];
  v33 -> v302 [label = "1", style = solid];
  v302 -> v303 [label = "0", style = solid];
  v101 -> v303 [label = "1", style = solid];
  v54 -> v304 [label = "0", style = solid];
  v39 -> v304 [label = "1", style = solid];
  v304 -> v305 [label = "", style = solid];
  v305 -> v306 [label = "", style = solid];
  v303 -> v307 [label = "0", style = solid];
  v306 -> v307 [label = "1", style = solid];
  v307 -> v308 [label = "0", style = solid];
  v102 -> v308 [label = "1", style = solid];
  v308 -> v309 [label = "0", style = solid];
  v103 -> v309 [label = "1", style = solid];
  v309 -> v310 [label = "", style = solid];
  v310 -> v311 [label = "0", style = solid];
  v32 -> v311 [label = "1", style = solid];
  v16 -> v312 [label = "0", style = solid];
  v32 -> v312 [label = "1", style = solid];
  v311 -> v313 [label = "0", style = solid];
  v312 -> v313 [label = "1", style = solid];
  v36 -> v313 [label = "2", style = solid];
  v313 -> v314 [label = "0", style = solid];
  v33 -> v314 [label = "1", style = solid];
  v314 -> v315 [label = "0", style = solid];
  v104 -> v315 [label = "1", style = solid];
  v55 -> v316 [label = "0", style = solid];
  v39 -> v316 [label = "1", style = solid];
  v316 -> v317 [label = "", style = solid];
  v317 -> v318 [label = "", style = solid];
  v315 -> v319 [label = "0", style = solid];
  v318 -> v319 [label = "1", style = solid];
  v319 -> v320 [label = "0", style = solid];
  v105 -> v320 [label = "1", style = solid];
  v320 -> v321 [label = "0", style = solid];
  v10 -> v321 [label = "1", style = solid];
  v299 -> v322 [label = "0", style = solid];
  v116 -> v322 [label = "1", style = solid];
  v36 -> v322 [label = "2", style = solid];
  v322 -> v323 [label = "0", style = solid];
  v33 -> v323 [label = "1", style = solid];
  v323 -> v324 [label = "0", style = solid];
  v106 -> v324 [label = "1", style = solid];
  v56 -> v325 [label = "0", style = solid];
  v39 -> v325 [label = "1", style = solid];
  v325 -> v326 [label = "", style = solid];
  v326 -> v327 [label = "", style = solid];
  v324 -> v328 [label = "0", style = solid];
  v327 -> v328 [label = "1", style = solid];
  v328 -> v329 [label = "0", style = solid];
  v107 -> v329 [label = "1", style = solid];
  v329 -> v330 [label = "0", style = solid];
  v10 -> v330 [label = "1", style = solid];
  v321 -> v331 [label = "0", style = solid];
  v330 -> v331 [label = "1", style = solid];
  v331 -> v332 [label = "", style = solid];
  v332 -> v333 [label = "0", style = solid];
  v32 -> v333 [label = "1", style = solid];
  v15 -> v334 [label = "0", style = solid];
  v32 -> v334 [label = "1", style = solid];
  v333 -> v335 [label = "0", style = solid];
  v334 -> v335 [label = "1", style = solid];
  v36 -> v335 [label = "2", style = solid];
  v335 -> v336 [label = "0", style = solid];
  v33 -> v336 [label = "1", style = solid];
  v336 -> v337 [label = "0", style = solid];
  v108 -> v337 [label = "1", style = solid];
  v57 -> v338 [label = "0", style = solid];
  v39 -> v338 [label = "1", style = solid];
  v338 -> v339 [label = "", style = solid];
  v339 -> v340 [label = "", style = solid];
  v337 -> v341 [label = "0", style = solid];
  v340 -> v341 [label = "1", style = solid];
  v341 -> v342 [label = "0", style = solid];
  v109 -> v342 [label = "1", style = solid];
  v342 -> v343 [label = "0", style = solid];
  v110 -> v343 [label = "1", style = solid];
  v343 -> v344 [label = "", style = solid];
  v344 -> v345 [label = "0", style = solid];
  v32 -> v345 [label = "1", style = solid];
  v14 -> v346 [label = "0", style = solid];
  v32 -> v346 [label = "1", style = solid];
  v345 -> v347 [label = "0", style = solid];
  v346 -> v347 [label = "1", style = solid];
  v36 -> v347 [label = "2", style = solid];
  v347 -> v348 [label = "0", style = solid];
  v33 -> v348 [label = "1", style = solid];
  v348 -> v349 [label = "0", style = solid];
  v111 -> v349 [label = "1", style = solid];
  v58 -> v350 [label = "0", style = solid];
  v39 -> v350 [label = "1", style = solid];
  v350 -> v351 [label = "", style = solid];
  v351 -> v352 [label = "", style = solid];
  v349 -> v353 [label = "0", style = solid];
  v352 -> v353 [label = "1", style = solid];
  v353 -> v354 [label = "0", style = solid];
  v112 -> v354 [label = "1", style = solid];
  v354 -> v355 [label = "0", style = solid];
  v113 -> v355 [label = "1", style = solid];
  v355 -> v356 [label = "0", style = solid];
  v332 -> v356 [label = "1", style = solid];
  v356 -> v357 [label = "", style = solid];
  v357 -> v358 [label = "0", style = solid];
  v32 -> v358 [label = "1", style = solid];
  v358 -> v359 [label = "", style = solid];
  v13 -> v360 [label = "0", style = solid];
  v37 -> v360 [label = "1", style = solid];
  v359 -> v361 [label = "", style = solid];
  v360 -> v362 [label = "", style = solid];
  v361 -> v363 [label = "0", style = solid];
  v362 -> v363 [label = "1", style = solid];
  v363 -> v364 [label = "", style = solid];
  v364 -> v365 [label = "0", style = solid];
  v59 -> v365 [label = "1", style = solid];
  v365 -> v366 [label = "", style = solid];
}
