digraph G {
  compound = true;
  subgraph cluster_1 {
    v2 [label = " ", shape = plain];
    label = "builtin.module : ()\n\ntorch.debug_module_name: \"SqueezeNet\"";
    subgraph cluster_3 {
      v4 [label = " ", shape = plain];
      label = "";
      subgraph cluster_5 {
        v6 [label = " ", shape = plain];
        label = "func.func : ()\n\nfunction_type: (tensor<4x3x224x224x...\nsym_name: \"forward\"";
        subgraph cluster_7 {
          v8 [label = " ", shape = plain];
          label = "";
          v9 [label = "arg0", shape = ellipse];
          v10 [fillcolor = "0.000000 1.0 1.0", label = "tosa.const : (tensor<1000xf32>)\n\nvalue: [...] : tensor<1000xf32>", shape = ellipse, style = filled];
          v11 [fillcolor = "0.000000 1.0 1.0", label = "tosa.const : (tensor<256x64x3x3xf3...)\n\nvalue: [[[[...]]]] : tensor<256x64x3x3xf32>", shape = ellipse, style = filled];
          v12 [fillcolor = "0.000000 1.0 1.0", label = "tosa.const : (tensor<256xf32>)\n\nvalue: [...] : tensor<256xf32>", shape = ellipse, style = filled];
          v13 [fillcolor = "0.000000 1.0 1.0", label = "tosa.const : (tensor<256xf32>)\n\nvalue: [...] : tensor<256xf32>", shape = ellipse, style = filled];
          v14 [fillcolor = "0.000000 1.0 1.0", label = "tosa.const : (tensor<64xf32>)\n\nvalue: [...] : tensor<64xf32>", shape = ellipse, style = filled];
          v15 [fillcolor = "0.000000 1.0 1.0", label = "tosa.const : (tensor<256x64x3x3xf3...)\n\nvalue: [[[[...]]]] : tensor<256x64x3x3xf32>", shape = ellipse, style = filled];
          v16 [fillcolor = "0.000000 1.0 1.0", label = "tosa.const : (tensor<256xf32>)\n\nvalue: [...] : tensor<256xf32>", shape = ellipse, style = filled];
          v17 [fillcolor = "0.000000 1.0 1.0", label = "tosa.const : (tensor<256xf32>)\n\nvalue: [...] : tensor<256xf32>", shape = ellipse, style = filled];
          v18 [fillcolor = "0.000000 1.0 1.0", label = "tosa.const : (tensor<64xf32>)\n\nvalue: [...] : tensor<64xf32>", shape = ellipse, style = filled];
          v19 [fillcolor = "0.000000 1.0 1.0", label = "tosa.const : (tensor<192x48x3x3xf3...)\n\nvalue: [[[[...]]]] : tensor<192x48x3x3xf32>", shape = ellipse, style = filled];
          v20 [fillcolor = "0.000000 1.0 1.0", label = "tosa.const : (tensor<192xf32>)\n\nvalue: [...] : tensor<192xf32>", shape = ellipse, style = filled];
          v21 [fillcolor = "0.000000 1.0 1.0", label = "tosa.const : (tensor<192xf32>)\n\nvalue: [...] : tensor<192xf32>", shape = ellipse, style = filled];
          v22 [fillcolor = "0.000000 1.0 1.0", label = "tosa.const : (tensor<48xf32>)\n\nvalue: [...] : tensor<48xf32>", shape = ellipse, style = filled];
          v23 [fillcolor = "0.000000 1.0 1.0", label = "tosa.const : (tensor<192x48x3x3xf3...)\n\nvalue: [[[[...]]]] : tensor<192x48x3x3xf32>", shape = ellipse, style = filled];
          v24 [fillcolor = "0.000000 1.0 1.0", label = "tosa.const : (tensor<192xf32>)\n\nvalue: [...] : tensor<192xf32>", shape = ellipse, style = filled];
          v25 [fillcolor = "0.000000 1.0 1.0", label = "tosa.const : (tensor<192xf32>)\n\nvalue: [...] : tensor<192xf32>", shape = ellipse, style = filled];
          v26 [fillcolor = "0.000000 1.0 1.0", label = "tosa.const : (tensor<48xf32>)\n\nvalue: [...] : tensor<48xf32>", shape = ellipse, style = filled];
          v27 [fillcolor = "0.000000 1.0 1.0", label = "tosa.const : (tensor<128x32x3x3xf3...)\n\nvalue: [[[[...]]]] : tensor<128x32x3x3xf32>", shape = ellipse, style = filled];
          v28 [fillcolor = "0.000000 1.0 1.0", label = "tosa.const : (tensor<128xf32>)\n\nvalue: [...] : tensor<128xf32>", shape = ellipse, style = filled];
          v29 [fillcolor = "0.000000 1.0 1.0", label = "tosa.const : (tensor<128xf32>)\n\nvalue: [...] : tensor<128xf32>", shape = ellipse, style = filled];
          v30 [fillcolor = "0.000000 1.0 1.0", label = "tosa.const : (tensor<32xf32>)\n\nvalue: [...] : tensor<32xf32>", shape = ellipse, style = filled];
          v31 [fillcolor = "0.000000 1.0 1.0", label = "tosa.const : (tensor<128x32x3x3xf3...)\n\nvalue: [[[[...]]]] : tensor<128x32x3x3xf32>", shape = ellipse, style = filled];
          v32 [fillcolor = "0.000000 1.0 1.0", label = "tosa.const : (tensor<128xf32>)\n\nvalue: [...] : tensor<128xf32>", shape = ellipse, style = filled];
          v33 [fillcolor = "0.000000 1.0 1.0", label = "tosa.const : (tensor<128xf32>)\n\nvalue: [...] : tensor<128xf32>", shape = ellipse, style = filled];
          v34 [fillcolor = "0.000000 1.0 1.0", label = "tosa.const : (tensor<32xf32>)\n\nvalue: [...] : tensor<32xf32>", shape = ellipse, style = filled];
          v35 [fillcolor = "0.000000 1.0 1.0", label = "tosa.const : (tensor<64x16x3x3xf32...)\n\nvalue: [[[[...]]]] : tensor<64x16x3x3xf32>", shape = ellipse, style = filled];
          v36 [fillcolor = "0.000000 1.0 1.0", label = "tosa.const : (tensor<64xf32>)\n\nvalue: [...] : tensor<64xf32>", shape = ellipse, style = filled];
          v37 [fillcolor = "0.000000 1.0 1.0", label = "tosa.const : (tensor<64xf32>)\n\nvalue: [...] : tensor<64xf32>", shape = ellipse, style = filled];
          v38 [fillcolor = "0.000000 1.0 1.0", label = "tosa.const : (tensor<16xf32>)\n\nvalue: [...] : tensor<16xf32>", shape = ellipse, style = filled];
          v39 [fillcolor = "0.000000 1.0 1.0", label = "tosa.const : (tensor<64x16x3x3xf32...)\n\nvalue: [[[[...]]]] : tensor<64x16x3x3xf32>", shape = ellipse, style = filled];
          v40 [fillcolor = "0.000000 1.0 1.0", label = "tosa.const : (tensor<64xf32>)\n\nvalue: [...] : tensor<64xf32>", shape = ellipse, style = filled];
          v41 [fillcolor = "0.000000 1.0 1.0", label = "tosa.const : (tensor<64xf32>)\n\nvalue: [...] : tensor<64xf32>", shape = ellipse, style = filled];
          v42 [fillcolor = "0.000000 1.0 1.0", label = "tosa.const : (tensor<16xf32>)\n\nvalue: [...] : tensor<16xf32>", shape = ellipse, style = filled];
          v43 [fillcolor = "0.000000 1.0 1.0", label = "tosa.const : (tensor<64x3x3x3xf32>)\n\nvalue: [[[[...]]]] : tensor<64x3x3x3xf32>", shape = ellipse, style = filled];
          v44 [fillcolor = "0.000000 1.0 1.0", label = "tosa.const : (tensor<64xf32>)\n\nvalue: [...] : tensor<64xf32>", shape = ellipse, style = filled];
          v45 [fillcolor = "0.000000 1.0 1.0", label = "tosa.const : (tensor<4xi32>)\n\nvalue: [...] : tensor<4xi32>", shape = ellipse, style = filled];
          v46 [fillcolor = "0.000000 1.0 1.0", label = "tosa.const : (tensor<4xi32>)\n\nvalue: [...] : tensor<4xi32>", shape = ellipse, style = filled];
          v47 [fillcolor = "0.000000 1.0 1.0", label = "tosa.const : (tensor<16x1x1x64xf32...)\n\nvalue: [[[[...]]]] : tensor<16x1x1x64xf32>", shape = ellipse, style = filled];
          v48 [fillcolor = "0.000000 1.0 1.0", label = "tosa.const : (tensor<64x1x1x16xf32...)\n\nvalue: [[[[...]]]] : tensor<64x1x1x16xf32>", shape = ellipse, style = filled];
          v49 [fillcolor = "0.000000 1.0 1.0", label = "tosa.const : (tensor<16x1x1x128xf3...)\n\nvalue: [[[[...]]]] : tensor<16x1x1x128xf32>", shape = ellipse, style = filled];
          v50 [fillcolor = "0.000000 1.0 1.0", label = "tosa.const : (tensor<64x1x1x16xf32...)\n\nvalue: [[[[...]]]] : tensor<64x1x1x16xf32>", shape = ellipse, style = filled];
          v51 [fillcolor = "0.000000 1.0 1.0", label = "tosa.const : (tensor<32x1x1x128xf3...)\n\nvalue: [[[[...]]]] : tensor<32x1x1x128xf32>", shape = ellipse, style = filled];
          v52 [fillcolor = "0.000000 1.0 1.0", label = "tosa.const : (tensor<128x1x1x32xf3...)\n\nvalue: [[[[...]]]] : tensor<128x1x1x32xf32>", shape = ellipse, style = filled];
          v53 [fillcolor = "0.000000 1.0 1.0", label = "tosa.const : (tensor<32x1x1x256xf3...)\n\nvalue: [[[[...]]]] : tensor<32x1x1x256xf32>", shape = ellipse, style = filled];
          v54 [fillcolor = "0.000000 1.0 1.0", label = "tosa.const : (tensor<128x1x1x32xf3...)\n\nvalue: [[[[...]]]] : tensor<128x1x1x32xf32>", shape = ellipse, style = filled];
          v55 [fillcolor = "0.000000 1.0 1.0", label = "tosa.const : (tensor<48x1x1x256xf3...)\n\nvalue: [[[[...]]]] : tensor<48x1x1x256xf32>", shape = ellipse, style = filled];
          v56 [fillcolor = "0.000000 1.0 1.0", label = "tosa.const : (tensor<192x1x1x48xf3...)\n\nvalue: [[[[...]]]] : tensor<192x1x1x48xf32>", shape = ellipse, style = filled];
          v57 [fillcolor = "0.000000 1.0 1.0", label = "tosa.const : (tensor<48x1x1x384xf3...)\n\nvalue: [[[[...]]]] : tensor<48x1x1x384xf32>", shape = ellipse, style = filled];
          v58 [fillcolor = "0.000000 1.0 1.0", label = "tosa.const : (tensor<192x1x1x48xf3...)\n\nvalue: [[[[...]]]] : tensor<192x1x1x48xf32>", shape = ellipse, style = filled];
          v59 [fillcolor = "0.000000 1.0 1.0", label = "tosa.const : (tensor<64x1x1x384xf3...)\n\nvalue: [[[[...]]]] : tensor<64x1x1x384xf32>", shape = ellipse, style = filled];
          v60 [fillcolor = "0.000000 1.0 1.0", label = "tosa.const : (tensor<256x1x1x64xf3...)\n\nvalue: [[[[...]]]] : tensor<256x1x1x64xf32>", shape = ellipse, style = filled];
          v61 [fillcolor = "0.000000 1.0 1.0", label = "tosa.const : (tensor<64x1x1x512xf3...)\n\nvalue: [[[[...]]]] : tensor<64x1x1x512xf32>", shape = ellipse, style = filled];
          v62 [fillcolor = "0.000000 1.0 1.0", label = "tosa.const : (tensor<256x1x1x64xf3...)\n\nvalue: [[[[...]]]] : tensor<256x1x1x64xf32>", shape = ellipse, style = filled];
          v63 [fillcolor = "0.000000 1.0 1.0", label = "tosa.const : (tensor<1000x1x1x512x...)\n\nvalue: [[[[...]]]] : tensor<1000x1x1x512xf32>", shape = ellipse, style = filled];
          v64 [fillcolor = "0.090909 1.0 1.0", label = "tosa.transpose : (tensor<4x224x224x3xf...)\n", shape = ellipse, style = filled];
          v65 [fillcolor = "0.090909 1.0 1.0", label = "tosa.transpose : (tensor<64x3x3x3xf32>)\n", shape = ellipse, style = filled];
          v66 [fillcolor = "0.181818 1.0 1.0", label = "tosa.conv2d : (tensor<4x111x111x64x...)\n\ndilation: array<i64: 1, 1>\npad: array<i64: 0, 0, 0, ...\nstride: array<i64: 2, 2>", shape = ellipse, style = filled];
          v67 [fillcolor = "0.090909 1.0 1.0", label = "tosa.transpose : (tensor<4x64x111x111x...)\n", shape = ellipse, style = filled];
          v68 [fillcolor = "0.272727 1.0 1.0", label = "tosa.clamp : (tensor<4x64x111x111x...)\n\nmax_fp: 3.40282347E+38 : f32\nmax_int: 2147483647 : i64\nmin_fp: 0.000000e+00 : f32\nmin_int: 0 : i64", shape = ellipse, style = filled];
          v69 [fillcolor = "0.090909 1.0 1.0", label = "tosa.transpose : (tensor<4x111x111x64x...)\n", shape = ellipse, style = filled];
          v70 [fillcolor = "0.363636 1.0 1.0", label = "tosa.max_pool2d : (tensor<4x55x55x64xf3...)\n\nkernel: array<i64: 3, 3>\npad: array<i64: 0, 0, 0, ...\nstride: array<i64: 2, 2>", shape = ellipse, style = filled];
          v71 [fillcolor = "0.181818 1.0 1.0", label = "tosa.conv2d : (tensor<4x55x55x16xf3...)\n\ndilation: array<i64: 1, 1>\npad: array<i64: 0, 0, 0, ...\nstride: array<i64: 1, 1>", shape = ellipse, style = filled];
          v72 [fillcolor = "0.090909 1.0 1.0", label = "tosa.transpose : (tensor<4x16x55x55xf3...)\n", shape = ellipse, style = filled];
          v73 [fillcolor = "0.272727 1.0 1.0", label = "tosa.clamp : (tensor<4x16x55x55xf3...)\n\nmax_fp: 3.40282347E+38 : f32\nmax_int: 2147483647 : i64\nmin_fp: 0.000000e+00 : f32\nmin_int: 0 : i64", shape = ellipse, style = filled];
          v74 [fillcolor = "0.090909 1.0 1.0", label = "tosa.transpose : (tensor<4x55x55x16xf3...)\n", shape = ellipse, style = filled];
          v75 [fillcolor = "0.181818 1.0 1.0", label = "tosa.conv2d : (tensor<4x55x55x64xf3...)\n\ndilation: array<i64: 1, 1>\npad: array<i64: 0, 0, 0, ...\nstride: array<i64: 1, 1>", shape = ellipse, style = filled];
          v76 [fillcolor = "0.090909 1.0 1.0", label = "tosa.transpose : (tensor<4x64x55x55xf3...)\n", shape = ellipse, style = filled];
          v77 [fillcolor = "0.272727 1.0 1.0", label = "tosa.clamp : (tensor<4x64x55x55xf3...)\n\nmax_fp: 3.40282347E+38 : f32\nmax_int: 2147483647 : i64\nmin_fp: 0.000000e+00 : f32\nmin_int: 0 : i64", shape = ellipse, style = filled];
          v78 [fillcolor = "0.090909 1.0 1.0", label = "tosa.transpose : (tensor<64x3x3x16xf32...)\n", shape = ellipse, style = filled];
          v79 [fillcolor = "0.181818 1.0 1.0", label = "tosa.conv2d : (tensor<4x55x55x64xf3...)\n\ndilation: array<i64: 1, 1>\npad: array<i64: 1, 1, 1, ...\nstride: array<i64: 1, 1>", shape = ellipse, style = filled];
          v80 [fillcolor = "0.090909 1.0 1.0", label = "tosa.transpose : (tensor<4x64x55x55xf3...)\n", shape = ellipse, style = filled];
          v81 [fillcolor = "0.272727 1.0 1.0", label = "tosa.clamp : (tensor<4x64x55x55xf3...)\n\nmax_fp: 3.40282347E+38 : f32\nmax_int: 2147483647 : i64\nmin_fp: 0.000000e+00 : f32\nmin_int: 0 : i64", shape = ellipse, style = filled];
          v82 [fillcolor = "0.454545 1.0 1.0", label = "tosa.concat : (tensor<4x128x55x55xf...)\n\naxis: 1 : i32", shape = ellipse, style = filled];
          v83 [fillcolor = "0.090909 1.0 1.0", label = "tosa.transpose : (tensor<4x55x55x128xf...)\n", shape = ellipse, style = filled];
          v84 [fillcolor = "0.181818 1.0 1.0", label = "tosa.conv2d : (tensor<4x55x55x16xf3...)\n\ndilation: array<i64: 1, 1>\npad: array<i64: 0, 0, 0, ...\nstride: array<i64: 1, 1>", shape = ellipse, style = filled];
          v85 [fillcolor = "0.090909 1.0 1.0", label = "tosa.transpose : (tensor<4x16x55x55xf3...)\n", shape = ellipse, style = filled];
          v86 [fillcolor = "0.272727 1.0 1.0", label = "tosa.clamp : (tensor<4x16x55x55xf3...)\n\nmax_fp: 3.40282347E+38 : f32\nmax_int: 2147483647 : i64\nmin_fp: 0.000000e+00 : f32\nmin_int: 0 : i64", shape = ellipse, style = filled];
          v87 [fillcolor = "0.090909 1.0 1.0", label = "tosa.transpose : (tensor<4x55x55x16xf3...)\n", shape = ellipse, style = filled];
          v88 [fillcolor = "0.181818 1.0 1.0", label = "tosa.conv2d : (tensor<4x55x55x64xf3...)\n\ndilation: array<i64: 1, 1>\npad: array<i64: 0, 0, 0, ...\nstride: array<i64: 1, 1>", shape = ellipse, style = filled];
          v89 [fillcolor = "0.090909 1.0 1.0", label = "tosa.transpose : (tensor<4x64x55x55xf3...)\n", shape = ellipse, style = filled];
          v90 [fillcolor = "0.272727 1.0 1.0", label = "tosa.clamp : (tensor<4x64x55x55xf3...)\n\nmax_fp: 3.40282347E+38 : f32\nmax_int: 2147483647 : i64\nmin_fp: 0.000000e+00 : f32\nmin_int: 0 : i64", shape = ellipse, style = filled];
          v91 [fillcolor = "0.090909 1.0 1.0", label = "tosa.transpose : (tensor<64x3x3x16xf32...)\n", shape = ellipse, style = filled];
          v92 [fillcolor = "0.181818 1.0 1.0", label = "tosa.conv2d : (tensor<4x55x55x64xf3...)\n\ndilation: array<i64: 1, 1>\npad: array<i64: 1, 1, 1, ...\nstride: array<i64: 1, 1>", shape = ellipse, style = filled];
          v93 [fillcolor = "0.090909 1.0 1.0", label = "tosa.transpose : (tensor<4x64x55x55xf3...)\n", shape = ellipse, style = filled];
          v94 [fillcolor = "0.272727 1.0 1.0", label = "tosa.clamp : (tensor<4x64x55x55xf3...)\n\nmax_fp: 3.40282347E+38 : f32\nmax_int: 2147483647 : i64\nmin_fp: 0.000000e+00 : f32\nmin_int: 0 : i64", shape = ellipse, style = filled];
          v95 [fillcolor = "0.454545 1.0 1.0", label = "tosa.concat : (tensor<4x128x55x55xf...)\n\naxis: 1 : i32", shape = ellipse, style = filled];
          v96 [fillcolor = "0.090909 1.0 1.0", label = "tosa.transpose : (tensor<4x55x55x128xf...)\n", shape = ellipse, style = filled];
          v97 [fillcolor = "0.363636 1.0 1.0", label = "tosa.max_pool2d : (tensor<4x27x27x128xf...)\n\nkernel: array<i64: 3, 3>\npad: array<i64: 0, 0, 0, ...\nstride: array<i64: 2, 2>", shape = ellipse, style = filled];
          v98 [fillcolor = "0.181818 1.0 1.0", label = "tosa.conv2d : (tensor<4x27x27x32xf3...)\n\ndilation: array<i64: 1, 1>\npad: array<i64: 0, 0, 0, ...\nstride: array<i64: 1, 1>", shape = ellipse, style = filled];
          v99 [fillcolor = "0.090909 1.0 1.0", label = "tosa.transpose : (tensor<4x32x27x27xf3...)\n", shape = ellipse, style = filled];
          v100 [fillcolor = "0.272727 1.0 1.0", label = "tosa.clamp : (tensor<4x32x27x27xf3...)\n\nmax_fp: 3.40282347E+38 : f32\nmax_int: 2147483647 : i64\nmin_fp: 0.000000e+00 : f32\nmin_int: 0 : i64", shape = ellipse, style = filled];
          v101 [fillcolor = "0.090909 1.0 1.0", label = "tosa.transpose : (tensor<4x27x27x32xf3...)\n", shape = ellipse, style = filled];
          v102 [fillcolor = "0.181818 1.0 1.0", label = "tosa.conv2d : (tensor<4x27x27x128xf...)\n\ndilation: array<i64: 1, 1>\npad: array<i64: 0, 0, 0, ...\nstride: array<i64: 1, 1>", shape = ellipse, style = filled];
          v103 [fillcolor = "0.090909 1.0 1.0", label = "tosa.transpose : (tensor<4x128x27x27xf...)\n", shape = ellipse, style = filled];
          v104 [fillcolor = "0.272727 1.0 1.0", label = "tosa.clamp : (tensor<4x128x27x27xf...)\n\nmax_fp: 3.40282347E+38 : f32\nmax_int: 2147483647 : i64\nmin_fp: 0.000000e+00 : f32\nmin_int: 0 : i64", shape = ellipse, style = filled];
          v105 [fillcolor = "0.090909 1.0 1.0", label = "tosa.transpose : (tensor<128x3x3x32xf3...)\n", shape = ellipse, style = filled];
          v106 [fillcolor = "0.181818 1.0 1.0", label = "tosa.conv2d : (tensor<4x27x27x128xf...)\n\ndilation: array<i64: 1, 1>\npad: array<i64: 1, 1, 1, ...\nstride: array<i64: 1, 1>", shape = ellipse, style = filled];
          v107 [fillcolor = "0.090909 1.0 1.0", label = "tosa.transpose : (tensor<4x128x27x27xf...)\n", shape = ellipse, style = filled];
          v108 [fillcolor = "0.272727 1.0 1.0", label = "tosa.clamp : (tensor<4x128x27x27xf...)\n\nmax_fp: 3.40282347E+38 : f32\nmax_int: 2147483647 : i64\nmin_fp: 0.000000e+00 : f32\nmin_int: 0 : i64", shape = ellipse, style = filled];
          v109 [fillcolor = "0.454545 1.0 1.0", label = "tosa.concat : (tensor<4x256x27x27xf...)\n\naxis: 1 : i32", shape = ellipse, style = filled];
          v110 [fillcolor = "0.090909 1.0 1.0", label = "tosa.transpose : (tensor<4x27x27x256xf...)\n", shape = ellipse, style = filled];
          v111 [fillcolor = "0.181818 1.0 1.0", label = "tosa.conv2d : (tensor<4x27x27x32xf3...)\n\ndilation: array<i64: 1, 1>\npad: array<i64: 0, 0, 0, ...\nstride: array<i64: 1, 1>", shape = ellipse, style = filled];
          v112 [fillcolor = "0.090909 1.0 1.0", label = "tosa.transpose : (tensor<4x32x27x27xf3...)\n", shape = ellipse, style = filled];
          v113 [fillcolor = "0.272727 1.0 1.0", label = "tosa.clamp : (tensor<4x32x27x27xf3...)\n\nmax_fp: 3.40282347E+38 : f32\nmax_int: 2147483647 : i64\nmin_fp: 0.000000e+00 : f32\nmin_int: 0 : i64", shape = ellipse, style = filled];
          v114 [fillcolor = "0.090909 1.0 1.0", label = "tosa.transpose : (tensor<4x27x27x32xf3...)\n", shape = ellipse, style = filled];
          v115 [fillcolor = "0.181818 1.0 1.0", label = "tosa.conv2d : (tensor<4x27x27x128xf...)\n\ndilation: array<i64: 1, 1>\npad: array<i64: 0, 0, 0, ...\nstride: array<i64: 1, 1>", shape = ellipse, style = filled];
          v116 [fillcolor = "0.090909 1.0 1.0", label = "tosa.transpose : (tensor<4x128x27x27xf...)\n", shape = ellipse, style = filled];
          v117 [fillcolor = "0.272727 1.0 1.0", label = "tosa.clamp : (tensor<4x128x27x27xf...)\n\nmax_fp: 3.40282347E+38 : f32\nmax_int: 2147483647 : i64\nmin_fp: 0.000000e+00 : f32\nmin_int: 0 : i64", shape = ellipse, style = filled];
          v118 [fillcolor = "0.090909 1.0 1.0", label = "tosa.transpose : (tensor<128x3x3x32xf3...)\n", shape = ellipse, style = filled];
          v119 [fillcolor = "0.181818 1.0 1.0", label = "tosa.conv2d : (tensor<4x27x27x128xf...)\n\ndilation: array<i64: 1, 1>\npad: array<i64: 1, 1, 1, ...\nstride: array<i64: 1, 1>", shape = ellipse, style = filled];
          v120 [fillcolor = "0.090909 1.0 1.0", label = "tosa.transpose : (tensor<4x128x27x27xf...)\n", shape = ellipse, style = filled];
          v121 [fillcolor = "0.272727 1.0 1.0", label = "tosa.clamp : (tensor<4x128x27x27xf...)\n\nmax_fp: 3.40282347E+38 : f32\nmax_int: 2147483647 : i64\nmin_fp: 0.000000e+00 : f32\nmin_int: 0 : i64", shape = ellipse, style = filled];
          v122 [fillcolor = "0.454545 1.0 1.0", label = "tosa.concat : (tensor<4x256x27x27xf...)\n\naxis: 1 : i32", shape = ellipse, style = filled];
          v123 [fillcolor = "0.090909 1.0 1.0", label = "tosa.transpose : (tensor<4x27x27x256xf...)\n", shape = ellipse, style = filled];
          v124 [fillcolor = "0.363636 1.0 1.0", label = "tosa.max_pool2d : (tensor<4x13x13x256xf...)\n\nkernel: array<i64: 3, 3>\npad: array<i64: 0, 0, 0, ...\nstride: array<i64: 2, 2>", shape = ellipse, style = filled];
          v125 [fillcolor = "0.181818 1.0 1.0", label = "tosa.conv2d : (tensor<4x13x13x48xf3...)\n\ndilation: array<i64: 1, 1>\npad: array<i64: 0, 0, 0, ...\nstride: array<i64: 1, 1>", shape = ellipse, style = filled];
          v126 [fillcolor = "0.090909 1.0 1.0", label = "tosa.transpose : (tensor<4x48x13x13xf3...)\n", shape = ellipse, style = filled];
          v127 [fillcolor = "0.272727 1.0 1.0", label = "tosa.clamp : (tensor<4x48x13x13xf3...)\n\nmax_fp: 3.40282347E+38 : f32\nmax_int: 2147483647 : i64\nmin_fp: 0.000000e+00 : f32\nmin_int: 0 : i64", shape = ellipse, style = filled];
          v128 [fillcolor = "0.090909 1.0 1.0", label = "tosa.transpose : (tensor<4x13x13x48xf3...)\n", shape = ellipse, style = filled];
          v129 [fillcolor = "0.181818 1.0 1.0", label = "tosa.conv2d : (tensor<4x13x13x192xf...)\n\ndilation: array<i64: 1, 1>\npad: array<i64: 0, 0, 0, ...\nstride: array<i64: 1, 1>", shape = ellipse, style = filled];
          v130 [fillcolor = "0.090909 1.0 1.0", label = "tosa.transpose : (tensor<4x192x13x13xf...)\n", shape = ellipse, style = filled];
          v131 [fillcolor = "0.272727 1.0 1.0", label = "tosa.clamp : (tensor<4x192x13x13xf...)\n\nmax_fp: 3.40282347E+38 : f32\nmax_int: 2147483647 : i64\nmin_fp: 0.000000e+00 : f32\nmin_int: 0 : i64", shape = ellipse, style = filled];
          v132 [fillcolor = "0.090909 1.0 1.0", label = "tosa.transpose : (tensor<192x3x3x48xf3...)\n", shape = ellipse, style = filled];
          v133 [fillcolor = "0.181818 1.0 1.0", label = "tosa.conv2d : (tensor<4x13x13x192xf...)\n\ndilation: array<i64: 1, 1>\npad: array<i64: 1, 1, 1, ...\nstride: array<i64: 1, 1>", shape = ellipse, style = filled];
          v134 [fillcolor = "0.090909 1.0 1.0", label = "tosa.transpose : (tensor<4x192x13x13xf...)\n", shape = ellipse, style = filled];
          v135 [fillcolor = "0.272727 1.0 1.0", label = "tosa.clamp : (tensor<4x192x13x13xf...)\n\nmax_fp: 3.40282347E+38 : f32\nmax_int: 2147483647 : i64\nmin_fp: 0.000000e+00 : f32\nmin_int: 0 : i64", shape = ellipse, style = filled];
          v136 [fillcolor = "0.454545 1.0 1.0", label = "tosa.concat : (tensor<4x384x13x13xf...)\n\naxis: 1 : i32", shape = ellipse, style = filled];
          v137 [fillcolor = "0.090909 1.0 1.0", label = "tosa.transpose : (tensor<4x13x13x384xf...)\n", shape = ellipse, style = filled];
          v138 [fillcolor = "0.181818 1.0 1.0", label = "tosa.conv2d : (tensor<4x13x13x48xf3...)\n\ndilation: array<i64: 1, 1>\npad: array<i64: 0, 0, 0, ...\nstride: array<i64: 1, 1>", shape = ellipse, style = filled];
          v139 [fillcolor = "0.090909 1.0 1.0", label = "tosa.transpose : (tensor<4x48x13x13xf3...)\n", shape = ellipse, style = filled];
          v140 [fillcolor = "0.272727 1.0 1.0", label = "tosa.clamp : (tensor<4x48x13x13xf3...)\n\nmax_fp: 3.40282347E+38 : f32\nmax_int: 2147483647 : i64\nmin_fp: 0.000000e+00 : f32\nmin_int: 0 : i64", shape = ellipse, style = filled];
          v141 [fillcolor = "0.090909 1.0 1.0", label = "tosa.transpose : (tensor<4x13x13x48xf3...)\n", shape = ellipse, style = filled];
          v142 [fillcolor = "0.181818 1.0 1.0", label = "tosa.conv2d : (tensor<4x13x13x192xf...)\n\ndilation: array<i64: 1, 1>\npad: array<i64: 0, 0, 0, ...\nstride: array<i64: 1, 1>", shape = ellipse, style = filled];
          v143 [fillcolor = "0.090909 1.0 1.0", label = "tosa.transpose : (tensor<4x192x13x13xf...)\n", shape = ellipse, style = filled];
          v144 [fillcolor = "0.272727 1.0 1.0", label = "tosa.clamp : (tensor<4x192x13x13xf...)\n\nmax_fp: 3.40282347E+38 : f32\nmax_int: 2147483647 : i64\nmin_fp: 0.000000e+00 : f32\nmin_int: 0 : i64", shape = ellipse, style = filled];
          v145 [fillcolor = "0.090909 1.0 1.0", label = "tosa.transpose : (tensor<192x3x3x48xf3...)\n", shape = ellipse, style = filled];
          v146 [fillcolor = "0.181818 1.0 1.0", label = "tosa.conv2d : (tensor<4x13x13x192xf...)\n\ndilation: array<i64: 1, 1>\npad: array<i64: 1, 1, 1, ...\nstride: array<i64: 1, 1>", shape = ellipse, style = filled];
          v147 [fillcolor = "0.090909 1.0 1.0", label = "tosa.transpose : (tensor<4x192x13x13xf...)\n", shape = ellipse, style = filled];
          v148 [fillcolor = "0.272727 1.0 1.0", label = "tosa.clamp : (tensor<4x192x13x13xf...)\n\nmax_fp: 3.40282347E+38 : f32\nmax_int: 2147483647 : i64\nmin_fp: 0.000000e+00 : f32\nmin_int: 0 : i64", shape = ellipse, style = filled];
          v149 [fillcolor = "0.454545 1.0 1.0", label = "tosa.concat : (tensor<4x384x13x13xf...)\n\naxis: 1 : i32", shape = ellipse, style = filled];
          v150 [fillcolor = "0.090909 1.0 1.0", label = "tosa.transpose : (tensor<4x13x13x384xf...)\n", shape = ellipse, style = filled];
          v151 [fillcolor = "0.181818 1.0 1.0", label = "tosa.conv2d : (tensor<4x13x13x64xf3...)\n\ndilation: array<i64: 1, 1>\npad: array<i64: 0, 0, 0, ...\nstride: array<i64: 1, 1>", shape = ellipse, style = filled];
          v152 [fillcolor = "0.090909 1.0 1.0", label = "tosa.transpose : (tensor<4x64x13x13xf3...)\n", shape = ellipse, style = filled];
          v153 [fillcolor = "0.272727 1.0 1.0", label = "tosa.clamp : (tensor<4x64x13x13xf3...)\n\nmax_fp: 3.40282347E+38 : f32\nmax_int: 2147483647 : i64\nmin_fp: 0.000000e+00 : f32\nmin_int: 0 : i64", shape = ellipse, style = filled];
          v154 [fillcolor = "0.090909 1.0 1.0", label = "tosa.transpose : (tensor<4x13x13x64xf3...)\n", shape = ellipse, style = filled];
          v155 [fillcolor = "0.181818 1.0 1.0", label = "tosa.conv2d : (tensor<4x13x13x256xf...)\n\ndilation: array<i64: 1, 1>\npad: array<i64: 0, 0, 0, ...\nstride: array<i64: 1, 1>", shape = ellipse, style = filled];
          v156 [fillcolor = "0.090909 1.0 1.0", label = "tosa.transpose : (tensor<4x256x13x13xf...)\n", shape = ellipse, style = filled];
          v157 [fillcolor = "0.272727 1.0 1.0", label = "tosa.clamp : (tensor<4x256x13x13xf...)\n\nmax_fp: 3.40282347E+38 : f32\nmax_int: 2147483647 : i64\nmin_fp: 0.000000e+00 : f32\nmin_int: 0 : i64", shape = ellipse, style = filled];
          v158 [fillcolor = "0.090909 1.0 1.0", label = "tosa.transpose : (tensor<256x3x3x64xf3...)\n", shape = ellipse, style = filled];
          v159 [fillcolor = "0.181818 1.0 1.0", label = "tosa.conv2d : (tensor<4x13x13x256xf...)\n\ndilation: array<i64: 1, 1>\npad: array<i64: 1, 1, 1, ...\nstride: array<i64: 1, 1>", shape = ellipse, style = filled];
          v160 [fillcolor = "0.090909 1.0 1.0", label = "tosa.transpose : (tensor<4x256x13x13xf...)\n", shape = ellipse, style = filled];
          v161 [fillcolor = "0.272727 1.0 1.0", label = "tosa.clamp : (tensor<4x256x13x13xf...)\n\nmax_fp: 3.40282347E+38 : f32\nmax_int: 2147483647 : i64\nmin_fp: 0.000000e+00 : f32\nmin_int: 0 : i64", shape = ellipse, style = filled];
          v162 [fillcolor = "0.454545 1.0 1.0", label = "tosa.concat : (tensor<4x512x13x13xf...)\n\naxis: 1 : i32", shape = ellipse, style = filled];
          v163 [fillcolor = "0.090909 1.0 1.0", label = "tosa.transpose : (tensor<4x13x13x512xf...)\n", shape = ellipse, style = filled];
          v164 [fillcolor = "0.181818 1.0 1.0", label = "tosa.conv2d : (tensor<4x13x13x64xf3...)\n\ndilation: array<i64: 1, 1>\npad: array<i64: 0, 0, 0, ...\nstride: array<i64: 1, 1>", shape = ellipse, style = filled];
          v165 [fillcolor = "0.090909 1.0 1.0", label = "tosa.transpose : (tensor<4x64x13x13xf3...)\n", shape = ellipse, style = filled];
          v166 [fillcolor = "0.272727 1.0 1.0", label = "tosa.clamp : (tensor<4x64x13x13xf3...)\n\nmax_fp: 3.40282347E+38 : f32\nmax_int: 2147483647 : i64\nmin_fp: 0.000000e+00 : f32\nmin_int: 0 : i64", shape = ellipse, style = filled];
          v167 [fillcolor = "0.090909 1.0 1.0", label = "tosa.transpose : (tensor<4x13x13x64xf3...)\n", shape = ellipse, style = filled];
          v168 [fillcolor = "0.181818 1.0 1.0", label = "tosa.conv2d : (tensor<4x13x13x256xf...)\n\ndilation: array<i64: 1, 1>\npad: array<i64: 0, 0, 0, ...\nstride: array<i64: 1, 1>", shape = ellipse, style = filled];
          v169 [fillcolor = "0.090909 1.0 1.0", label = "tosa.transpose : (tensor<4x256x13x13xf...)\n", shape = ellipse, style = filled];
          v170 [fillcolor = "0.272727 1.0 1.0", label = "tosa.clamp : (tensor<4x256x13x13xf...)\n\nmax_fp: 3.40282347E+38 : f32\nmax_int: 2147483647 : i64\nmin_fp: 0.000000e+00 : f32\nmin_int: 0 : i64", shape = ellipse, style = filled];
          v171 [fillcolor = "0.090909 1.0 1.0", label = "tosa.transpose : (tensor<256x3x3x64xf3...)\n", shape = ellipse, style = filled];
          v172 [fillcolor = "0.181818 1.0 1.0", label = "tosa.conv2d : (tensor<4x13x13x256xf...)\n\ndilation: array<i64: 1, 1>\npad: array<i64: 1, 1, 1, ...\nstride: array<i64: 1, 1>", shape = ellipse, style = filled];
          v173 [fillcolor = "0.090909 1.0 1.0", label = "tosa.transpose : (tensor<4x256x13x13xf...)\n", shape = ellipse, style = filled];
          v174 [fillcolor = "0.272727 1.0 1.0", label = "tosa.clamp : (tensor<4x256x13x13xf...)\n\nmax_fp: 3.40282347E+38 : f32\nmax_int: 2147483647 : i64\nmin_fp: 0.000000e+00 : f32\nmin_int: 0 : i64", shape = ellipse, style = filled];
          v175 [fillcolor = "0.454545 1.0 1.0", label = "tosa.concat : (tensor<4x512x13x13xf...)\n\naxis: 1 : i32", shape = ellipse, style = filled];
          v176 [fillcolor = "0.090909 1.0 1.0", label = "tosa.transpose : (tensor<4x13x13x512xf...)\n", shape = ellipse, style = filled];
          v177 [fillcolor = "0.181818 1.0 1.0", label = "tosa.conv2d : (tensor<4x13x13x1000x...)\n\ndilation: array<i64: 1, 1>\npad: array<i64: 0, 0, 0, ...\nstride: array<i64: 1, 1>", shape = ellipse, style = filled];
          v178 [fillcolor = "0.090909 1.0 1.0", label = "tosa.transpose : (tensor<4x1000x13x13x...)\n", shape = ellipse, style = filled];
          v179 [fillcolor = "0.272727 1.0 1.0", label = "tosa.clamp : (tensor<4x1000x13x13x...)\n\nmax_fp: 3.40282347E+38 : f32\nmax_int: 2147483647 : i64\nmin_fp: 0.000000e+00 : f32\nmin_int: 0 : i64", shape = ellipse, style = filled];
          v180 [fillcolor = "0.090909 1.0 1.0", label = "tosa.transpose : (tensor<4x13x13x1000x...)\n", shape = ellipse, style = filled];
          v181 [fillcolor = "0.545455 1.0 1.0", label = "tosa.avg_pool2d : (tensor<4x1x1x1000xf3...)\n\nacc_type: f32\nkernel: array<i64: 13, 13>\npad: array<i64: 0, 0, 0, ...\nstride: array<i64: 13, 13>", shape = ellipse, style = filled];
          v182 [fillcolor = "0.636364 1.0 1.0", label = "tosa.reshape : (tensor<4x1000xf32>)\n\nnew_shape: array<i64: 4, 1000>", shape = ellipse, style = filled];
          v183 [fillcolor = "0.727273 1.0 1.0", label = "func.return : ()\n", shape = ellipse, style = filled];
        }
      }
    }
  }
  v9 -> v64 [label = "0", style = solid];
  v45 -> v64 [label = "1", style = solid];
  v43 -> v65 [label = "0", style = solid];
  v45 -> v65 [label = "1", style = solid];
  v64 -> v66 [label = "0", style = solid];
  v65 -> v66 [label = "1", style = solid];
  v44 -> v66 [label = "2", style = solid];
  v66 -> v67 [label = "0", style = solid];
  v46 -> v67 [label = "1", style = solid];
  v67 -> v68 [label = "", style = solid];
  v68 -> v69 [label = "0", style = solid];
  v45 -> v69 [label = "1", style = solid];
  v69 -> v70 [label = "", style = solid];
  v70 -> v71 [label = "0", style = solid];
  v47 -> v71 [label = "1", style = solid];
  v42 -> v71 [label = "2", style = solid];
  v71 -> v72 [label = "0", style = solid];
  v46 -> v72 [label = "1", style = solid];
  v72 -> v73 [label = "", style = solid];
  v73 -> v74 [label = "0", style = solid];
  v45 -> v74 [label = "1", style = solid];
  v74 -> v75 [label = "0", style = solid];
  v48 -> v75 [label = "1", style = solid];
  v41 -> v75 [label = "2", style = solid];
  v75 -> v76 [label = "0", style = solid];
  v46 -> v76 [label = "1", style = solid];
  v76 -> v77 [label = "", style = solid];
  v39 -> v78 [label = "0", style = solid];
  v45 -> v78 [label = "1", style = solid];
  v74 -> v79 [label = "0", style = solid];
  v78 -> v79 [label = "1", style = solid];
  v40 -> v79 [label = "2", style = solid];
  v79 -> v80 [label = "0", style = solid];
  v46 -> v80 [label = "1", style = solid];
  v80 -> v81 [label = "", style = solid];
  v77 -> v82 [label = "0", style = solid];
  v81 -> v82 [label = "1", style = solid];
  v82 -> v83 [label = "0", style = solid];
  v45 -> v83 [label = "1", style = solid];
  v83 -> v84 [label = "0", style = solid];
  v49 -> v84 [label = "1", style = solid];
  v38 -> v84 [label = "2", style = solid];
  v84 -> v85 [label = "0", style = solid];
  v46 -> v85 [label = "1", style = solid];
  v85 -> v86 [label = "", style = solid];
  v86 -> v87 [label = "0", style = solid];
  v45 -> v87 [label = "1", style = solid];
  v87 -> v88 [label = "0", style = solid];
  v50 -> v88 [label = "1", style = solid];
  v37 -> v88 [label = "2", style = solid];
  v88 -> v89 [label = "0", style = solid];
  v46 -> v89 [label = "1", style = solid];
  v89 -> v90 [label = "", style = solid];
  v35 -> v91 [label = "0", style = solid];
  v45 -> v91 [label = "1", style = solid];
  v87 -> v92 [label = "0", style = solid];
  v91 -> v92 [label = "1", style = solid];
  v36 -> v92 [label = "2", style = solid];
  v92 -> v93 [label = "0", style = solid];
  v46 -> v93 [label = "1", style = solid];
  v93 -> v94 [label = "", style = solid];
  v90 -> v95 [label = "0", style = solid];
  v94 -> v95 [label = "1", style = solid];
  v95 -> v96 [label = "0", style = solid];
  v45 -> v96 [label = "1", style = solid];
  v96 -> v97 [label = "", style = solid];
  v97 -> v98 [label = "0", style = solid];
  v51 -> v98 [label = "1", style = solid];
  v34 -> v98 [label = "2", style = solid];
  v98 -> v99 [label = "0", style = solid];
  v46 -> v99 [label = "1", style = solid];
  v99 -> v100 [label = "", style = solid];
  v100 -> v101 [label = "0", style = solid];
  v45 -> v101 [label = "1", style = solid];
  v101 -> v102 [label = "0", style = solid];
  v52 -> v102 [label = "1", style = solid];
  v33 -> v102 [label = "2", style = solid];
  v102 -> v103 [label = "0", style = solid];
  v46 -> v103 [label = "1", style = solid];
  v103 -> v104 [label = "", style = solid];
  v31 -> v105 [label = "0", style = solid];
  v45 -> v105 [label = "1", style = solid];
  v101 -> v106 [label = "0", style = solid];
  v105 -> v106 [label = "1", style = solid];
  v32 -> v106 [label = "2", style = solid];
  v106 -> v107 [label = "0", style = solid];
  v46 -> v107 [label = "1", style = solid];
  v107 -> v108 [label = "", style = solid];
  v104 -> v109 [label = "0", style = solid];
  v108 -> v109 [label = "1", style = solid];
  v109 -> v110 [label = "0", style = solid];
  v45 -> v110 [label = "1", style = solid];
  v110 -> v111 [label = "0", style = solid];
  v53 -> v111 [label = "1", style = solid];
  v30 -> v111 [label = "2", style = solid];
  v111 -> v112 [label = "0", style = solid];
  v46 -> v112 [label = "1", style = solid];
  v112 -> v113 [label = "", style = solid];
  v113 -> v114 [label = "0", style = solid];
  v45 -> v114 [label = "1", style = solid];
  v114 -> v115 [label = "0", style = solid];
  v54 -> v115 [label = "1", style = solid];
  v29 -> v115 [label = "2", style = solid];
  v115 -> v116 [label = "0", style = solid];
  v46 -> v116 [label = "1", style = solid];
  v116 -> v117 [label = "", style = solid];
  v27 -> v118 [label = "0", style = solid];
  v45 -> v118 [label = "1", style = solid];
  v114 -> v119 [label = "0", style = solid];
  v118 -> v119 [label = "1", style = solid];
  v28 -> v119 [label = "2", style = solid];
  v119 -> v120 [label = "0", style = solid];
  v46 -> v120 [label = "1", style = solid];
  v120 -> v121 [label = "", style = solid];
  v117 -> v122 [label = "0", style = solid];
  v121 -> v122 [label = "1", style = solid];
  v122 -> v123 [label = "0", style = solid];
  v45 -> v123 [label = "1", style = solid];
  v123 -> v124 [label = "", style = solid];
  v124 -> v125 [label = "0", style = solid];
  v55 -> v125 [label = "1", style = solid];
  v26 -> v125 [label = "2", style = solid];
  v125 -> v126 [label = "0", style = solid];
  v46 -> v126 [label = "1", style = solid];
  v126 -> v127 [label = "", style = solid];
  v127 -> v128 [label = "0", style = solid];
  v45 -> v128 [label = "1", style = solid];
  v128 -> v129 [label = "0", style = solid];
  v56 -> v129 [label = "1", style = solid];
  v25 -> v129 [label = "2", style = solid];
  v129 -> v130 [label = "0", style = solid];
  v46 -> v130 [label = "1", style = solid];
  v130 -> v131 [label = "", style = solid];
  v23 -> v132 [label = "0", style = solid];
  v45 -> v132 [label = "1", style = solid];
  v128 -> v133 [label = "0", style = solid];
  v132 -> v133 [label = "1", style = solid];
  v24 -> v133 [label = "2", style = solid];
  v133 -> v134 [label = "0", style = solid];
  v46 -> v134 [label = "1", style = solid];
  v134 -> v135 [label = "", style = solid];
  v131 -> v136 [label = "0", style = solid];
  v135 -> v136 [label = "1", style = solid];
  v136 -> v137 [label = "0", style = solid];
  v45 -> v137 [label = "1", style = solid];
  v137 -> v138 [label = "0", style = solid];
  v57 -> v138 [label = "1", style = solid];
  v22 -> v138 [label = "2", style = solid];
  v138 -> v139 [label = "0", style = solid];
  v46 -> v139 [label = "1", style = solid];
  v139 -> v140 [label = "", style = solid];
  v140 -> v141 [label = "0", style = solid];
  v45 -> v141 [label = "1", style = solid];
  v141 -> v142 [label = "0", style = solid];
  v58 -> v142 [label = "1", style = solid];
  v21 -> v142 [label = "2", style = solid];
  v142 -> v143 [label = "0", style = solid];
  v46 -> v143 [label = "1", style = solid];
  v143 -> v144 [label = "", style = solid];
  v19 -> v145 [label = "0", style = solid];
  v45 -> v145 [label = "1", style = solid];
  v141 -> v146 [label = "0", style = solid];
  v145 -> v146 [label = "1", style = solid];
  v20 -> v146 [label = "2", style = solid];
  v146 -> v147 [label = "0", style = solid];
  v46 -> v147 [label = "1", style = solid];
  v147 -> v148 [label = "", style = solid];
  v144 -> v149 [label = "0", style = solid];
  v148 -> v149 [label = "1", style = solid];
  v149 -> v150 [label = "0", style = solid];
  v45 -> v150 [label = "1", style = solid];
  v150 -> v151 [label = "0", style = solid];
  v59 -> v151 [label = "1", style = solid];
  v18 -> v151 [label = "2", style = solid];
  v151 -> v152 [label = "0", style = solid];
  v46 -> v152 [label = "1", style = solid];
  v152 -> v153 [label = "", style = solid];
  v153 -> v154 [label = "0", style = solid];
  v45 -> v154 [label = "1", style = solid];
  v154 -> v155 [label = "0", style = solid];
  v60 -> v155 [label = "1", style = solid];
  v17 -> v155 [label = "2", style = solid];
  v155 -> v156 [label = "0", style = solid];
  v46 -> v156 [label = "1", style = solid];
  v156 -> v157 [label = "", style = solid];
  v15 -> v158 [label = "0", style = solid];
  v45 -> v158 [label = "1", style = solid];
  v154 -> v159 [label = "0", style = solid];
  v158 -> v159 [label = "1", style = solid];
  v16 -> v159 [label = "2", style = solid];
  v159 -> v160 [label = "0", style = solid];
  v46 -> v160 [label = "1", style = solid];
  v160 -> v161 [label = "", style = solid];
  v157 -> v162 [label = "0", style = solid];
  v161 -> v162 [label = "1", style = solid];
  v162 -> v163 [label = "0", style = solid];
  v45 -> v163 [label = "1", style = solid];
  v163 -> v164 [label = "0", style = solid];
  v61 -> v164 [label = "1", style = solid];
  v14 -> v164 [label = "2", style = solid];
  v164 -> v165 [label = "0", style = solid];
  v46 -> v165 [label = "1", style = solid];
  v165 -> v166 [label = "", style = solid];
  v166 -> v167 [label = "0", style = solid];
  v45 -> v167 [label = "1", style = solid];
  v167 -> v168 [label = "0", style = solid];
  v62 -> v168 [label = "1", style = solid];
  v13 -> v168 [label = "2", style = solid];
  v168 -> v169 [label = "0", style = solid];
  v46 -> v169 [label = "1", style = solid];
  v169 -> v170 [label = "", style = solid];
  v11 -> v171 [label = "0", style = solid];
  v45 -> v171 [label = "1", style = solid];
  v167 -> v172 [label = "0", style = solid];
  v171 -> v172 [label = "1", style = solid];
  v12 -> v172 [label = "2", style = solid];
  v172 -> v173 [label = "0", style = solid];
  v46 -> v173 [label = "1", style = solid];
  v173 -> v174 [label = "", style = solid];
  v170 -> v175 [label = "0", style = solid];
  v174 -> v175 [label = "1", style = solid];
  v175 -> v176 [label = "0", style = solid];
  v45 -> v176 [label = "1", style = solid];
  v176 -> v177 [label = "0", style = solid];
  v63 -> v177 [label = "1", style = solid];
  v10 -> v177 [label = "2", style = solid];
  v177 -> v178 [label = "0", style = solid];
  v46 -> v178 [label = "1", style = solid];
  v178 -> v179 [label = "", style = solid];
  v179 -> v180 [label = "0", style = solid];
  v45 -> v180 [label = "1", style = solid];
  v180 -> v181 [label = "", style = solid];
  v181 -> v182 [label = "", style = solid];
  v182 -> v183 [label = "", style = solid];
}
