digraph G {
  compound = true;
  subgraph cluster_1 {
    v2 [label = " ", shape = plain];
    label = "builtin.module : ()\n\ntorch.debug_module_name: \"MobileNetV3\"";
    subgraph cluster_3 {
      v4 [label = " ", shape = plain];
      label = "";
      subgraph cluster_5 {
        v6 [label = " ", shape = plain];
        label = "func.func : ()\n\nfunction_type: (tensor<4x3x32x32xf3...\nsym_name: \"forward\"";
        subgraph cluster_7 {
          v8 [label = " ", shape = plain];
          label = "";
          v9 [label = "arg0", shape = ellipse];
          v10 [fillcolor = "0.000000 1.0 1.0", label = "tosa.const : (tensor<1000x1024xf32...)\n\nvalue: [[...]] : tensor<1000x1024xf32>", shape = ellipse, style = filled];
          v11 [fillcolor = "0.000000 1.0 1.0", label = "tosa.const : (tensor<1024x576xf32>)\n\nvalue: [[...]] : tensor<1024x576xf32>", shape = ellipse, style = filled];
          v12 [fillcolor = "0.000000 1.0 1.0", label = "tosa.const : (tensor<576xf32>)\n\nvalue: [...] : tensor<576xf32>", shape = ellipse, style = filled];
          v13 [fillcolor = "0.000000 1.0 1.0", label = "tosa.const : (tensor<144xf32>)\n\nvalue: [...] : tensor<144xf32>", shape = ellipse, style = filled];
          v14 [fillcolor = "0.000000 1.0 1.0", label = "tosa.const : (tensor<576x1x5x5xf32...)\n\nvalue: [[[[...]]]] : tensor<576x1x5x5xf32>", shape = ellipse, style = filled];
          v15 [fillcolor = "0.000000 1.0 1.0", label = "tosa.const : (tensor<576xf32>)\n\nvalue: [...] : tensor<576xf32>", shape = ellipse, style = filled];
          v16 [fillcolor = "0.000000 1.0 1.0", label = "tosa.const : (tensor<144xf32>)\n\nvalue: [...] : tensor<144xf32>", shape = ellipse, style = filled];
          v17 [fillcolor = "0.000000 1.0 1.0", label = "tosa.const : (tensor<576x1x5x5xf32...)\n\nvalue: [[[[...]]]] : tensor<576x1x5x5xf32>", shape = ellipse, style = filled];
          v18 [fillcolor = "0.000000 1.0 1.0", label = "tosa.const : (tensor<288xf32>)\n\nvalue: [...] : tensor<288xf32>", shape = ellipse, style = filled];
          v19 [fillcolor = "0.000000 1.0 1.0", label = "tosa.const : (tensor<72xf32>)\n\nvalue: [...] : tensor<72xf32>", shape = ellipse, style = filled];
          v20 [fillcolor = "0.000000 1.0 1.0", label = "tosa.const : (tensor<288x1x5x5xf32...)\n\nvalue: [[[[...]]]] : tensor<288x1x5x5xf32>", shape = ellipse, style = filled];
          v21 [fillcolor = "0.000000 1.0 1.0", label = "tosa.const : (tensor<144xf32>)\n\nvalue: [...] : tensor<144xf32>", shape = ellipse, style = filled];
          v22 [fillcolor = "0.000000 1.0 1.0", label = "tosa.const : (tensor<40xf32>)\n\nvalue: [...] : tensor<40xf32>", shape = ellipse, style = filled];
          v23 [fillcolor = "0.000000 1.0 1.0", label = "tosa.const : (tensor<144x1x5x5xf32...)\n\nvalue: [[[[...]]]] : tensor<144x1x5x5xf32>", shape = ellipse, style = filled];
          v24 [fillcolor = "0.000000 1.0 1.0", label = "tosa.const : (tensor<120xf32>)\n\nvalue: [...] : tensor<120xf32>", shape = ellipse, style = filled];
          v25 [fillcolor = "0.000000 1.0 1.0", label = "tosa.const : (tensor<32xf32>)\n\nvalue: [...] : tensor<32xf32>", shape = ellipse, style = filled];
          v26 [fillcolor = "0.000000 1.0 1.0", label = "tosa.const : (tensor<120x1x5x5xf32...)\n\nvalue: [[[[...]]]] : tensor<120x1x5x5xf32>", shape = ellipse, style = filled];
          v27 [fillcolor = "0.000000 1.0 1.0", label = "tosa.const : (tensor<240xf32>)\n\nvalue: [...] : tensor<240xf32>", shape = ellipse, style = filled];
          v28 [fillcolor = "0.000000 1.0 1.0", label = "tosa.const : (tensor<64xf32>)\n\nvalue: [...] : tensor<64xf32>", shape = ellipse, style = filled];
          v29 [fillcolor = "0.000000 1.0 1.0", label = "tosa.const : (tensor<240x1x5x5xf32...)\n\nvalue: [[[[...]]]] : tensor<240x1x5x5xf32>", shape = ellipse, style = filled];
          v30 [fillcolor = "0.000000 1.0 1.0", label = "tosa.const : (tensor<240xf32>)\n\nvalue: [...] : tensor<240xf32>", shape = ellipse, style = filled];
          v31 [fillcolor = "0.000000 1.0 1.0", label = "tosa.const : (tensor<64xf32>)\n\nvalue: [...] : tensor<64xf32>", shape = ellipse, style = filled];
          v32 [fillcolor = "0.000000 1.0 1.0", label = "tosa.const : (tensor<240x1x5x5xf32...)\n\nvalue: [[[[...]]]] : tensor<240x1x5x5xf32>", shape = ellipse, style = filled];
          v33 [fillcolor = "0.000000 1.0 1.0", label = "tosa.const : (tensor<96xf32>)\n\nvalue: [...] : tensor<96xf32>", shape = ellipse, style = filled];
          v34 [fillcolor = "0.000000 1.0 1.0", label = "tosa.const : (tensor<24xf32>)\n\nvalue: [...] : tensor<24xf32>", shape = ellipse, style = filled];
          v35 [fillcolor = "0.000000 1.0 1.0", label = "tosa.const : (tensor<96x1x5x5xf32>)\n\nvalue: [[[[...]]]] : tensor<96x1x5x5xf32>", shape = ellipse, style = filled];
          v36 [fillcolor = "0.000000 1.0 1.0", label = "tosa.const : (tensor<88x1x3x3xf32>)\n\nvalue: [[[[...]]]] : tensor<88x1x3x3xf32>", shape = ellipse, style = filled];
          v37 [fillcolor = "0.000000 1.0 1.0", label = "tosa.const : (tensor<72x1x3x3xf32>)\n\nvalue: [[[[...]]]] : tensor<72x1x3x3xf32>", shape = ellipse, style = filled];
          v38 [fillcolor = "0.000000 1.0 1.0", label = "tosa.const : (tensor<16xf32>)\n\nvalue: [...] : tensor<16xf32>", shape = ellipse, style = filled];
          v39 [fillcolor = "0.000000 1.0 1.0", label = "tosa.const : (tensor<8xf32>)\n\nvalue: [...] : tensor<8xf32>", shape = ellipse, style = filled];
          v40 [fillcolor = "0.000000 1.0 1.0", label = "tosa.const : (tensor<16x1x3x3xf32>)\n\nvalue: [[[[...]]]] : tensor<16x1x3x3xf32>", shape = ellipse, style = filled];
          v41 [fillcolor = "0.000000 1.0 1.0", label = "tosa.const : (tensor<16x3x3x3xf32>)\n\nvalue: [[[[...]]]] : tensor<16x3x3x3xf32>", shape = ellipse, style = filled];
          v42 [fillcolor = "0.000000 1.0 1.0", label = "tosa.const : (tensor<16xf32>)\n\nvalue: dense<0.000000e+00> : tensor<16xf32>", shape = ellipse, style = filled];
          v43 [fillcolor = "0.000000 1.0 1.0", label = "tosa.const : (tensor<4xi32>)\n\nvalue: [...] : tensor<4xi32>", shape = ellipse, style = filled];
          v44 [fillcolor = "0.000000 1.0 1.0", label = "tosa.const : (tensor<4xi32>)\n\nvalue: [...] : tensor<4xi32>", shape = ellipse, style = filled];
          v45 [fillcolor = "0.000000 1.0 1.0", label = "tosa.const : (tensor<4xi32>)\n\nvalue: [...] : tensor<4xi32>", shape = ellipse, style = filled];
          v46 [fillcolor = "0.000000 1.0 1.0", label = "tosa.const : (tensor<72xf32>)\n\nvalue: dense<0.000000e+00> : tensor<72xf32>", shape = ellipse, style = filled];
          v47 [fillcolor = "0.000000 1.0 1.0", label = "tosa.const : (tensor<24xf32>)\n\nvalue: dense<0.000000e+00> : tensor<24xf32>", shape = ellipse, style = filled];
          v48 [fillcolor = "0.000000 1.0 1.0", label = "tosa.const : (tensor<88xf32>)\n\nvalue: dense<0.000000e+00> : tensor<88xf32>", shape = ellipse, style = filled];
          v49 [fillcolor = "0.000000 1.0 1.0", label = "tosa.const : (tensor<96xf32>)\n\nvalue: dense<0.000000e+00> : tensor<96xf32>", shape = ellipse, style = filled];
          v50 [fillcolor = "0.000000 1.0 1.0", label = "tosa.const : (tensor<40xf32>)\n\nvalue: dense<0.000000e+00> : tensor<40xf32>", shape = ellipse, style = filled];
          v51 [fillcolor = "0.000000 1.0 1.0", label = "tosa.const : (tensor<240xf32>)\n\nvalue: dense<0.000000e+00> : tensor<240xf32>", shape = ellipse, style = filled];
          v52 [fillcolor = "0.000000 1.0 1.0", label = "tosa.const : (tensor<120xf32>)\n\nvalue: dense<0.000000e+00> : tensor<120xf32>", shape = ellipse, style = filled];
          v53 [fillcolor = "0.000000 1.0 1.0", label = "tosa.const : (tensor<48xf32>)\n\nvalue: dense<0.000000e+00> : tensor<48xf32>", shape = ellipse, style = filled];
          v54 [fillcolor = "0.000000 1.0 1.0", label = "tosa.const : (tensor<144xf32>)\n\nvalue: dense<0.000000e+00> : tensor<144xf32>", shape = ellipse, style = filled];
          v55 [fillcolor = "0.000000 1.0 1.0", label = "tosa.const : (tensor<288xf32>)\n\nvalue: dense<0.000000e+00> : tensor<288xf32>", shape = ellipse, style = filled];
          v56 [fillcolor = "0.000000 1.0 1.0", label = "tosa.const : (tensor<576xf32>)\n\nvalue: dense<0.000000e+00> : tensor<576xf32>", shape = ellipse, style = filled];
          v57 [fillcolor = "0.000000 1.0 1.0", label = "tosa.const : (tensor<2xi32>)\n\nvalue: dense<[1, 0]> : tens...", shape = ellipse, style = filled];
          v58 [fillcolor = "0.000000 1.0 1.0", label = "tosa.const : (tensor<16x1x1xf32>)\n\nvalue: [[[...]]] : tensor<16x1x1xf32>", shape = ellipse, style = filled];
          v59 [fillcolor = "0.000000 1.0 1.0", label = "tosa.const : (tensor<1x1x1xf32>)\n\nvalue: dense<1.000000e-03> : tensor<1x1x1xf32>", shape = ellipse, style = filled];
          v60 [fillcolor = "0.000000 1.0 1.0", label = "tosa.const : (tensor<1x1x1x1xf32>)\n\nvalue: dense<3.000000e+00> : tensor<1x1x1x1xf32>", shape = ellipse, style = filled];
          v61 [fillcolor = "0.000000 1.0 1.0", label = "tosa.const : (tensor<1x1x1x1xf32>)\n\nvalue: dense<6.000000e+00> : tensor<1x1x1x1xf32>", shape = ellipse, style = filled];
          v62 [fillcolor = "0.000000 1.0 1.0", label = "tosa.const : (tensor<1x1x1x1xf32>)\n\nvalue: dense<0.166666672> : tensor<1x1x1x1xf32>", shape = ellipse, style = filled];
          v63 [fillcolor = "0.000000 1.0 1.0", label = "tosa.const : (tensor<16x1x1xf32>)\n\nvalue: [[[...]]] : tensor<16x1x1xf32>", shape = ellipse, style = filled];
          v64 [fillcolor = "0.000000 1.0 1.0", label = "tosa.const : (tensor<1x1x1x1xf32>)\n\nvalue: dense<1.000000e+00> : tensor<1x1x1x1xf32>", shape = ellipse, style = filled];
          v65 [fillcolor = "0.000000 1.0 1.0", label = "tosa.const : (tensor<1x1x1x1xf32>)\n\nvalue: dense<0.000000e+00> : tensor<1x1x1x1xf32>", shape = ellipse, style = filled];
          v66 [fillcolor = "0.000000 1.0 1.0", label = "tosa.const : (tensor<16x1x1xf32>)\n\nvalue: [[[...]]] : tensor<16x1x1xf32>", shape = ellipse, style = filled];
          v67 [fillcolor = "0.000000 1.0 1.0", label = "tosa.const : (tensor<72x1x1xf32>)\n\nvalue: [[[...]]] : tensor<72x1x1xf32>", shape = ellipse, style = filled];
          v68 [fillcolor = "0.000000 1.0 1.0", label = "tosa.const : (tensor<72x1x1xf32>)\n\nvalue: [[[...]]] : tensor<72x1x1xf32>", shape = ellipse, style = filled];
          v69 [fillcolor = "0.000000 1.0 1.0", label = "tosa.const : (tensor<24x1x1xf32>)\n\nvalue: [[[...]]] : tensor<24x1x1xf32>", shape = ellipse, style = filled];
          v70 [fillcolor = "0.000000 1.0 1.0", label = "tosa.const : (tensor<88x1x1xf32>)\n\nvalue: [[[...]]] : tensor<88x1x1xf32>", shape = ellipse, style = filled];
          v71 [fillcolor = "0.000000 1.0 1.0", label = "tosa.const : (tensor<88x1x1xf32>)\n\nvalue: [[[...]]] : tensor<88x1x1xf32>", shape = ellipse, style = filled];
          v72 [fillcolor = "0.000000 1.0 1.0", label = "tosa.const : (tensor<24x1x1xf32>)\n\nvalue: [[[...]]] : tensor<24x1x1xf32>", shape = ellipse, style = filled];
          v73 [fillcolor = "0.000000 1.0 1.0", label = "tosa.const : (tensor<96x1x1xf32>)\n\nvalue: [[[...]]] : tensor<96x1x1xf32>", shape = ellipse, style = filled];
          v74 [fillcolor = "0.000000 1.0 1.0", label = "tosa.const : (tensor<96x1x1xf32>)\n\nvalue: [[[...]]] : tensor<96x1x1xf32>", shape = ellipse, style = filled];
          v75 [fillcolor = "0.000000 1.0 1.0", label = "tosa.const : (tensor<40x1x1xf32>)\n\nvalue: [[[...]]] : tensor<40x1x1xf32>", shape = ellipse, style = filled];
          v76 [fillcolor = "0.000000 1.0 1.0", label = "tosa.const : (tensor<240x1x1xf32>)\n\nvalue: [[[...]]] : tensor<240x1x1xf32>", shape = ellipse, style = filled];
          v77 [fillcolor = "0.000000 1.0 1.0", label = "tosa.const : (tensor<240x1x1xf32>)\n\nvalue: [[[...]]] : tensor<240x1x1xf32>", shape = ellipse, style = filled];
          v78 [fillcolor = "0.000000 1.0 1.0", label = "tosa.const : (tensor<40x1x1xf32>)\n\nvalue: [[[...]]] : tensor<40x1x1xf32>", shape = ellipse, style = filled];
          v79 [fillcolor = "0.000000 1.0 1.0", label = "tosa.const : (tensor<240x1x1xf32>)\n\nvalue: [[[...]]] : tensor<240x1x1xf32>", shape = ellipse, style = filled];
          v80 [fillcolor = "0.000000 1.0 1.0", label = "tosa.const : (tensor<240x1x1xf32>)\n\nvalue: [[[...]]] : tensor<240x1x1xf32>", shape = ellipse, style = filled];
          v81 [fillcolor = "0.000000 1.0 1.0", label = "tosa.const : (tensor<40x1x1xf32>)\n\nvalue: [[[...]]] : tensor<40x1x1xf32>", shape = ellipse, style = filled];
          v82 [fillcolor = "0.000000 1.0 1.0", label = "tosa.const : (tensor<120x1x1xf32>)\n\nvalue: [[[...]]] : tensor<120x1x1xf32>", shape = ellipse, style = filled];
          v83 [fillcolor = "0.000000 1.0 1.0", label = "tosa.const : (tensor<120x1x1xf32>)\n\nvalue: [[[...]]] : tensor<120x1x1xf32>", shape = ellipse, style = filled];
          v84 [fillcolor = "0.000000 1.0 1.0", label = "tosa.const : (tensor<48x1x1xf32>)\n\nvalue: [[[...]]] : tensor<48x1x1xf32>", shape = ellipse, style = filled];
          v85 [fillcolor = "0.000000 1.0 1.0", label = "tosa.const : (tensor<144x1x1xf32>)\n\nvalue: [[[...]]] : tensor<144x1x1xf32>", shape = ellipse, style = filled];
          v86 [fillcolor = "0.000000 1.0 1.0", label = "tosa.const : (tensor<144x1x1xf32>)\n\nvalue: [[[...]]] : tensor<144x1x1xf32>", shape = ellipse, style = filled];
          v87 [fillcolor = "0.000000 1.0 1.0", label = "tosa.const : (tensor<48x1x1xf32>)\n\nvalue: [[[...]]] : tensor<48x1x1xf32>", shape = ellipse, style = filled];
          v88 [fillcolor = "0.000000 1.0 1.0", label = "tosa.const : (tensor<288x1x1xf32>)\n\nvalue: [[[...]]] : tensor<288x1x1xf32>", shape = ellipse, style = filled];
          v89 [fillcolor = "0.000000 1.0 1.0", label = "tosa.const : (tensor<288x1x1xf32>)\n\nvalue: [[[...]]] : tensor<288x1x1xf32>", shape = ellipse, style = filled];
          v90 [fillcolor = "0.000000 1.0 1.0", label = "tosa.const : (tensor<96x1x1xf32>)\n\nvalue: [[[...]]] : tensor<96x1x1xf32>", shape = ellipse, style = filled];
          v91 [fillcolor = "0.000000 1.0 1.0", label = "tosa.const : (tensor<576x1x1xf32>)\n\nvalue: [[[...]]] : tensor<576x1x1xf32>", shape = ellipse, style = filled];
          v92 [fillcolor = "0.000000 1.0 1.0", label = "tosa.const : (tensor<576x1x1xf32>)\n\nvalue: [[[...]]] : tensor<576x1x1xf32>", shape = ellipse, style = filled];
          v93 [fillcolor = "0.000000 1.0 1.0", label = "tosa.const : (tensor<96x1x1xf32>)\n\nvalue: [[[...]]] : tensor<96x1x1xf32>", shape = ellipse, style = filled];
          v94 [fillcolor = "0.000000 1.0 1.0", label = "tosa.const : (tensor<576x1x1xf32>)\n\nvalue: [[[...]]] : tensor<576x1x1xf32>", shape = ellipse, style = filled];
          v95 [fillcolor = "0.000000 1.0 1.0", label = "tosa.const : (tensor<576x1x1xf32>)\n\nvalue: [[[...]]] : tensor<576x1x1xf32>", shape = ellipse, style = filled];
          v96 [fillcolor = "0.000000 1.0 1.0", label = "tosa.const : (tensor<96x1x1xf32>)\n\nvalue: [[[...]]] : tensor<96x1x1xf32>", shape = ellipse, style = filled];
          v97 [fillcolor = "0.000000 1.0 1.0", label = "tosa.const : (tensor<576x1x1xf32>)\n\nvalue: [[[...]]] : tensor<576x1x1xf32>", shape = ellipse, style = filled];
          v98 [fillcolor = "0.000000 1.0 1.0", label = "tosa.const : (tensor<1x1024xf32>)\n\nvalue: [[...]] : tensor<1x1024xf32>", shape = ellipse, style = filled];
          v99 [fillcolor = "0.000000 1.0 1.0", label = "tosa.const : (tensor<1x1xf32>)\n\nvalue: dense<3.000000e+00> : tensor<1x1xf32>", shape = ellipse, style = filled];
          v100 [fillcolor = "0.000000 1.0 1.0", label = "tosa.const : (tensor<1x1xf32>)\n\nvalue: dense<6.000000e+00> : tensor<1x1xf32>", shape = ellipse, style = filled];
          v101 [fillcolor = "0.000000 1.0 1.0", label = "tosa.const : (tensor<1x1xf32>)\n\nvalue: dense<0.166666672> : tensor<1x1xf32>", shape = ellipse, style = filled];
          v102 [fillcolor = "0.000000 1.0 1.0", label = "tosa.const : (tensor<1x1000xf32>)\n\nvalue: [[...]] : tensor<1x1000xf32>", shape = ellipse, style = filled];
          v103 [fillcolor = "0.000000 1.0 1.0", label = "tosa.const : (tensor<1x16x1x1xf32>)\n\nvalue: [[[[...]]]] : tensor<1x16x1x1xf32>", shape = ellipse, style = filled];
          v104 [fillcolor = "0.000000 1.0 1.0", label = "tosa.const : (tensor<1x16x1x1xf32>)\n\nvalue: [[[[...]]]] : tensor<1x16x1x1xf32>", shape = ellipse, style = filled];
          v105 [fillcolor = "0.000000 1.0 1.0", label = "tosa.const : (tensor<1x16x1x1xf32>)\n\nvalue: [[[[...]]]] : tensor<1x16x1x1xf32>", shape = ellipse, style = filled];
          v106 [fillcolor = "0.000000 1.0 1.0", label = "tosa.const : (tensor<1x16x1x1xf32>)\n\nvalue: [[[[...]]]] : tensor<1x16x1x1xf32>", shape = ellipse, style = filled];
          v107 [fillcolor = "0.000000 1.0 1.0", label = "tosa.const : (tensor<1x16x1x1xf32>)\n\nvalue: [[[[...]]]] : tensor<1x16x1x1xf32>", shape = ellipse, style = filled];
          v108 [fillcolor = "0.000000 1.0 1.0", label = "tosa.const : (tensor<1x16x1x1xf32>)\n\nvalue: [[[[...]]]] : tensor<1x16x1x1xf32>", shape = ellipse, style = filled];
          v109 [fillcolor = "0.000000 1.0 1.0", label = "tosa.const : (tensor<1x16x1x1xf32>)\n\nvalue: [[[[...]]]] : tensor<1x16x1x1xf32>", shape = ellipse, style = filled];
          v110 [fillcolor = "0.000000 1.0 1.0", label = "tosa.const : (tensor<1x16x1x1xf32>)\n\nvalue: [[[[...]]]] : tensor<1x16x1x1xf32>", shape = ellipse, style = filled];
          v111 [fillcolor = "0.000000 1.0 1.0", label = "tosa.const : (tensor<1x16x1x1xf32>)\n\nvalue: [[[[...]]]] : tensor<1x16x1x1xf32>", shape = ellipse, style = filled];
          v112 [fillcolor = "0.000000 1.0 1.0", label = "tosa.const : (tensor<1x72x1x1xf32>)\n\nvalue: [[[[...]]]] : tensor<1x72x1x1xf32>", shape = ellipse, style = filled];
          v113 [fillcolor = "0.000000 1.0 1.0", label = "tosa.const : (tensor<1x72x1x1xf32>)\n\nvalue: [[[[...]]]] : tensor<1x72x1x1xf32>", shape = ellipse, style = filled];
          v114 [fillcolor = "0.000000 1.0 1.0", label = "tosa.const : (tensor<1x72x1x1xf32>)\n\nvalue: [[[[...]]]] : tensor<1x72x1x1xf32>", shape = ellipse, style = filled];
          v115 [fillcolor = "0.000000 1.0 1.0", label = "tosa.const : (tensor<1x72x1x1xf32>)\n\nvalue: [[[[...]]]] : tensor<1x72x1x1xf32>", shape = ellipse, style = filled];
          v116 [fillcolor = "0.000000 1.0 1.0", label = "tosa.const : (tensor<1x72x1x1xf32>)\n\nvalue: [[[[...]]]] : tensor<1x72x1x1xf32>", shape = ellipse, style = filled];
          v117 [fillcolor = "0.000000 1.0 1.0", label = "tosa.const : (tensor<1x72x1x1xf32>)\n\nvalue: [[[[...]]]] : tensor<1x72x1x1xf32>", shape = ellipse, style = filled];
          v118 [fillcolor = "0.000000 1.0 1.0", label = "tosa.const : (tensor<1x24x1x1xf32>)\n\nvalue: [[[[...]]]] : tensor<1x24x1x1xf32>", shape = ellipse, style = filled];
          v119 [fillcolor = "0.000000 1.0 1.0", label = "tosa.const : (tensor<1x24x1x1xf32>)\n\nvalue: [[[[...]]]] : tensor<1x24x1x1xf32>", shape = ellipse, style = filled];
          v120 [fillcolor = "0.000000 1.0 1.0", label = "tosa.const : (tensor<1x24x1x1xf32>)\n\nvalue: [[[[...]]]] : tensor<1x24x1x1xf32>", shape = ellipse, style = filled];
          v121 [fillcolor = "0.000000 1.0 1.0", label = "tosa.const : (tensor<1x88x1x1xf32>)\n\nvalue: [[[[...]]]] : tensor<1x88x1x1xf32>", shape = ellipse, style = filled];
          v122 [fillcolor = "0.000000 1.0 1.0", label = "tosa.const : (tensor<1x88x1x1xf32>)\n\nvalue: [[[[...]]]] : tensor<1x88x1x1xf32>", shape = ellipse, style = filled];
          v123 [fillcolor = "0.000000 1.0 1.0", label = "tosa.const : (tensor<1x88x1x1xf32>)\n\nvalue: [[[[...]]]] : tensor<1x88x1x1xf32>", shape = ellipse, style = filled];
          v124 [fillcolor = "0.000000 1.0 1.0", label = "tosa.const : (tensor<1x88x1x1xf32>)\n\nvalue: [[[[...]]]] : tensor<1x88x1x1xf32>", shape = ellipse, style = filled];
          v125 [fillcolor = "0.000000 1.0 1.0", label = "tosa.const : (tensor<1x88x1x1xf32>)\n\nvalue: [[[[...]]]] : tensor<1x88x1x1xf32>", shape = ellipse, style = filled];
          v126 [fillcolor = "0.000000 1.0 1.0", label = "tosa.const : (tensor<1x88x1x1xf32>)\n\nvalue: [[[[...]]]] : tensor<1x88x1x1xf32>", shape = ellipse, style = filled];
          v127 [fillcolor = "0.000000 1.0 1.0", label = "tosa.const : (tensor<1x24x1x1xf32>)\n\nvalue: [[[[...]]]] : tensor<1x24x1x1xf32>", shape = ellipse, style = filled];
          v128 [fillcolor = "0.000000 1.0 1.0", label = "tosa.const : (tensor<1x24x1x1xf32>)\n\nvalue: [[[[...]]]] : tensor<1x24x1x1xf32>", shape = ellipse, style = filled];
          v129 [fillcolor = "0.000000 1.0 1.0", label = "tosa.const : (tensor<1x24x1x1xf32>)\n\nvalue: [[[[...]]]] : tensor<1x24x1x1xf32>", shape = ellipse, style = filled];
          v130 [fillcolor = "0.000000 1.0 1.0", label = "tosa.const : (tensor<1x96x1x1xf32>)\n\nvalue: [[[[...]]]] : tensor<1x96x1x1xf32>", shape = ellipse, style = filled];
          v131 [fillcolor = "0.000000 1.0 1.0", label = "tosa.const : (tensor<1x96x1x1xf32>)\n\nvalue: [[[[...]]]] : tensor<1x96x1x1xf32>", shape = ellipse, style = filled];
          v132 [fillcolor = "0.000000 1.0 1.0", label = "tosa.const : (tensor<1x96x1x1xf32>)\n\nvalue: [[[[...]]]] : tensor<1x96x1x1xf32>", shape = ellipse, style = filled];
          v133 [fillcolor = "0.000000 1.0 1.0", label = "tosa.const : (tensor<1x96x1x1xf32>)\n\nvalue: [[[[...]]]] : tensor<1x96x1x1xf32>", shape = ellipse, style = filled];
          v134 [fillcolor = "0.000000 1.0 1.0", label = "tosa.const : (tensor<1x96x1x1xf32>)\n\nvalue: [[[[...]]]] : tensor<1x96x1x1xf32>", shape = ellipse, style = filled];
          v135 [fillcolor = "0.000000 1.0 1.0", label = "tosa.const : (tensor<1x96x1x1xf32>)\n\nvalue: [[[[...]]]] : tensor<1x96x1x1xf32>", shape = ellipse, style = filled];
          v136 [fillcolor = "0.000000 1.0 1.0", label = "tosa.const : (tensor<1x40x1x1xf32>)\n\nvalue: [[[[...]]]] : tensor<1x40x1x1xf32>", shape = ellipse, style = filled];
          v137 [fillcolor = "0.000000 1.0 1.0", label = "tosa.const : (tensor<1x40x1x1xf32>)\n\nvalue: [[[[...]]]] : tensor<1x40x1x1xf32>", shape = ellipse, style = filled];
          v138 [fillcolor = "0.000000 1.0 1.0", label = "tosa.const : (tensor<1x40x1x1xf32>)\n\nvalue: [[[[...]]]] : tensor<1x40x1x1xf32>", shape = ellipse, style = filled];
          v139 [fillcolor = "0.000000 1.0 1.0", label = "tosa.const : (tensor<1x240x1x1xf32...)\n\nvalue: [[[[...]]]] : tensor<1x240x1x1xf32>", shape = ellipse, style = filled];
          v140 [fillcolor = "0.000000 1.0 1.0", label = "tosa.const : (tensor<1x240x1x1xf32...)\n\nvalue: [[[[...]]]] : tensor<1x240x1x1xf32>", shape = ellipse, style = filled];
          v141 [fillcolor = "0.000000 1.0 1.0", label = "tosa.const : (tensor<1x240x1x1xf32...)\n\nvalue: [[[[...]]]] : tensor<1x240x1x1xf32>", shape = ellipse, style = filled];
          v142 [fillcolor = "0.000000 1.0 1.0", label = "tosa.const : (tensor<1x240x1x1xf32...)\n\nvalue: [[[[...]]]] : tensor<1x240x1x1xf32>", shape = ellipse, style = filled];
          v143 [fillcolor = "0.000000 1.0 1.0", label = "tosa.const : (tensor<1x240x1x1xf32...)\n\nvalue: [[[[...]]]] : tensor<1x240x1x1xf32>", shape = ellipse, style = filled];
          v144 [fillcolor = "0.000000 1.0 1.0", label = "tosa.const : (tensor<1x240x1x1xf32...)\n\nvalue: [[[[...]]]] : tensor<1x240x1x1xf32>", shape = ellipse, style = filled];
          v145 [fillcolor = "0.000000 1.0 1.0", label = "tosa.const : (tensor<1x40x1x1xf32>)\n\nvalue: [[[[...]]]] : tensor<1x40x1x1xf32>", shape = ellipse, style = filled];
          v146 [fillcolor = "0.000000 1.0 1.0", label = "tosa.const : (tensor<1x40x1x1xf32>)\n\nvalue: [[[[...]]]] : tensor<1x40x1x1xf32>", shape = ellipse, style = filled];
          v147 [fillcolor = "0.000000 1.0 1.0", label = "tosa.const : (tensor<1x40x1x1xf32>)\n\nvalue: [[[[...]]]] : tensor<1x40x1x1xf32>", shape = ellipse, style = filled];
          v148 [fillcolor = "0.000000 1.0 1.0", label = "tosa.const : (tensor<1x240x1x1xf32...)\n\nvalue: [[[[...]]]] : tensor<1x240x1x1xf32>", shape = ellipse, style = filled];
          v149 [fillcolor = "0.000000 1.0 1.0", label = "tosa.const : (tensor<1x240x1x1xf32...)\n\nvalue: [[[[...]]]] : tensor<1x240x1x1xf32>", shape = ellipse, style = filled];
          v150 [fillcolor = "0.000000 1.0 1.0", label = "tosa.const : (tensor<1x240x1x1xf32...)\n\nvalue: [[[[...]]]] : tensor<1x240x1x1xf32>", shape = ellipse, style = filled];
          v151 [fillcolor = "0.000000 1.0 1.0", label = "tosa.const : (tensor<1x240x1x1xf32...)\n\nvalue: [[[[...]]]] : tensor<1x240x1x1xf32>", shape = ellipse, style = filled];
          v152 [fillcolor = "0.000000 1.0 1.0", label = "tosa.const : (tensor<1x240x1x1xf32...)\n\nvalue: [[[[...]]]] : tensor<1x240x1x1xf32>", shape = ellipse, style = filled];
          v153 [fillcolor = "0.000000 1.0 1.0", label = "tosa.const : (tensor<1x240x1x1xf32...)\n\nvalue: [[[[...]]]] : tensor<1x240x1x1xf32>", shape = ellipse, style = filled];
          v154 [fillcolor = "0.000000 1.0 1.0", label = "tosa.const : (tensor<1x40x1x1xf32>)\n\nvalue: [[[[...]]]] : tensor<1x40x1x1xf32>", shape = ellipse, style = filled];
          v155 [fillcolor = "0.000000 1.0 1.0", label = "tosa.const : (tensor<1x40x1x1xf32>)\n\nvalue: [[[[...]]]] : tensor<1x40x1x1xf32>", shape = ellipse, style = filled];
          v156 [fillcolor = "0.000000 1.0 1.0", label = "tosa.const : (tensor<1x40x1x1xf32>)\n\nvalue: [[[[...]]]] : tensor<1x40x1x1xf32>", shape = ellipse, style = filled];
          v157 [fillcolor = "0.000000 1.0 1.0", label = "tosa.const : (tensor<1x120x1x1xf32...)\n\nvalue: [[[[...]]]] : tensor<1x120x1x1xf32>", shape = ellipse, style = filled];
          v158 [fillcolor = "0.000000 1.0 1.0", label = "tosa.const : (tensor<1x120x1x1xf32...)\n\nvalue: [[[[...]]]] : tensor<1x120x1x1xf32>", shape = ellipse, style = filled];
          v159 [fillcolor = "0.000000 1.0 1.0", label = "tosa.const : (tensor<1x120x1x1xf32...)\n\nvalue: [[[[...]]]] : tensor<1x120x1x1xf32>", shape = ellipse, style = filled];
          v160 [fillcolor = "0.000000 1.0 1.0", label = "tosa.const : (tensor<1x120x1x1xf32...)\n\nvalue: [[[[...]]]] : tensor<1x120x1x1xf32>", shape = ellipse, style = filled];
          v161 [fillcolor = "0.000000 1.0 1.0", label = "tosa.const : (tensor<1x120x1x1xf32...)\n\nvalue: [[[[...]]]] : tensor<1x120x1x1xf32>", shape = ellipse, style = filled];
          v162 [fillcolor = "0.000000 1.0 1.0", label = "tosa.const : (tensor<1x120x1x1xf32...)\n\nvalue: [[[[...]]]] : tensor<1x120x1x1xf32>", shape = ellipse, style = filled];
          v163 [fillcolor = "0.000000 1.0 1.0", label = "tosa.const : (tensor<1x48x1x1xf32>)\n\nvalue: [[[[...]]]] : tensor<1x48x1x1xf32>", shape = ellipse, style = filled];
          v164 [fillcolor = "0.000000 1.0 1.0", label = "tosa.const : (tensor<1x48x1x1xf32>)\n\nvalue: [[[[...]]]] : tensor<1x48x1x1xf32>", shape = ellipse, style = filled];
          v165 [fillcolor = "0.000000 1.0 1.0", label = "tosa.const : (tensor<1x48x1x1xf32>)\n\nvalue: [[[[...]]]] : tensor<1x48x1x1xf32>", shape = ellipse, style = filled];
          v166 [fillcolor = "0.000000 1.0 1.0", label = "tosa.const : (tensor<1x144x1x1xf32...)\n\nvalue: [[[[...]]]] : tensor<1x144x1x1xf32>", shape = ellipse, style = filled];
          v167 [fillcolor = "0.000000 1.0 1.0", label = "tosa.const : (tensor<1x144x1x1xf32...)\n\nvalue: [[[[...]]]] : tensor<1x144x1x1xf32>", shape = ellipse, style = filled];
          v168 [fillcolor = "0.000000 1.0 1.0", label = "tosa.const : (tensor<1x144x1x1xf32...)\n\nvalue: [[[[...]]]] : tensor<1x144x1x1xf32>", shape = ellipse, style = filled];
          v169 [fillcolor = "0.000000 1.0 1.0", label = "tosa.const : (tensor<1x144x1x1xf32...)\n\nvalue: [[[[...]]]] : tensor<1x144x1x1xf32>", shape = ellipse, style = filled];
          v170 [fillcolor = "0.000000 1.0 1.0", label = "tosa.const : (tensor<1x144x1x1xf32...)\n\nvalue: [[[[...]]]] : tensor<1x144x1x1xf32>", shape = ellipse, style = filled];
          v171 [fillcolor = "0.000000 1.0 1.0", label = "tosa.const : (tensor<1x144x1x1xf32...)\n\nvalue: [[[[...]]]] : tensor<1x144x1x1xf32>", shape = ellipse, style = filled];
          v172 [fillcolor = "0.000000 1.0 1.0", label = "tosa.const : (tensor<1x48x1x1xf32>)\n\nvalue: [[[[...]]]] : tensor<1x48x1x1xf32>", shape = ellipse, style = filled];
          v173 [fillcolor = "0.000000 1.0 1.0", label = "tosa.const : (tensor<1x48x1x1xf32>)\n\nvalue: [[[[...]]]] : tensor<1x48x1x1xf32>", shape = ellipse, style = filled];
          v174 [fillcolor = "0.000000 1.0 1.0", label = "tosa.const : (tensor<1x48x1x1xf32>)\n\nvalue: [[[[...]]]] : tensor<1x48x1x1xf32>", shape = ellipse, style = filled];
          v175 [fillcolor = "0.000000 1.0 1.0", label = "tosa.const : (tensor<1x288x1x1xf32...)\n\nvalue: [[[[...]]]] : tensor<1x288x1x1xf32>", shape = ellipse, style = filled];
          v176 [fillcolor = "0.000000 1.0 1.0", label = "tosa.const : (tensor<1x288x1x1xf32...)\n\nvalue: [[[[...]]]] : tensor<1x288x1x1xf32>", shape = ellipse, style = filled];
          v177 [fillcolor = "0.000000 1.0 1.0", label = "tosa.const : (tensor<1x288x1x1xf32...)\n\nvalue: [[[[...]]]] : tensor<1x288x1x1xf32>", shape = ellipse, style = filled];
          v178 [fillcolor = "0.000000 1.0 1.0", label = "tosa.const : (tensor<1x288x1x1xf32...)\n\nvalue: [[[[...]]]] : tensor<1x288x1x1xf32>", shape = ellipse, style = filled];
          v179 [fillcolor = "0.000000 1.0 1.0", label = "tosa.const : (tensor<1x288x1x1xf32...)\n\nvalue: [[[[...]]]] : tensor<1x288x1x1xf32>", shape = ellipse, style = filled];
          v180 [fillcolor = "0.000000 1.0 1.0", label = "tosa.const : (tensor<1x288x1x1xf32...)\n\nvalue: [[[[...]]]] : tensor<1x288x1x1xf32>", shape = ellipse, style = filled];
          v181 [fillcolor = "0.000000 1.0 1.0", label = "tosa.const : (tensor<1x96x1x1xf32>)\n\nvalue: [[[[...]]]] : tensor<1x96x1x1xf32>", shape = ellipse, style = filled];
          v182 [fillcolor = "0.000000 1.0 1.0", label = "tosa.const : (tensor<1x96x1x1xf32>)\n\nvalue: [[[[...]]]] : tensor<1x96x1x1xf32>", shape = ellipse, style = filled];
          v183 [fillcolor = "0.000000 1.0 1.0", label = "tosa.const : (tensor<1x96x1x1xf32>)\n\nvalue: [[[[...]]]] : tensor<1x96x1x1xf32>", shape = ellipse, style = filled];
          v184 [fillcolor = "0.000000 1.0 1.0", label = "tosa.const : (tensor<1x576x1x1xf32...)\n\nvalue: [[[[...]]]] : tensor<1x576x1x1xf32>", shape = ellipse, style = filled];
          v185 [fillcolor = "0.000000 1.0 1.0", label = "tosa.const : (tensor<1x576x1x1xf32...)\n\nvalue: [[[[...]]]] : tensor<1x576x1x1xf32>", shape = ellipse, style = filled];
          v186 [fillcolor = "0.000000 1.0 1.0", label = "tosa.const : (tensor<1x576x1x1xf32...)\n\nvalue: [[[[...]]]] : tensor<1x576x1x1xf32>", shape = ellipse, style = filled];
          v187 [fillcolor = "0.000000 1.0 1.0", label = "tosa.const : (tensor<1x576x1x1xf32...)\n\nvalue: [[[[...]]]] : tensor<1x576x1x1xf32>", shape = ellipse, style = filled];
          v188 [fillcolor = "0.000000 1.0 1.0", label = "tosa.const : (tensor<1x576x1x1xf32...)\n\nvalue: [[[[...]]]] : tensor<1x576x1x1xf32>", shape = ellipse, style = filled];
          v189 [fillcolor = "0.000000 1.0 1.0", label = "tosa.const : (tensor<1x576x1x1xf32...)\n\nvalue: [[[[...]]]] : tensor<1x576x1x1xf32>", shape = ellipse, style = filled];
          v190 [fillcolor = "0.000000 1.0 1.0", label = "tosa.const : (tensor<1x96x1x1xf32>)\n\nvalue: [[[[...]]]] : tensor<1x96x1x1xf32>", shape = ellipse, style = filled];
          v191 [fillcolor = "0.000000 1.0 1.0", label = "tosa.const : (tensor<1x96x1x1xf32>)\n\nvalue: [[[[...]]]] : tensor<1x96x1x1xf32>", shape = ellipse, style = filled];
          v192 [fillcolor = "0.000000 1.0 1.0", label = "tosa.const : (tensor<1x96x1x1xf32>)\n\nvalue: [[[[...]]]] : tensor<1x96x1x1xf32>", shape = ellipse, style = filled];
          v193 [fillcolor = "0.000000 1.0 1.0", label = "tosa.const : (tensor<1x576x1x1xf32...)\n\nvalue: [[[[...]]]] : tensor<1x576x1x1xf32>", shape = ellipse, style = filled];
          v194 [fillcolor = "0.000000 1.0 1.0", label = "tosa.const : (tensor<1x576x1x1xf32...)\n\nvalue: [[[[...]]]] : tensor<1x576x1x1xf32>", shape = ellipse, style = filled];
          v195 [fillcolor = "0.000000 1.0 1.0", label = "tosa.const : (tensor<1x576x1x1xf32...)\n\nvalue: [[[[...]]]] : tensor<1x576x1x1xf32>", shape = ellipse, style = filled];
          v196 [fillcolor = "0.000000 1.0 1.0", label = "tosa.const : (tensor<1x576x1x1xf32...)\n\nvalue: [[[[...]]]] : tensor<1x576x1x1xf32>", shape = ellipse, style = filled];
          v197 [fillcolor = "0.000000 1.0 1.0", label = "tosa.const : (tensor<1x576x1x1xf32...)\n\nvalue: [[[[...]]]] : tensor<1x576x1x1xf32>", shape = ellipse, style = filled];
          v198 [fillcolor = "0.000000 1.0 1.0", label = "tosa.const : (tensor<1x576x1x1xf32...)\n\nvalue: [[[[...]]]] : tensor<1x576x1x1xf32>", shape = ellipse, style = filled];
          v199 [fillcolor = "0.000000 1.0 1.0", label = "tosa.const : (tensor<1x96x1x1xf32>)\n\nvalue: [[[[...]]]] : tensor<1x96x1x1xf32>", shape = ellipse, style = filled];
          v200 [fillcolor = "0.000000 1.0 1.0", label = "tosa.const : (tensor<1x96x1x1xf32>)\n\nvalue: [[[[...]]]] : tensor<1x96x1x1xf32>", shape = ellipse, style = filled];
          v201 [fillcolor = "0.000000 1.0 1.0", label = "tosa.const : (tensor<1x96x1x1xf32>)\n\nvalue: [[[[...]]]] : tensor<1x96x1x1xf32>", shape = ellipse, style = filled];
          v202 [fillcolor = "0.000000 1.0 1.0", label = "tosa.const : (tensor<1x576x1x1xf32...)\n\nvalue: [[[[...]]]] : tensor<1x576x1x1xf32>", shape = ellipse, style = filled];
          v203 [fillcolor = "0.000000 1.0 1.0", label = "tosa.const : (tensor<1x576x1x1xf32...)\n\nvalue: [[[[...]]]] : tensor<1x576x1x1xf32>", shape = ellipse, style = filled];
          v204 [fillcolor = "0.000000 1.0 1.0", label = "tosa.const : (tensor<1x576x1x1xf32...)\n\nvalue: [[[[...]]]] : tensor<1x576x1x1xf32>", shape = ellipse, style = filled];
          v205 [fillcolor = "0.000000 1.0 1.0", label = "tosa.const : (tensor<8x1x1x16xf32>)\n\nvalue: [[[[...]]]] : tensor<8x1x1x16xf32>", shape = ellipse, style = filled];
          v206 [fillcolor = "0.000000 1.0 1.0", label = "tosa.const : (tensor<16x1x1x8xf32>)\n\nvalue: [[[[...]]]] : tensor<16x1x1x8xf32>", shape = ellipse, style = filled];
          v207 [fillcolor = "0.000000 1.0 1.0", label = "tosa.const : (tensor<16x1x1x16xf32...)\n\nvalue: [[[[...]]]] : tensor<16x1x1x16xf32>", shape = ellipse, style = filled];
          v208 [fillcolor = "0.000000 1.0 1.0", label = "tosa.const : (tensor<72x1x1x16xf32...)\n\nvalue: [[[[...]]]] : tensor<72x1x1x16xf32>", shape = ellipse, style = filled];
          v209 [fillcolor = "0.000000 1.0 1.0", label = "tosa.const : (tensor<24x1x1x72xf32...)\n\nvalue: [[[[...]]]] : tensor<24x1x1x72xf32>", shape = ellipse, style = filled];
          v210 [fillcolor = "0.000000 1.0 1.0", label = "tosa.const : (tensor<88x1x1x24xf32...)\n\nvalue: [[[[...]]]] : tensor<88x1x1x24xf32>", shape = ellipse, style = filled];
          v211 [fillcolor = "0.000000 1.0 1.0", label = "tosa.const : (tensor<24x1x1x88xf32...)\n\nvalue: [[[[...]]]] : tensor<24x1x1x88xf32>", shape = ellipse, style = filled];
          v212 [fillcolor = "0.000000 1.0 1.0", label = "tosa.const : (tensor<96x1x1x24xf32...)\n\nvalue: [[[[...]]]] : tensor<96x1x1x24xf32>", shape = ellipse, style = filled];
          v213 [fillcolor = "0.000000 1.0 1.0", label = "tosa.const : (tensor<24x1x1x96xf32...)\n\nvalue: [[[[...]]]] : tensor<24x1x1x96xf32>", shape = ellipse, style = filled];
          v214 [fillcolor = "0.000000 1.0 1.0", label = "tosa.const : (tensor<96x1x1x24xf32...)\n\nvalue: [[[[...]]]] : tensor<96x1x1x24xf32>", shape = ellipse, style = filled];
          v215 [fillcolor = "0.000000 1.0 1.0", label = "tosa.const : (tensor<40x1x1x96xf32...)\n\nvalue: [[[[...]]]] : tensor<40x1x1x96xf32>", shape = ellipse, style = filled];
          v216 [fillcolor = "0.000000 1.0 1.0", label = "tosa.const : (tensor<240x1x1x40xf3...)\n\nvalue: [[[[...]]]] : tensor<240x1x1x40xf32>", shape = ellipse, style = filled];
          v217 [fillcolor = "0.000000 1.0 1.0", label = "tosa.const : (tensor<64x1x1x240xf3...)\n\nvalue: [[[[...]]]] : tensor<64x1x1x240xf32>", shape = ellipse, style = filled];
          v218 [fillcolor = "0.000000 1.0 1.0", label = "tosa.const : (tensor<240x1x1x64xf3...)\n\nvalue: [[[[...]]]] : tensor<240x1x1x64xf32>", shape = ellipse, style = filled];
          v219 [fillcolor = "0.000000 1.0 1.0", label = "tosa.const : (tensor<40x1x1x240xf3...)\n\nvalue: [[[[...]]]] : tensor<40x1x1x240xf32>", shape = ellipse, style = filled];
          v220 [fillcolor = "0.000000 1.0 1.0", label = "tosa.const : (tensor<240x1x1x40xf3...)\n\nvalue: [[[[...]]]] : tensor<240x1x1x40xf32>", shape = ellipse, style = filled];
          v221 [fillcolor = "0.000000 1.0 1.0", label = "tosa.const : (tensor<64x1x1x240xf3...)\n\nvalue: [[[[...]]]] : tensor<64x1x1x240xf32>", shape = ellipse, style = filled];
          v222 [fillcolor = "0.000000 1.0 1.0", label = "tosa.const : (tensor<240x1x1x64xf3...)\n\nvalue: [[[[...]]]] : tensor<240x1x1x64xf32>", shape = ellipse, style = filled];
          v223 [fillcolor = "0.000000 1.0 1.0", label = "tosa.const : (tensor<40x1x1x240xf3...)\n\nvalue: [[[[...]]]] : tensor<40x1x1x240xf32>", shape = ellipse, style = filled];
          v224 [fillcolor = "0.000000 1.0 1.0", label = "tosa.const : (tensor<120x1x1x40xf3...)\n\nvalue: [[[[...]]]] : tensor<120x1x1x40xf32>", shape = ellipse, style = filled];
          v225 [fillcolor = "0.000000 1.0 1.0", label = "tosa.const : (tensor<32x1x1x120xf3...)\n\nvalue: [[[[...]]]] : tensor<32x1x1x120xf32>", shape = ellipse, style = filled];
          v226 [fillcolor = "0.000000 1.0 1.0", label = "tosa.const : (tensor<120x1x1x32xf3...)\n\nvalue: [[[[...]]]] : tensor<120x1x1x32xf32>", shape = ellipse, style = filled];
          v227 [fillcolor = "0.000000 1.0 1.0", label = "tosa.const : (tensor<48x1x1x120xf3...)\n\nvalue: [[[[...]]]] : tensor<48x1x1x120xf32>", shape = ellipse, style = filled];
          v228 [fillcolor = "0.000000 1.0 1.0", label = "tosa.const : (tensor<144x1x1x48xf3...)\n\nvalue: [[[[...]]]] : tensor<144x1x1x48xf32>", shape = ellipse, style = filled];
          v229 [fillcolor = "0.000000 1.0 1.0", label = "tosa.const : (tensor<40x1x1x144xf3...)\n\nvalue: [[[[...]]]] : tensor<40x1x1x144xf32>", shape = ellipse, style = filled];
          v230 [fillcolor = "0.000000 1.0 1.0", label = "tosa.const : (tensor<144x1x1x40xf3...)\n\nvalue: [[[[...]]]] : tensor<144x1x1x40xf32>", shape = ellipse, style = filled];
          v231 [fillcolor = "0.000000 1.0 1.0", label = "tosa.const : (tensor<48x1x1x144xf3...)\n\nvalue: [[[[...]]]] : tensor<48x1x1x144xf32>", shape = ellipse, style = filled];
          v232 [fillcolor = "0.000000 1.0 1.0", label = "tosa.const : (tensor<288x1x1x48xf3...)\n\nvalue: [[[[...]]]] : tensor<288x1x1x48xf32>", shape = ellipse, style = filled];
          v233 [fillcolor = "0.000000 1.0 1.0", label = "tosa.const : (tensor<72x1x1x288xf3...)\n\nvalue: [[[[...]]]] : tensor<72x1x1x288xf32>", shape = ellipse, style = filled];
          v234 [fillcolor = "0.000000 1.0 1.0", label = "tosa.const : (tensor<288x1x1x72xf3...)\n\nvalue: [[[[...]]]] : tensor<288x1x1x72xf32>", shape = ellipse, style = filled];
          v235 [fillcolor = "0.000000 1.0 1.0", label = "tosa.const : (tensor<96x1x1x288xf3...)\n\nvalue: [[[[...]]]] : tensor<96x1x1x288xf32>", shape = ellipse, style = filled];
          v236 [fillcolor = "0.000000 1.0 1.0", label = "tosa.const : (tensor<576x1x1x96xf3...)\n\nvalue: [[[[...]]]] : tensor<576x1x1x96xf32>", shape = ellipse, style = filled];
          v237 [fillcolor = "0.000000 1.0 1.0", label = "tosa.const : (tensor<144x1x1x576xf...)\n\nvalue: [[[[...]]]] : tensor<144x1x1x576xf32>", shape = ellipse, style = filled];
          v238 [fillcolor = "0.000000 1.0 1.0", label = "tosa.const : (tensor<576x1x1x144xf...)\n\nvalue: [[[[...]]]] : tensor<576x1x1x144xf32>", shape = ellipse, style = filled];
          v239 [fillcolor = "0.000000 1.0 1.0", label = "tosa.const : (tensor<96x1x1x576xf3...)\n\nvalue: [[[[...]]]] : tensor<96x1x1x576xf32>", shape = ellipse, style = filled];
          v240 [fillcolor = "0.000000 1.0 1.0", label = "tosa.const : (tensor<576x1x1x96xf3...)\n\nvalue: [[[[...]]]] : tensor<576x1x1x96xf32>", shape = ellipse, style = filled];
          v241 [fillcolor = "0.000000 1.0 1.0", label = "tosa.const : (tensor<144x1x1x576xf...)\n\nvalue: [[[[...]]]] : tensor<144x1x1x576xf32>", shape = ellipse, style = filled];
          v242 [fillcolor = "0.000000 1.0 1.0", label = "tosa.const : (tensor<576x1x1x144xf...)\n\nvalue: [[[[...]]]] : tensor<576x1x1x144xf32>", shape = ellipse, style = filled];
          v243 [fillcolor = "0.000000 1.0 1.0", label = "tosa.const : (tensor<96x1x1x576xf3...)\n\nvalue: [[[[...]]]] : tensor<96x1x1x576xf32>", shape = ellipse, style = filled];
          v244 [fillcolor = "0.000000 1.0 1.0", label = "tosa.const : (tensor<576x1x1x96xf3...)\n\nvalue: [[[[...]]]] : tensor<576x1x1x96xf32>", shape = ellipse, style = filled];
          v245 [fillcolor = "0.058824 1.0 1.0", label = "tosa.transpose : (tensor<4x32x32x3xf32...)\n", shape = ellipse, style = filled];
          v246 [fillcolor = "0.058824 1.0 1.0", label = "tosa.transpose : (tensor<16x3x3x3xf32>)\n", shape = ellipse, style = filled];
          v247 [fillcolor = "0.117647 1.0 1.0", label = "tosa.conv2d : (tensor<4x16x16x16xf3...)\n\ndilation: array<i64: 1, 1>\npad: array<i64: 1, 1, 1, ...\nstride: array<i64: 2, 2>", shape = ellipse, style = filled];
          v248 [fillcolor = "0.058824 1.0 1.0", label = "tosa.transpose : (tensor<4x16x16x16xf3...)\n", shape = ellipse, style = filled];
          v249 [fillcolor = "0.176471 1.0 1.0", label = "tosa.sub : (tensor<4x16x16x16xf3...)\n", shape = ellipse, style = filled];
          v250 [fillcolor = "0.235294 1.0 1.0", label = "tosa.add : (tensor<16x1x1xf32>)\n", shape = ellipse, style = filled];
          v251 [fillcolor = "0.294118 1.0 1.0", label = "tosa.rsqrt : (tensor<16x1x1xf32>)\n", shape = ellipse, style = filled];
          v252 [fillcolor = "0.352941 1.0 1.0", label = "tosa.reshape : (tensor<1x16x1x1xf32>)\n\nnew_shape: array<i64: 1, 16, 1,...", shape = ellipse, style = filled];
          v253 [fillcolor = "0.411765 1.0 1.0", label = "tosa.mul : (tensor<4x16x16x16xf3...)\n\nshift: 0 : i8", shape = ellipse, style = filled];
          v254 [fillcolor = "0.411765 1.0 1.0", label = "tosa.mul : (tensor<4x16x16x16xf3...)\n\nshift: 0 : i8", shape = ellipse, style = filled];
          v255 [fillcolor = "0.235294 1.0 1.0", label = "tosa.add : (tensor<4x16x16x16xf3...)\n", shape = ellipse, style = filled];
          v256 [fillcolor = "0.235294 1.0 1.0", label = "tosa.add : (tensor<4x16x16x16xf3...)\n", shape = ellipse, style = filled];
          v257 [fillcolor = "0.470588 1.0 1.0", label = "tosa.clamp : (tensor<4x16x16x16xf3...)\n\nmax_fp: 3.40282347E+38 : f32\nmax_int: 2147483647 : i64\nmin_fp: 0.000000e+00 : f32\nmin_int: 0 : i64", shape = ellipse, style = filled];
          v258 [fillcolor = "0.529412 1.0 1.0", label = "tosa.minimum : (tensor<4x16x16x16xf3...)\n", shape = ellipse, style = filled];
          v259 [fillcolor = "0.411765 1.0 1.0", label = "tosa.mul : (tensor<4x16x16x16xf3...)\n\nshift: 0 : i8", shape = ellipse, style = filled];
          v260 [fillcolor = "0.411765 1.0 1.0", label = "tosa.mul : (tensor<4x16x16x16xf3...)\n\nshift: 0 : i8", shape = ellipse, style = filled];
          v261 [fillcolor = "0.058824 1.0 1.0", label = "tosa.transpose : (tensor<4x16x16x16xf3...)\n", shape = ellipse, style = filled];
          v262 [fillcolor = "0.058824 1.0 1.0", label = "tosa.transpose : (tensor<3x3x16x1xf32>)\n", shape = ellipse, style = filled];
          v263 [fillcolor = "0.588235 1.0 1.0", label = "tosa.depthwise_conv2d : (tensor<4x8x8x16xf32>)\n\ndilation: array<i64: 1, 1>\npad: array<i64: 1, 1, 1, ...\nstride: array<i64: 2, 2>", shape = ellipse, style = filled];
          v264 [fillcolor = "0.058824 1.0 1.0", label = "tosa.transpose : (tensor<4x16x8x8xf32>)\n", shape = ellipse, style = filled];
          v265 [fillcolor = "0.176471 1.0 1.0", label = "tosa.sub : (tensor<4x16x8x8xf32>)\n", shape = ellipse, style = filled];
          v266 [fillcolor = "0.235294 1.0 1.0", label = "tosa.add : (tensor<16x1x1xf32>)\n", shape = ellipse, style = filled];
          v267 [fillcolor = "0.294118 1.0 1.0", label = "tosa.rsqrt : (tensor<16x1x1xf32>)\n", shape = ellipse, style = filled];
          v268 [fillcolor = "0.352941 1.0 1.0", label = "tosa.reshape : (tensor<1x16x1x1xf32>)\n\nnew_shape: array<i64: 1, 16, 1,...", shape = ellipse, style = filled];
          v269 [fillcolor = "0.411765 1.0 1.0", label = "tosa.mul : (tensor<4x16x8x8xf32>)\n\nshift: 0 : i8", shape = ellipse, style = filled];
          v270 [fillcolor = "0.411765 1.0 1.0", label = "tosa.mul : (tensor<4x16x8x8xf32>)\n\nshift: 0 : i8", shape = ellipse, style = filled];
          v271 [fillcolor = "0.235294 1.0 1.0", label = "tosa.add : (tensor<4x16x8x8xf32>)\n", shape = ellipse, style = filled];
          v272 [fillcolor = "0.470588 1.0 1.0", label = "tosa.clamp : (tensor<4x16x8x8xf32>)\n\nmax_fp: 3.40282347E+38 : f32\nmax_int: 2147483647 : i64\nmin_fp: 0.000000e+00 : f32\nmin_int: 0 : i64", shape = ellipse, style = filled];
          v273 [fillcolor = "0.058824 1.0 1.0", label = "tosa.transpose : (tensor<4x8x8x16xf32>)\n", shape = ellipse, style = filled];
          v274 [fillcolor = "0.647059 1.0 1.0", label = "tosa.avg_pool2d : (tensor<4x1x1x16xf32>)\n\nacc_type: f32\nkernel: array<i64: 8, 8>\npad: array<i64: 0, 0, 0, ...\nstride: array<i64: 8, 8>", shape = ellipse, style = filled];
          v275 [fillcolor = "0.117647 1.0 1.0", label = "tosa.conv2d : (tensor<4x1x1x8xf32>)\n\ndilation: array<i64: 1, 1>\npad: array<i64: 0, 0, 0, ...\nstride: array<i64: 1, 1>", shape = ellipse, style = filled];
          v276 [fillcolor = "0.352941 1.0 1.0", label = "tosa.reshape : (tensor<4x8x1x1xf32>)\n\nnew_shape: array<i64: 4, 8, 1, ...", shape = ellipse, style = filled];
          v277 [fillcolor = "0.470588 1.0 1.0", label = "tosa.clamp : (tensor<4x8x1x1xf32>)\n\nmax_fp: 3.40282347E+38 : f32\nmax_int: 2147483647 : i64\nmin_fp: 0.000000e+00 : f32\nmin_int: 0 : i64", shape = ellipse, style = filled];
          v278 [fillcolor = "0.352941 1.0 1.0", label = "tosa.reshape : (tensor<4x1x1x8xf32>)\n\nnew_shape: array<i64: 4, 1, 1, ...", shape = ellipse, style = filled];
          v279 [fillcolor = "0.117647 1.0 1.0", label = "tosa.conv2d : (tensor<4x1x1x16xf32>)\n\ndilation: array<i64: 1, 1>\npad: array<i64: 0, 0, 0, ...\nstride: array<i64: 1, 1>", shape = ellipse, style = filled];
          v280 [fillcolor = "0.352941 1.0 1.0", label = "tosa.reshape : (tensor<4x16x1x1xf32>)\n\nnew_shape: array<i64: 4, 16, 1,...", shape = ellipse, style = filled];
          v281 [fillcolor = "0.235294 1.0 1.0", label = "tosa.add : (tensor<4x16x1x1xf32>)\n", shape = ellipse, style = filled];
          v282 [fillcolor = "0.411765 1.0 1.0", label = "tosa.mul : (tensor<4x16x1x1xf32>)\n\nshift: 0 : i8", shape = ellipse, style = filled];
          v283 [fillcolor = "0.529412 1.0 1.0", label = "tosa.minimum : (tensor<4x16x1x1xf32>)\n", shape = ellipse, style = filled];
          v284 [fillcolor = "0.705882 1.0 1.0", label = "tosa.maximum : (tensor<4x16x1x1xf32>)\n", shape = ellipse, style = filled];
          v285 [fillcolor = "0.411765 1.0 1.0", label = "tosa.mul : (tensor<4x16x8x8xf32>)\n\nshift: 0 : i8", shape = ellipse, style = filled];
          v286 [fillcolor = "0.058824 1.0 1.0", label = "tosa.transpose : (tensor<4x8x8x16xf32>)\n", shape = ellipse, style = filled];
          v287 [fillcolor = "0.117647 1.0 1.0", label = "tosa.conv2d : (tensor<4x8x8x16xf32>)\n\ndilation: array<i64: 1, 1>\npad: array<i64: 0, 0, 0, ...\nstride: array<i64: 1, 1>", shape = ellipse, style = filled];
          v288 [fillcolor = "0.058824 1.0 1.0", label = "tosa.transpose : (tensor<4x16x8x8xf32>)\n", shape = ellipse, style = filled];
          v289 [fillcolor = "0.176471 1.0 1.0", label = "tosa.sub : (tensor<4x16x8x8xf32>)\n", shape = ellipse, style = filled];
          v290 [fillcolor = "0.235294 1.0 1.0", label = "tosa.add : (tensor<16x1x1xf32>)\n", shape = ellipse, style = filled];
          v291 [fillcolor = "0.294118 1.0 1.0", label = "tosa.rsqrt : (tensor<16x1x1xf32>)\n", shape = ellipse, style = filled];
          v292 [fillcolor = "0.352941 1.0 1.0", label = "tosa.reshape : (tensor<1x16x1x1xf32>)\n\nnew_shape: array<i64: 1, 16, 1,...", shape = ellipse, style = filled];
          v293 [fillcolor = "0.411765 1.0 1.0", label = "tosa.mul : (tensor<4x16x8x8xf32>)\n\nshift: 0 : i8", shape = ellipse, style = filled];
          v294 [fillcolor = "0.411765 1.0 1.0", label = "tosa.mul : (tensor<4x16x8x8xf32>)\n\nshift: 0 : i8", shape = ellipse, style = filled];
          v295 [fillcolor = "0.235294 1.0 1.0", label = "tosa.add : (tensor<4x16x8x8xf32>)\n", shape = ellipse, style = filled];
          v296 [fillcolor = "0.058824 1.0 1.0", label = "tosa.transpose : (tensor<4x8x8x16xf32>)\n", shape = ellipse, style = filled];
          v297 [fillcolor = "0.117647 1.0 1.0", label = "tosa.conv2d : (tensor<4x8x8x72xf32>)\n\ndilation: array<i64: 1, 1>\npad: array<i64: 0, 0, 0, ...\nstride: array<i64: 1, 1>", shape = ellipse, style = filled];
          v298 [fillcolor = "0.058824 1.0 1.0", label = "tosa.transpose : (tensor<4x72x8x8xf32>)\n", shape = ellipse, style = filled];
          v299 [fillcolor = "0.176471 1.0 1.0", label = "tosa.sub : (tensor<4x72x8x8xf32>)\n", shape = ellipse, style = filled];
          v300 [fillcolor = "0.235294 1.0 1.0", label = "tosa.add : (tensor<72x1x1xf32>)\n", shape = ellipse, style = filled];
          v301 [fillcolor = "0.294118 1.0 1.0", label = "tosa.rsqrt : (tensor<72x1x1xf32>)\n", shape = ellipse, style = filled];
          v302 [fillcolor = "0.352941 1.0 1.0", label = "tosa.reshape : (tensor<1x72x1x1xf32>)\n\nnew_shape: array<i64: 1, 72, 1,...", shape = ellipse, style = filled];
          v303 [fillcolor = "0.411765 1.0 1.0", label = "tosa.mul : (tensor<4x72x8x8xf32>)\n\nshift: 0 : i8", shape = ellipse, style = filled];
          v304 [fillcolor = "0.411765 1.0 1.0", label = "tosa.mul : (tensor<4x72x8x8xf32>)\n\nshift: 0 : i8", shape = ellipse, style = filled];
          v305 [fillcolor = "0.235294 1.0 1.0", label = "tosa.add : (tensor<4x72x8x8xf32>)\n", shape = ellipse, style = filled];
          v306 [fillcolor = "0.470588 1.0 1.0", label = "tosa.clamp : (tensor<4x72x8x8xf32>)\n\nmax_fp: 3.40282347E+38 : f32\nmax_int: 2147483647 : i64\nmin_fp: 0.000000e+00 : f32\nmin_int: 0 : i64", shape = ellipse, style = filled];
          v307 [fillcolor = "0.058824 1.0 1.0", label = "tosa.transpose : (tensor<4x8x8x72xf32>)\n", shape = ellipse, style = filled];
          v308 [fillcolor = "0.058824 1.0 1.0", label = "tosa.transpose : (tensor<3x3x72x1xf32>)\n", shape = ellipse, style = filled];
          v309 [fillcolor = "0.588235 1.0 1.0", label = "tosa.depthwise_conv2d : (tensor<4x4x4x72xf32>)\n\ndilation: array<i64: 1, 1>\npad: array<i64: 1, 1, 1, ...\nstride: array<i64: 2, 2>", shape = ellipse, style = filled];
          v310 [fillcolor = "0.058824 1.0 1.0", label = "tosa.transpose : (tensor<4x72x4x4xf32>)\n", shape = ellipse, style = filled];
          v311 [fillcolor = "0.176471 1.0 1.0", label = "tosa.sub : (tensor<4x72x4x4xf32>)\n", shape = ellipse, style = filled];
          v312 [fillcolor = "0.235294 1.0 1.0", label = "tosa.add : (tensor<72x1x1xf32>)\n", shape = ellipse, style = filled];
          v313 [fillcolor = "0.294118 1.0 1.0", label = "tosa.rsqrt : (tensor<72x1x1xf32>)\n", shape = ellipse, style = filled];
          v314 [fillcolor = "0.352941 1.0 1.0", label = "tosa.reshape : (tensor<1x72x1x1xf32>)\n\nnew_shape: array<i64: 1, 72, 1,...", shape = ellipse, style = filled];
          v315 [fillcolor = "0.411765 1.0 1.0", label = "tosa.mul : (tensor<4x72x4x4xf32>)\n\nshift: 0 : i8", shape = ellipse, style = filled];
          v316 [fillcolor = "0.411765 1.0 1.0", label = "tosa.mul : (tensor<4x72x4x4xf32>)\n\nshift: 0 : i8", shape = ellipse, style = filled];
          v317 [fillcolor = "0.235294 1.0 1.0", label = "tosa.add : (tensor<4x72x4x4xf32>)\n", shape = ellipse, style = filled];
          v318 [fillcolor = "0.470588 1.0 1.0", label = "tosa.clamp : (tensor<4x72x4x4xf32>)\n\nmax_fp: 3.40282347E+38 : f32\nmax_int: 2147483647 : i64\nmin_fp: 0.000000e+00 : f32\nmin_int: 0 : i64", shape = ellipse, style = filled];
          v319 [fillcolor = "0.058824 1.0 1.0", label = "tosa.transpose : (tensor<4x4x4x72xf32>)\n", shape = ellipse, style = filled];
          v320 [fillcolor = "0.117647 1.0 1.0", label = "tosa.conv2d : (tensor<4x4x4x24xf32>)\n\ndilation: array<i64: 1, 1>\npad: array<i64: 0, 0, 0, ...\nstride: array<i64: 1, 1>", shape = ellipse, style = filled];
          v321 [fillcolor = "0.058824 1.0 1.0", label = "tosa.transpose : (tensor<4x24x4x4xf32>)\n", shape = ellipse, style = filled];
          v322 [fillcolor = "0.176471 1.0 1.0", label = "tosa.sub : (tensor<4x24x4x4xf32>)\n", shape = ellipse, style = filled];
          v323 [fillcolor = "0.235294 1.0 1.0", label = "tosa.add : (tensor<24x1x1xf32>)\n", shape = ellipse, style = filled];
          v324 [fillcolor = "0.294118 1.0 1.0", label = "tosa.rsqrt : (tensor<24x1x1xf32>)\n", shape = ellipse, style = filled];
          v325 [fillcolor = "0.352941 1.0 1.0", label = "tosa.reshape : (tensor<1x24x1x1xf32>)\n\nnew_shape: array<i64: 1, 24, 1,...", shape = ellipse, style = filled];
          v326 [fillcolor = "0.411765 1.0 1.0", label = "tosa.mul : (tensor<4x24x4x4xf32>)\n\nshift: 0 : i8", shape = ellipse, style = filled];
          v327 [fillcolor = "0.411765 1.0 1.0", label = "tosa.mul : (tensor<4x24x4x4xf32>)\n\nshift: 0 : i8", shape = ellipse, style = filled];
          v328 [fillcolor = "0.235294 1.0 1.0", label = "tosa.add : (tensor<4x24x4x4xf32>)\n", shape = ellipse, style = filled];
          v329 [fillcolor = "0.058824 1.0 1.0", label = "tosa.transpose : (tensor<4x4x4x24xf32>)\n", shape = ellipse, style = filled];
          v330 [fillcolor = "0.117647 1.0 1.0", label = "tosa.conv2d : (tensor<4x4x4x88xf32>)\n\ndilation: array<i64: 1, 1>\npad: array<i64: 0, 0, 0, ...\nstride: array<i64: 1, 1>", shape = ellipse, style = filled];
          v331 [fillcolor = "0.058824 1.0 1.0", label = "tosa.transpose : (tensor<4x88x4x4xf32>)\n", shape = ellipse, style = filled];
          v332 [fillcolor = "0.176471 1.0 1.0", label = "tosa.sub : (tensor<4x88x4x4xf32>)\n", shape = ellipse, style = filled];
          v333 [fillcolor = "0.235294 1.0 1.0", label = "tosa.add : (tensor<88x1x1xf32>)\n", shape = ellipse, style = filled];
          v334 [fillcolor = "0.294118 1.0 1.0", label = "tosa.rsqrt : (tensor<88x1x1xf32>)\n", shape = ellipse, style = filled];
          v335 [fillcolor = "0.352941 1.0 1.0", label = "tosa.reshape : (tensor<1x88x1x1xf32>)\n\nnew_shape: array<i64: 1, 88, 1,...", shape = ellipse, style = filled];
          v336 [fillcolor = "0.411765 1.0 1.0", label = "tosa.mul : (tensor<4x88x4x4xf32>)\n\nshift: 0 : i8", shape = ellipse, style = filled];
          v337 [fillcolor = "0.411765 1.0 1.0", label = "tosa.mul : (tensor<4x88x4x4xf32>)\n\nshift: 0 : i8", shape = ellipse, style = filled];
          v338 [fillcolor = "0.235294 1.0 1.0", label = "tosa.add : (tensor<4x88x4x4xf32>)\n", shape = ellipse, style = filled];
          v339 [fillcolor = "0.470588 1.0 1.0", label = "tosa.clamp : (tensor<4x88x4x4xf32>)\n\nmax_fp: 3.40282347E+38 : f32\nmax_int: 2147483647 : i64\nmin_fp: 0.000000e+00 : f32\nmin_int: 0 : i64", shape = ellipse, style = filled];
          v340 [fillcolor = "0.058824 1.0 1.0", label = "tosa.transpose : (tensor<4x4x4x88xf32>)\n", shape = ellipse, style = filled];
          v341 [fillcolor = "0.058824 1.0 1.0", label = "tosa.transpose : (tensor<3x3x88x1xf32>)\n", shape = ellipse, style = filled];
          v342 [fillcolor = "0.588235 1.0 1.0", label = "tosa.depthwise_conv2d : (tensor<4x4x4x88xf32>)\n\ndilation: array<i64: 1, 1>\npad: array<i64: 1, 1, 1, ...\nstride: array<i64: 1, 1>", shape = ellipse, style = filled];
          v343 [fillcolor = "0.058824 1.0 1.0", label = "tosa.transpose : (tensor<4x88x4x4xf32>)\n", shape = ellipse, style = filled];
          v344 [fillcolor = "0.176471 1.0 1.0", label = "tosa.sub : (tensor<4x88x4x4xf32>)\n", shape = ellipse, style = filled];
          v345 [fillcolor = "0.235294 1.0 1.0", label = "tosa.add : (tensor<88x1x1xf32>)\n", shape = ellipse, style = filled];
          v346 [fillcolor = "0.294118 1.0 1.0", label = "tosa.rsqrt : (tensor<88x1x1xf32>)\n", shape = ellipse, style = filled];
          v347 [fillcolor = "0.352941 1.0 1.0", label = "tosa.reshape : (tensor<1x88x1x1xf32>)\n\nnew_shape: array<i64: 1, 88, 1,...", shape = ellipse, style = filled];
          v348 [fillcolor = "0.411765 1.0 1.0", label = "tosa.mul : (tensor<4x88x4x4xf32>)\n\nshift: 0 : i8", shape = ellipse, style = filled];
          v349 [fillcolor = "0.411765 1.0 1.0", label = "tosa.mul : (tensor<4x88x4x4xf32>)\n\nshift: 0 : i8", shape = ellipse, style = filled];
          v350 [fillcolor = "0.235294 1.0 1.0", label = "tosa.add : (tensor<4x88x4x4xf32>)\n", shape = ellipse, style = filled];
          v351 [fillcolor = "0.470588 1.0 1.0", label = "tosa.clamp : (tensor<4x88x4x4xf32>)\n\nmax_fp: 3.40282347E+38 : f32\nmax_int: 2147483647 : i64\nmin_fp: 0.000000e+00 : f32\nmin_int: 0 : i64", shape = ellipse, style = filled];
          v352 [fillcolor = "0.058824 1.0 1.0", label = "tosa.transpose : (tensor<4x4x4x88xf32>)\n", shape = ellipse, style = filled];
          v353 [fillcolor = "0.117647 1.0 1.0", label = "tosa.conv2d : (tensor<4x4x4x24xf32>)\n\ndilation: array<i64: 1, 1>\npad: array<i64: 0, 0, 0, ...\nstride: array<i64: 1, 1>", shape = ellipse, style = filled];
          v354 [fillcolor = "0.058824 1.0 1.0", label = "tosa.transpose : (tensor<4x24x4x4xf32>)\n", shape = ellipse, style = filled];
          v355 [fillcolor = "0.176471 1.0 1.0", label = "tosa.sub : (tensor<4x24x4x4xf32>)\n", shape = ellipse, style = filled];
          v356 [fillcolor = "0.235294 1.0 1.0", label = "tosa.add : (tensor<24x1x1xf32>)\n", shape = ellipse, style = filled];
          v357 [fillcolor = "0.294118 1.0 1.0", label = "tosa.rsqrt : (tensor<24x1x1xf32>)\n", shape = ellipse, style = filled];
          v358 [fillcolor = "0.352941 1.0 1.0", label = "tosa.reshape : (tensor<1x24x1x1xf32>)\n\nnew_shape: array<i64: 1, 24, 1,...", shape = ellipse, style = filled];
          v359 [fillcolor = "0.411765 1.0 1.0", label = "tosa.mul : (tensor<4x24x4x4xf32>)\n\nshift: 0 : i8", shape = ellipse, style = filled];
          v360 [fillcolor = "0.411765 1.0 1.0", label = "tosa.mul : (tensor<4x24x4x4xf32>)\n\nshift: 0 : i8", shape = ellipse, style = filled];
          v361 [fillcolor = "0.235294 1.0 1.0", label = "tosa.add : (tensor<4x24x4x4xf32>)\n", shape = ellipse, style = filled];
          v362 [fillcolor = "0.235294 1.0 1.0", label = "tosa.add : (tensor<4x24x4x4xf32>)\n", shape = ellipse, style = filled];
          v363 [fillcolor = "0.058824 1.0 1.0", label = "tosa.transpose : (tensor<4x4x4x24xf32>)\n", shape = ellipse, style = filled];
          v364 [fillcolor = "0.117647 1.0 1.0", label = "tosa.conv2d : (tensor<4x4x4x96xf32>)\n\ndilation: array<i64: 1, 1>\npad: array<i64: 0, 0, 0, ...\nstride: array<i64: 1, 1>", shape = ellipse, style = filled];
          v365 [fillcolor = "0.058824 1.0 1.0", label = "tosa.transpose : (tensor<4x96x4x4xf32>)\n", shape = ellipse, style = filled];
          v366 [fillcolor = "0.176471 1.0 1.0", label = "tosa.sub : (tensor<4x96x4x4xf32>)\n", shape = ellipse, style = filled];
          v367 [fillcolor = "0.235294 1.0 1.0", label = "tosa.add : (tensor<96x1x1xf32>)\n", shape = ellipse, style = filled];
          v368 [fillcolor = "0.294118 1.0 1.0", label = "tosa.rsqrt : (tensor<96x1x1xf32>)\n", shape = ellipse, style = filled];
          v369 [fillcolor = "0.352941 1.0 1.0", label = "tosa.reshape : (tensor<1x96x1x1xf32>)\n\nnew_shape: array<i64: 1, 96, 1,...", shape = ellipse, style = filled];
          v370 [fillcolor = "0.411765 1.0 1.0", label = "tosa.mul : (tensor<4x96x4x4xf32>)\n\nshift: 0 : i8", shape = ellipse, style = filled];
          v371 [fillcolor = "0.411765 1.0 1.0", label = "tosa.mul : (tensor<4x96x4x4xf32>)\n\nshift: 0 : i8", shape = ellipse, style = filled];
          v372 [fillcolor = "0.235294 1.0 1.0", label = "tosa.add : (tensor<4x96x4x4xf32>)\n", shape = ellipse, style = filled];
          v373 [fillcolor = "0.235294 1.0 1.0", label = "tosa.add : (tensor<4x96x4x4xf32>)\n", shape = ellipse, style = filled];
          v374 [fillcolor = "0.470588 1.0 1.0", label = "tosa.clamp : (tensor<4x96x4x4xf32>)\n\nmax_fp: 3.40282347E+38 : f32\nmax_int: 2147483647 : i64\nmin_fp: 0.000000e+00 : f32\nmin_int: 0 : i64", shape = ellipse, style = filled];
          v375 [fillcolor = "0.529412 1.0 1.0", label = "tosa.minimum : (tensor<4x96x4x4xf32>)\n", shape = ellipse, style = filled];
          v376 [fillcolor = "0.411765 1.0 1.0", label = "tosa.mul : (tensor<4x96x4x4xf32>)\n\nshift: 0 : i8", shape = ellipse, style = filled];
          v377 [fillcolor = "0.411765 1.0 1.0", label = "tosa.mul : (tensor<4x96x4x4xf32>)\n\nshift: 0 : i8", shape = ellipse, style = filled];
          v378 [fillcolor = "0.058824 1.0 1.0", label = "tosa.transpose : (tensor<4x4x4x96xf32>)\n", shape = ellipse, style = filled];
          v379 [fillcolor = "0.058824 1.0 1.0", label = "tosa.transpose : (tensor<5x5x96x1xf32>)\n", shape = ellipse, style = filled];
          v380 [fillcolor = "0.588235 1.0 1.0", label = "tosa.depthwise_conv2d : (tensor<4x2x2x96xf32>)\n\ndilation: array<i64: 1, 1>\npad: array<i64: 2, 2, 2, ...\nstride: array<i64: 2, 2>", shape = ellipse, style = filled];
          v381 [fillcolor = "0.058824 1.0 1.0", label = "tosa.transpose : (tensor<4x96x2x2xf32>)\n", shape = ellipse, style = filled];
          v382 [fillcolor = "0.176471 1.0 1.0", label = "tosa.sub : (tensor<4x96x2x2xf32>)\n", shape = ellipse, style = filled];
          v383 [fillcolor = "0.235294 1.0 1.0", label = "tosa.add : (tensor<96x1x1xf32>)\n", shape = ellipse, style = filled];
          v384 [fillcolor = "0.294118 1.0 1.0", label = "tosa.rsqrt : (tensor<96x1x1xf32>)\n", shape = ellipse, style = filled];
          v385 [fillcolor = "0.352941 1.0 1.0", label = "tosa.reshape : (tensor<1x96x1x1xf32>)\n\nnew_shape: array<i64: 1, 96, 1,...", shape = ellipse, style = filled];
          v386 [fillcolor = "0.411765 1.0 1.0", label = "tosa.mul : (tensor<4x96x2x2xf32>)\n\nshift: 0 : i8", shape = ellipse, style = filled];
          v387 [fillcolor = "0.411765 1.0 1.0", label = "tosa.mul : (tensor<4x96x2x2xf32>)\n\nshift: 0 : i8", shape = ellipse, style = filled];
          v388 [fillcolor = "0.235294 1.0 1.0", label = "tosa.add : (tensor<4x96x2x2xf32>)\n", shape = ellipse, style = filled];
          v389 [fillcolor = "0.235294 1.0 1.0", label = "tosa.add : (tensor<4x96x2x2xf32>)\n", shape = ellipse, style = filled];
          v390 [fillcolor = "0.470588 1.0 1.0", label = "tosa.clamp : (tensor<4x96x2x2xf32>)\n\nmax_fp: 3.40282347E+38 : f32\nmax_int: 2147483647 : i64\nmin_fp: 0.000000e+00 : f32\nmin_int: 0 : i64", shape = ellipse, style = filled];
          v391 [fillcolor = "0.529412 1.0 1.0", label = "tosa.minimum : (tensor<4x96x2x2xf32>)\n", shape = ellipse, style = filled];
          v392 [fillcolor = "0.411765 1.0 1.0", label = "tosa.mul : (tensor<4x96x2x2xf32>)\n\nshift: 0 : i8", shape = ellipse, style = filled];
          v393 [fillcolor = "0.411765 1.0 1.0", label = "tosa.mul : (tensor<4x96x2x2xf32>)\n\nshift: 0 : i8", shape = ellipse, style = filled];
          v394 [fillcolor = "0.058824 1.0 1.0", label = "tosa.transpose : (tensor<4x2x2x96xf32>)\n", shape = ellipse, style = filled];
          v395 [fillcolor = "0.647059 1.0 1.0", label = "tosa.avg_pool2d : (tensor<4x1x1x96xf32>)\n\nacc_type: f32\nkernel: array<i64: 2, 2>\npad: array<i64: 0, 0, 0, ...\nstride: array<i64: 2, 2>", shape = ellipse, style = filled];
          v396 [fillcolor = "0.117647 1.0 1.0", label = "tosa.conv2d : (tensor<4x1x1x24xf32>)\n\ndilation: array<i64: 1, 1>\npad: array<i64: 0, 0, 0, ...\nstride: array<i64: 1, 1>", shape = ellipse, style = filled];
          v397 [fillcolor = "0.352941 1.0 1.0", label = "tosa.reshape : (tensor<4x24x1x1xf32>)\n\nnew_shape: array<i64: 4, 24, 1,...", shape = ellipse, style = filled];
          v398 [fillcolor = "0.470588 1.0 1.0", label = "tosa.clamp : (tensor<4x24x1x1xf32>)\n\nmax_fp: 3.40282347E+38 : f32\nmax_int: 2147483647 : i64\nmin_fp: 0.000000e+00 : f32\nmin_int: 0 : i64", shape = ellipse, style = filled];
          v399 [fillcolor = "0.352941 1.0 1.0", label = "tosa.reshape : (tensor<4x1x1x24xf32>)\n\nnew_shape: array<i64: 4, 1, 1, ...", shape = ellipse, style = filled];
          v400 [fillcolor = "0.117647 1.0 1.0", label = "tosa.conv2d : (tensor<4x1x1x96xf32>)\n\ndilation: array<i64: 1, 1>\npad: array<i64: 0, 0, 0, ...\nstride: array<i64: 1, 1>", shape = ellipse, style = filled];
          v401 [fillcolor = "0.352941 1.0 1.0", label = "tosa.reshape : (tensor<4x96x1x1xf32>)\n\nnew_shape: array<i64: 4, 96, 1,...", shape = ellipse, style = filled];
          v402 [fillcolor = "0.235294 1.0 1.0", label = "tosa.add : (tensor<4x96x1x1xf32>)\n", shape = ellipse, style = filled];
          v403 [fillcolor = "0.411765 1.0 1.0", label = "tosa.mul : (tensor<4x96x1x1xf32>)\n\nshift: 0 : i8", shape = ellipse, style = filled];
          v404 [fillcolor = "0.529412 1.0 1.0", label = "tosa.minimum : (tensor<4x96x1x1xf32>)\n", shape = ellipse, style = filled];
          v405 [fillcolor = "0.705882 1.0 1.0", label = "tosa.maximum : (tensor<4x96x1x1xf32>)\n", shape = ellipse, style = filled];
          v406 [fillcolor = "0.411765 1.0 1.0", label = "tosa.mul : (tensor<4x96x2x2xf32>)\n\nshift: 0 : i8", shape = ellipse, style = filled];
          v407 [fillcolor = "0.058824 1.0 1.0", label = "tosa.transpose : (tensor<4x2x2x96xf32>)\n", shape = ellipse, style = filled];
          v408 [fillcolor = "0.117647 1.0 1.0", label = "tosa.conv2d : (tensor<4x2x2x40xf32>)\n\ndilation: array<i64: 1, 1>\npad: array<i64: 0, 0, 0, ...\nstride: array<i64: 1, 1>", shape = ellipse, style = filled];
          v409 [fillcolor = "0.058824 1.0 1.0", label = "tosa.transpose : (tensor<4x40x2x2xf32>)\n", shape = ellipse, style = filled];
          v410 [fillcolor = "0.176471 1.0 1.0", label = "tosa.sub : (tensor<4x40x2x2xf32>)\n", shape = ellipse, style = filled];
          v411 [fillcolor = "0.235294 1.0 1.0", label = "tosa.add : (tensor<40x1x1xf32>)\n", shape = ellipse, style = filled];
          v412 [fillcolor = "0.294118 1.0 1.0", label = "tosa.rsqrt : (tensor<40x1x1xf32>)\n", shape = ellipse, style = filled];
          v413 [fillcolor = "0.352941 1.0 1.0", label = "tosa.reshape : (tensor<1x40x1x1xf32>)\n\nnew_shape: array<i64: 1, 40, 1,...", shape = ellipse, style = filled];
          v414 [fillcolor = "0.411765 1.0 1.0", label = "tosa.mul : (tensor<4x40x2x2xf32>)\n\nshift: 0 : i8", shape = ellipse, style = filled];
          v415 [fillcolor = "0.411765 1.0 1.0", label = "tosa.mul : (tensor<4x40x2x2xf32>)\n\nshift: 0 : i8", shape = ellipse, style = filled];
          v416 [fillcolor = "0.235294 1.0 1.0", label = "tosa.add : (tensor<4x40x2x2xf32>)\n", shape = ellipse, style = filled];
          v417 [fillcolor = "0.058824 1.0 1.0", label = "tosa.transpose : (tensor<4x2x2x40xf32>)\n", shape = ellipse, style = filled];
          v418 [fillcolor = "0.117647 1.0 1.0", label = "tosa.conv2d : (tensor<4x2x2x240xf32...)\n\ndilation: array<i64: 1, 1>\npad: array<i64: 0, 0, 0, ...\nstride: array<i64: 1, 1>", shape = ellipse, style = filled];
          v419 [fillcolor = "0.058824 1.0 1.0", label = "tosa.transpose : (tensor<4x240x2x2xf32...)\n", shape = ellipse, style = filled];
          v420 [fillcolor = "0.176471 1.0 1.0", label = "tosa.sub : (tensor<4x240x2x2xf32...)\n", shape = ellipse, style = filled];
          v421 [fillcolor = "0.235294 1.0 1.0", label = "tosa.add : (tensor<240x1x1xf32>)\n", shape = ellipse, style = filled];
          v422 [fillcolor = "0.294118 1.0 1.0", label = "tosa.rsqrt : (tensor<240x1x1xf32>)\n", shape = ellipse, style = filled];
          v423 [fillcolor = "0.352941 1.0 1.0", label = "tosa.reshape : (tensor<1x240x1x1xf32...)\n\nnew_shape: array<i64: 1, 240, 1...", shape = ellipse, style = filled];
          v424 [fillcolor = "0.411765 1.0 1.0", label = "tosa.mul : (tensor<4x240x2x2xf32...)\n\nshift: 0 : i8", shape = ellipse, style = filled];
          v425 [fillcolor = "0.411765 1.0 1.0", label = "tosa.mul : (tensor<4x240x2x2xf32...)\n\nshift: 0 : i8", shape = ellipse, style = filled];
          v426 [fillcolor = "0.235294 1.0 1.0", label = "tosa.add : (tensor<4x240x2x2xf32...)\n", shape = ellipse, style = filled];
          v427 [fillcolor = "0.235294 1.0 1.0", label = "tosa.add : (tensor<4x240x2x2xf32...)\n", shape = ellipse, style = filled];
          v428 [fillcolor = "0.470588 1.0 1.0", label = "tosa.clamp : (tensor<4x240x2x2xf32...)\n\nmax_fp: 3.40282347E+38 : f32\nmax_int: 2147483647 : i64\nmin_fp: 0.000000e+00 : f32\nmin_int: 0 : i64", shape = ellipse, style = filled];
          v429 [fillcolor = "0.529412 1.0 1.0", label = "tosa.minimum : (tensor<4x240x2x2xf32...)\n", shape = ellipse, style = filled];
          v430 [fillcolor = "0.411765 1.0 1.0", label = "tosa.mul : (tensor<4x240x2x2xf32...)\n\nshift: 0 : i8", shape = ellipse, style = filled];
          v431 [fillcolor = "0.411765 1.0 1.0", label = "tosa.mul : (tensor<4x240x2x2xf32...)\n\nshift: 0 : i8", shape = ellipse, style = filled];
          v432 [fillcolor = "0.058824 1.0 1.0", label = "tosa.transpose : (tensor<4x2x2x240xf32...)\n", shape = ellipse, style = filled];
          v433 [fillcolor = "0.058824 1.0 1.0", label = "tosa.transpose : (tensor<5x5x240x1xf32...)\n", shape = ellipse, style = filled];
          v434 [fillcolor = "0.588235 1.0 1.0", label = "tosa.depthwise_conv2d : (tensor<4x2x2x240xf32...)\n\ndilation: array<i64: 1, 1>\npad: array<i64: 2, 2, 2, ...\nstride: array<i64: 1, 1>", shape = ellipse, style = filled];
          v435 [fillcolor = "0.058824 1.0 1.0", label = "tosa.transpose : (tensor<4x240x2x2xf32...)\n", shape = ellipse, style = filled];
          v436 [fillcolor = "0.176471 1.0 1.0", label = "tosa.sub : (tensor<4x240x2x2xf32...)\n", shape = ellipse, style = filled];
          v437 [fillcolor = "0.235294 1.0 1.0", label = "tosa.add : (tensor<240x1x1xf32>)\n", shape = ellipse, style = filled];
          v438 [fillcolor = "0.294118 1.0 1.0", label = "tosa.rsqrt : (tensor<240x1x1xf32>)\n", shape = ellipse, style = filled];
          v439 [fillcolor = "0.352941 1.0 1.0", label = "tosa.reshape : (tensor<1x240x1x1xf32...)\n\nnew_shape: array<i64: 1, 240, 1...", shape = ellipse, style = filled];
          v440 [fillcolor = "0.411765 1.0 1.0", label = "tosa.mul : (tensor<4x240x2x2xf32...)\n\nshift: 0 : i8", shape = ellipse, style = filled];
          v441 [fillcolor = "0.411765 1.0 1.0", label = "tosa.mul : (tensor<4x240x2x2xf32...)\n\nshift: 0 : i8", shape = ellipse, style = filled];
          v442 [fillcolor = "0.235294 1.0 1.0", label = "tosa.add : (tensor<4x240x2x2xf32...)\n", shape = ellipse, style = filled];
          v443 [fillcolor = "0.235294 1.0 1.0", label = "tosa.add : (tensor<4x240x2x2xf32...)\n", shape = ellipse, style = filled];
          v444 [fillcolor = "0.470588 1.0 1.0", label = "tosa.clamp : (tensor<4x240x2x2xf32...)\n\nmax_fp: 3.40282347E+38 : f32\nmax_int: 2147483647 : i64\nmin_fp: 0.000000e+00 : f32\nmin_int: 0 : i64", shape = ellipse, style = filled];
          v445 [fillcolor = "0.529412 1.0 1.0", label = "tosa.minimum : (tensor<4x240x2x2xf32...)\n", shape = ellipse, style = filled];
          v446 [fillcolor = "0.411765 1.0 1.0", label = "tosa.mul : (tensor<4x240x2x2xf32...)\n\nshift: 0 : i8", shape = ellipse, style = filled];
          v447 [fillcolor = "0.411765 1.0 1.0", label = "tosa.mul : (tensor<4x240x2x2xf32...)\n\nshift: 0 : i8", shape = ellipse, style = filled];
          v448 [fillcolor = "0.058824 1.0 1.0", label = "tosa.transpose : (tensor<4x2x2x240xf32...)\n", shape = ellipse, style = filled];
          v449 [fillcolor = "0.647059 1.0 1.0", label = "tosa.avg_pool2d : (tensor<4x1x1x240xf32...)\n\nacc_type: f32\nkernel: array<i64: 2, 2>\npad: array<i64: 0, 0, 0, ...\nstride: array<i64: 2, 2>", shape = ellipse, style = filled];
          v450 [fillcolor = "0.117647 1.0 1.0", label = "tosa.conv2d : (tensor<4x1x1x64xf32>)\n\ndilation: array<i64: 1, 1>\npad: array<i64: 0, 0, 0, ...\nstride: array<i64: 1, 1>", shape = ellipse, style = filled];
          v451 [fillcolor = "0.352941 1.0 1.0", label = "tosa.reshape : (tensor<4x64x1x1xf32>)\n\nnew_shape: array<i64: 4, 64, 1,...", shape = ellipse, style = filled];
          v452 [fillcolor = "0.470588 1.0 1.0", label = "tosa.clamp : (tensor<4x64x1x1xf32>)\n\nmax_fp: 3.40282347E+38 : f32\nmax_int: 2147483647 : i64\nmin_fp: 0.000000e+00 : f32\nmin_int: 0 : i64", shape = ellipse, style = filled];
          v453 [fillcolor = "0.352941 1.0 1.0", label = "tosa.reshape : (tensor<4x1x1x64xf32>)\n\nnew_shape: array<i64: 4, 1, 1, ...", shape = ellipse, style = filled];
          v454 [fillcolor = "0.117647 1.0 1.0", label = "tosa.conv2d : (tensor<4x1x1x240xf32...)\n\ndilation: array<i64: 1, 1>\npad: array<i64: 0, 0, 0, ...\nstride: array<i64: 1, 1>", shape = ellipse, style = filled];
          v455 [fillcolor = "0.352941 1.0 1.0", label = "tosa.reshape : (tensor<4x240x1x1xf32...)\n\nnew_shape: array<i64: 4, 240, 1...", shape = ellipse, style = filled];
          v456 [fillcolor = "0.235294 1.0 1.0", label = "tosa.add : (tensor<4x240x1x1xf32...)\n", shape = ellipse, style = filled];
          v457 [fillcolor = "0.411765 1.0 1.0", label = "tosa.mul : (tensor<4x240x1x1xf32...)\n\nshift: 0 : i8", shape = ellipse, style = filled];
          v458 [fillcolor = "0.529412 1.0 1.0", label = "tosa.minimum : (tensor<4x240x1x1xf32...)\n", shape = ellipse, style = filled];
          v459 [fillcolor = "0.705882 1.0 1.0", label = "tosa.maximum : (tensor<4x240x1x1xf32...)\n", shape = ellipse, style = filled];
          v460 [fillcolor = "0.411765 1.0 1.0", label = "tosa.mul : (tensor<4x240x2x2xf32...)\n\nshift: 0 : i8", shape = ellipse, style = filled];
          v461 [fillcolor = "0.058824 1.0 1.0", label = "tosa.transpose : (tensor<4x2x2x240xf32...)\n", shape = ellipse, style = filled];
          v462 [fillcolor = "0.117647 1.0 1.0", label = "tosa.conv2d : (tensor<4x2x2x40xf32>)\n\ndilation: array<i64: 1, 1>\npad: array<i64: 0, 0, 0, ...\nstride: array<i64: 1, 1>", shape = ellipse, style = filled];
          v463 [fillcolor = "0.058824 1.0 1.0", label = "tosa.transpose : (tensor<4x40x2x2xf32>)\n", shape = ellipse, style = filled];
          v464 [fillcolor = "0.176471 1.0 1.0", label = "tosa.sub : (tensor<4x40x2x2xf32>)\n", shape = ellipse, style = filled];
          v465 [fillcolor = "0.235294 1.0 1.0", label = "tosa.add : (tensor<40x1x1xf32>)\n", shape = ellipse, style = filled];
          v466 [fillcolor = "0.294118 1.0 1.0", label = "tosa.rsqrt : (tensor<40x1x1xf32>)\n", shape = ellipse, style = filled];
          v467 [fillcolor = "0.352941 1.0 1.0", label = "tosa.reshape : (tensor<1x40x1x1xf32>)\n\nnew_shape: array<i64: 1, 40, 1,...", shape = ellipse, style = filled];
          v468 [fillcolor = "0.411765 1.0 1.0", label = "tosa.mul : (tensor<4x40x2x2xf32>)\n\nshift: 0 : i8", shape = ellipse, style = filled];
          v469 [fillcolor = "0.411765 1.0 1.0", label = "tosa.mul : (tensor<4x40x2x2xf32>)\n\nshift: 0 : i8", shape = ellipse, style = filled];
          v470 [fillcolor = "0.235294 1.0 1.0", label = "tosa.add : (tensor<4x40x2x2xf32>)\n", shape = ellipse, style = filled];
          v471 [fillcolor = "0.235294 1.0 1.0", label = "tosa.add : (tensor<4x40x2x2xf32>)\n", shape = ellipse, style = filled];
          v472 [fillcolor = "0.058824 1.0 1.0", label = "tosa.transpose : (tensor<4x2x2x40xf32>)\n", shape = ellipse, style = filled];
          v473 [fillcolor = "0.117647 1.0 1.0", label = "tosa.conv2d : (tensor<4x2x2x240xf32...)\n\ndilation: array<i64: 1, 1>\npad: array<i64: 0, 0, 0, ...\nstride: array<i64: 1, 1>", shape = ellipse, style = filled];
          v474 [fillcolor = "0.058824 1.0 1.0", label = "tosa.transpose : (tensor<4x240x2x2xf32...)\n", shape = ellipse, style = filled];
          v475 [fillcolor = "0.176471 1.0 1.0", label = "tosa.sub : (tensor<4x240x2x2xf32...)\n", shape = ellipse, style = filled];
          v476 [fillcolor = "0.235294 1.0 1.0", label = "tosa.add : (tensor<240x1x1xf32>)\n", shape = ellipse, style = filled];
          v477 [fillcolor = "0.294118 1.0 1.0", label = "tosa.rsqrt : (tensor<240x1x1xf32>)\n", shape = ellipse, style = filled];
          v478 [fillcolor = "0.352941 1.0 1.0", label = "tosa.reshape : (tensor<1x240x1x1xf32...)\n\nnew_shape: array<i64: 1, 240, 1...", shape = ellipse, style = filled];
          v479 [fillcolor = "0.411765 1.0 1.0", label = "tosa.mul : (tensor<4x240x2x2xf32...)\n\nshift: 0 : i8", shape = ellipse, style = filled];
          v480 [fillcolor = "0.411765 1.0 1.0", label = "tosa.mul : (tensor<4x240x2x2xf32...)\n\nshift: 0 : i8", shape = ellipse, style = filled];
          v481 [fillcolor = "0.235294 1.0 1.0", label = "tosa.add : (tensor<4x240x2x2xf32...)\n", shape = ellipse, style = filled];
          v482 [fillcolor = "0.235294 1.0 1.0", label = "tosa.add : (tensor<4x240x2x2xf32...)\n", shape = ellipse, style = filled];
          v483 [fillcolor = "0.470588 1.0 1.0", label = "tosa.clamp : (tensor<4x240x2x2xf32...)\n\nmax_fp: 3.40282347E+38 : f32\nmax_int: 2147483647 : i64\nmin_fp: 0.000000e+00 : f32\nmin_int: 0 : i64", shape = ellipse, style = filled];
          v484 [fillcolor = "0.529412 1.0 1.0", label = "tosa.minimum : (tensor<4x240x2x2xf32...)\n", shape = ellipse, style = filled];
          v485 [fillcolor = "0.411765 1.0 1.0", label = "tosa.mul : (tensor<4x240x2x2xf32...)\n\nshift: 0 : i8", shape = ellipse, style = filled];
          v486 [fillcolor = "0.411765 1.0 1.0", label = "tosa.mul : (tensor<4x240x2x2xf32...)\n\nshift: 0 : i8", shape = ellipse, style = filled];
          v487 [fillcolor = "0.058824 1.0 1.0", label = "tosa.transpose : (tensor<4x2x2x240xf32...)\n", shape = ellipse, style = filled];
          v488 [fillcolor = "0.058824 1.0 1.0", label = "tosa.transpose : (tensor<5x5x240x1xf32...)\n", shape = ellipse, style = filled];
          v489 [fillcolor = "0.588235 1.0 1.0", label = "tosa.depthwise_conv2d : (tensor<4x2x2x240xf32...)\n\ndilation: array<i64: 1, 1>\npad: array<i64: 2, 2, 2, ...\nstride: array<i64: 1, 1>", shape = ellipse, style = filled];
          v490 [fillcolor = "0.058824 1.0 1.0", label = "tosa.transpose : (tensor<4x240x2x2xf32...)\n", shape = ellipse, style = filled];
          v491 [fillcolor = "0.176471 1.0 1.0", label = "tosa.sub : (tensor<4x240x2x2xf32...)\n", shape = ellipse, style = filled];
          v492 [fillcolor = "0.235294 1.0 1.0", label = "tosa.add : (tensor<240x1x1xf32>)\n", shape = ellipse, style = filled];
          v493 [fillcolor = "0.294118 1.0 1.0", label = "tosa.rsqrt : (tensor<240x1x1xf32>)\n", shape = ellipse, style = filled];
          v494 [fillcolor = "0.352941 1.0 1.0", label = "tosa.reshape : (tensor<1x240x1x1xf32...)\n\nnew_shape: array<i64: 1, 240, 1...", shape = ellipse, style = filled];
          v495 [fillcolor = "0.411765 1.0 1.0", label = "tosa.mul : (tensor<4x240x2x2xf32...)\n\nshift: 0 : i8", shape = ellipse, style = filled];
          v496 [fillcolor = "0.411765 1.0 1.0", label = "tosa.mul : (tensor<4x240x2x2xf32...)\n\nshift: 0 : i8", shape = ellipse, style = filled];
          v497 [fillcolor = "0.235294 1.0 1.0", label = "tosa.add : (tensor<4x240x2x2xf32...)\n", shape = ellipse, style = filled];
          v498 [fillcolor = "0.235294 1.0 1.0", label = "tosa.add : (tensor<4x240x2x2xf32...)\n", shape = ellipse, style = filled];
          v499 [fillcolor = "0.470588 1.0 1.0", label = "tosa.clamp : (tensor<4x240x2x2xf32...)\n\nmax_fp: 3.40282347E+38 : f32\nmax_int: 2147483647 : i64\nmin_fp: 0.000000e+00 : f32\nmin_int: 0 : i64", shape = ellipse, style = filled];
          v500 [fillcolor = "0.529412 1.0 1.0", label = "tosa.minimum : (tensor<4x240x2x2xf32...)\n", shape = ellipse, style = filled];
          v501 [fillcolor = "0.411765 1.0 1.0", label = "tosa.mul : (tensor<4x240x2x2xf32...)\n\nshift: 0 : i8", shape = ellipse, style = filled];
          v502 [fillcolor = "0.411765 1.0 1.0", label = "tosa.mul : (tensor<4x240x2x2xf32...)\n\nshift: 0 : i8", shape = ellipse, style = filled];
          v503 [fillcolor = "0.058824 1.0 1.0", label = "tosa.transpose : (tensor<4x2x2x240xf32...)\n", shape = ellipse, style = filled];
          v504 [fillcolor = "0.647059 1.0 1.0", label = "tosa.avg_pool2d : (tensor<4x1x1x240xf32...)\n\nacc_type: f32\nkernel: array<i64: 2, 2>\npad: array<i64: 0, 0, 0, ...\nstride: array<i64: 2, 2>", shape = ellipse, style = filled];
          v505 [fillcolor = "0.117647 1.0 1.0", label = "tosa.conv2d : (tensor<4x1x1x64xf32>)\n\ndilation: array<i64: 1, 1>\npad: array<i64: 0, 0, 0, ...\nstride: array<i64: 1, 1>", shape = ellipse, style = filled];
          v506 [fillcolor = "0.352941 1.0 1.0", label = "tosa.reshape : (tensor<4x64x1x1xf32>)\n\nnew_shape: array<i64: 4, 64, 1,...", shape = ellipse, style = filled];
          v507 [fillcolor = "0.470588 1.0 1.0", label = "tosa.clamp : (tensor<4x64x1x1xf32>)\n\nmax_fp: 3.40282347E+38 : f32\nmax_int: 2147483647 : i64\nmin_fp: 0.000000e+00 : f32\nmin_int: 0 : i64", shape = ellipse, style = filled];
          v508 [fillcolor = "0.352941 1.0 1.0", label = "tosa.reshape : (tensor<4x1x1x64xf32>)\n\nnew_shape: array<i64: 4, 1, 1, ...", shape = ellipse, style = filled];
          v509 [fillcolor = "0.117647 1.0 1.0", label = "tosa.conv2d : (tensor<4x1x1x240xf32...)\n\ndilation: array<i64: 1, 1>\npad: array<i64: 0, 0, 0, ...\nstride: array<i64: 1, 1>", shape = ellipse, style = filled];
          v510 [fillcolor = "0.352941 1.0 1.0", label = "tosa.reshape : (tensor<4x240x1x1xf32...)\n\nnew_shape: array<i64: 4, 240, 1...", shape = ellipse, style = filled];
          v511 [fillcolor = "0.235294 1.0 1.0", label = "tosa.add : (tensor<4x240x1x1xf32...)\n", shape = ellipse, style = filled];
          v512 [fillcolor = "0.411765 1.0 1.0", label = "tosa.mul : (tensor<4x240x1x1xf32...)\n\nshift: 0 : i8", shape = ellipse, style = filled];
          v513 [fillcolor = "0.529412 1.0 1.0", label = "tosa.minimum : (tensor<4x240x1x1xf32...)\n", shape = ellipse, style = filled];
          v514 [fillcolor = "0.705882 1.0 1.0", label = "tosa.maximum : (tensor<4x240x1x1xf32...)\n", shape = ellipse, style = filled];
          v515 [fillcolor = "0.411765 1.0 1.0", label = "tosa.mul : (tensor<4x240x2x2xf32...)\n\nshift: 0 : i8", shape = ellipse, style = filled];
          v516 [fillcolor = "0.058824 1.0 1.0", label = "tosa.transpose : (tensor<4x2x2x240xf32...)\n", shape = ellipse, style = filled];
          v517 [fillcolor = "0.117647 1.0 1.0", label = "tosa.conv2d : (tensor<4x2x2x40xf32>)\n\ndilation: array<i64: 1, 1>\npad: array<i64: 0, 0, 0, ...\nstride: array<i64: 1, 1>", shape = ellipse, style = filled];
          v518 [fillcolor = "0.058824 1.0 1.0", label = "tosa.transpose : (tensor<4x40x2x2xf32>)\n", shape = ellipse, style = filled];
          v519 [fillcolor = "0.176471 1.0 1.0", label = "tosa.sub : (tensor<4x40x2x2xf32>)\n", shape = ellipse, style = filled];
          v520 [fillcolor = "0.235294 1.0 1.0", label = "tosa.add : (tensor<40x1x1xf32>)\n", shape = ellipse, style = filled];
          v521 [fillcolor = "0.294118 1.0 1.0", label = "tosa.rsqrt : (tensor<40x1x1xf32>)\n", shape = ellipse, style = filled];
          v522 [fillcolor = "0.352941 1.0 1.0", label = "tosa.reshape : (tensor<1x40x1x1xf32>)\n\nnew_shape: array<i64: 1, 40, 1,...", shape = ellipse, style = filled];
          v523 [fillcolor = "0.411765 1.0 1.0", label = "tosa.mul : (tensor<4x40x2x2xf32>)\n\nshift: 0 : i8", shape = ellipse, style = filled];
          v524 [fillcolor = "0.411765 1.0 1.0", label = "tosa.mul : (tensor<4x40x2x2xf32>)\n\nshift: 0 : i8", shape = ellipse, style = filled];
          v525 [fillcolor = "0.235294 1.0 1.0", label = "tosa.add : (tensor<4x40x2x2xf32>)\n", shape = ellipse, style = filled];
          v526 [fillcolor = "0.235294 1.0 1.0", label = "tosa.add : (tensor<4x40x2x2xf32>)\n", shape = ellipse, style = filled];
          v527 [fillcolor = "0.058824 1.0 1.0", label = "tosa.transpose : (tensor<4x2x2x40xf32>)\n", shape = ellipse, style = filled];
          v528 [fillcolor = "0.117647 1.0 1.0", label = "tosa.conv2d : (tensor<4x2x2x120xf32...)\n\ndilation: array<i64: 1, 1>\npad: array<i64: 0, 0, 0, ...\nstride: array<i64: 1, 1>", shape = ellipse, style = filled];
          v529 [fillcolor = "0.058824 1.0 1.0", label = "tosa.transpose : (tensor<4x120x2x2xf32...)\n", shape = ellipse, style = filled];
          v530 [fillcolor = "0.176471 1.0 1.0", label = "tosa.sub : (tensor<4x120x2x2xf32...)\n", shape = ellipse, style = filled];
          v531 [fillcolor = "0.235294 1.0 1.0", label = "tosa.add : (tensor<120x1x1xf32>)\n", shape = ellipse, style = filled];
          v532 [fillcolor = "0.294118 1.0 1.0", label = "tosa.rsqrt : (tensor<120x1x1xf32>)\n", shape = ellipse, style = filled];
          v533 [fillcolor = "0.352941 1.0 1.0", label = "tosa.reshape : (tensor<1x120x1x1xf32...)\n\nnew_shape: array<i64: 1, 120, 1...", shape = ellipse, style = filled];
          v534 [fillcolor = "0.411765 1.0 1.0", label = "tosa.mul : (tensor<4x120x2x2xf32...)\n\nshift: 0 : i8", shape = ellipse, style = filled];
          v535 [fillcolor = "0.411765 1.0 1.0", label = "tosa.mul : (tensor<4x120x2x2xf32...)\n\nshift: 0 : i8", shape = ellipse, style = filled];
          v536 [fillcolor = "0.235294 1.0 1.0", label = "tosa.add : (tensor<4x120x2x2xf32...)\n", shape = ellipse, style = filled];
          v537 [fillcolor = "0.235294 1.0 1.0", label = "tosa.add : (tensor<4x120x2x2xf32...)\n", shape = ellipse, style = filled];
          v538 [fillcolor = "0.470588 1.0 1.0", label = "tosa.clamp : (tensor<4x120x2x2xf32...)\n\nmax_fp: 3.40282347E+38 : f32\nmax_int: 2147483647 : i64\nmin_fp: 0.000000e+00 : f32\nmin_int: 0 : i64", shape = ellipse, style = filled];
          v539 [fillcolor = "0.529412 1.0 1.0", label = "tosa.minimum : (tensor<4x120x2x2xf32...)\n", shape = ellipse, style = filled];
          v540 [fillcolor = "0.411765 1.0 1.0", label = "tosa.mul : (tensor<4x120x2x2xf32...)\n\nshift: 0 : i8", shape = ellipse, style = filled];
          v541 [fillcolor = "0.411765 1.0 1.0", label = "tosa.mul : (tensor<4x120x2x2xf32...)\n\nshift: 0 : i8", shape = ellipse, style = filled];
          v542 [fillcolor = "0.058824 1.0 1.0", label = "tosa.transpose : (tensor<4x2x2x120xf32...)\n", shape = ellipse, style = filled];
          v543 [fillcolor = "0.058824 1.0 1.0", label = "tosa.transpose : (tensor<5x5x120x1xf32...)\n", shape = ellipse, style = filled];
          v544 [fillcolor = "0.588235 1.0 1.0", label = "tosa.depthwise_conv2d : (tensor<4x2x2x120xf32...)\n\ndilation: array<i64: 1, 1>\npad: array<i64: 2, 2, 2, ...\nstride: array<i64: 1, 1>", shape = ellipse, style = filled];
          v545 [fillcolor = "0.058824 1.0 1.0", label = "tosa.transpose : (tensor<4x120x2x2xf32...)\n", shape = ellipse, style = filled];
          v546 [fillcolor = "0.176471 1.0 1.0", label = "tosa.sub : (tensor<4x120x2x2xf32...)\n", shape = ellipse, style = filled];
          v547 [fillcolor = "0.235294 1.0 1.0", label = "tosa.add : (tensor<120x1x1xf32>)\n", shape = ellipse, style = filled];
          v548 [fillcolor = "0.294118 1.0 1.0", label = "tosa.rsqrt : (tensor<120x1x1xf32>)\n", shape = ellipse, style = filled];
          v549 [fillcolor = "0.352941 1.0 1.0", label = "tosa.reshape : (tensor<1x120x1x1xf32...)\n\nnew_shape: array<i64: 1, 120, 1...", shape = ellipse, style = filled];
          v550 [fillcolor = "0.411765 1.0 1.0", label = "tosa.mul : (tensor<4x120x2x2xf32...)\n\nshift: 0 : i8", shape = ellipse, style = filled];
          v551 [fillcolor = "0.411765 1.0 1.0", label = "tosa.mul : (tensor<4x120x2x2xf32...)\n\nshift: 0 : i8", shape = ellipse, style = filled];
          v552 [fillcolor = "0.235294 1.0 1.0", label = "tosa.add : (tensor<4x120x2x2xf32...)\n", shape = ellipse, style = filled];
          v553 [fillcolor = "0.235294 1.0 1.0", label = "tosa.add : (tensor<4x120x2x2xf32...)\n", shape = ellipse, style = filled];
          v554 [fillcolor = "0.470588 1.0 1.0", label = "tosa.clamp : (tensor<4x120x2x2xf32...)\n\nmax_fp: 3.40282347E+38 : f32\nmax_int: 2147483647 : i64\nmin_fp: 0.000000e+00 : f32\nmin_int: 0 : i64", shape = ellipse, style = filled];
          v555 [fillcolor = "0.529412 1.0 1.0", label = "tosa.minimum : (tensor<4x120x2x2xf32...)\n", shape = ellipse, style = filled];
          v556 [fillcolor = "0.411765 1.0 1.0", label = "tosa.mul : (tensor<4x120x2x2xf32...)\n\nshift: 0 : i8", shape = ellipse, style = filled];
          v557 [fillcolor = "0.411765 1.0 1.0", label = "tosa.mul : (tensor<4x120x2x2xf32...)\n\nshift: 0 : i8", shape = ellipse, style = filled];
          v558 [fillcolor = "0.058824 1.0 1.0", label = "tosa.transpose : (tensor<4x2x2x120xf32...)\n", shape = ellipse, style = filled];
          v559 [fillcolor = "0.647059 1.0 1.0", label = "tosa.avg_pool2d : (tensor<4x1x1x120xf32...)\n\nacc_type: f32\nkernel: array<i64: 2, 2>\npad: array<i64: 0, 0, 0, ...\nstride: array<i64: 2, 2>", shape = ellipse, style = filled];
          v560 [fillcolor = "0.117647 1.0 1.0", label = "tosa.conv2d : (tensor<4x1x1x32xf32>)\n\ndilation: array<i64: 1, 1>\npad: array<i64: 0, 0, 0, ...\nstride: array<i64: 1, 1>", shape = ellipse, style = filled];
          v561 [fillcolor = "0.352941 1.0 1.0", label = "tosa.reshape : (tensor<4x32x1x1xf32>)\n\nnew_shape: array<i64: 4, 32, 1,...", shape = ellipse, style = filled];
          v562 [fillcolor = "0.470588 1.0 1.0", label = "tosa.clamp : (tensor<4x32x1x1xf32>)\n\nmax_fp: 3.40282347E+38 : f32\nmax_int: 2147483647 : i64\nmin_fp: 0.000000e+00 : f32\nmin_int: 0 : i64", shape = ellipse, style = filled];
          v563 [fillcolor = "0.352941 1.0 1.0", label = "tosa.reshape : (tensor<4x1x1x32xf32>)\n\nnew_shape: array<i64: 4, 1, 1, ...", shape = ellipse, style = filled];
          v564 [fillcolor = "0.117647 1.0 1.0", label = "tosa.conv2d : (tensor<4x1x1x120xf32...)\n\ndilation: array<i64: 1, 1>\npad: array<i64: 0, 0, 0, ...\nstride: array<i64: 1, 1>", shape = ellipse, style = filled];
          v565 [fillcolor = "0.352941 1.0 1.0", label = "tosa.reshape : (tensor<4x120x1x1xf32...)\n\nnew_shape: array<i64: 4, 120, 1...", shape = ellipse, style = filled];
          v566 [fillcolor = "0.235294 1.0 1.0", label = "tosa.add : (tensor<4x120x1x1xf32...)\n", shape = ellipse, style = filled];
          v567 [fillcolor = "0.411765 1.0 1.0", label = "tosa.mul : (tensor<4x120x1x1xf32...)\n\nshift: 0 : i8", shape = ellipse, style = filled];
          v568 [fillcolor = "0.529412 1.0 1.0", label = "tosa.minimum : (tensor<4x120x1x1xf32...)\n", shape = ellipse, style = filled];
          v569 [fillcolor = "0.705882 1.0 1.0", label = "tosa.maximum : (tensor<4x120x1x1xf32...)\n", shape = ellipse, style = filled];
          v570 [fillcolor = "0.411765 1.0 1.0", label = "tosa.mul : (tensor<4x120x2x2xf32...)\n\nshift: 0 : i8", shape = ellipse, style = filled];
          v571 [fillcolor = "0.058824 1.0 1.0", label = "tosa.transpose : (tensor<4x2x2x120xf32...)\n", shape = ellipse, style = filled];
          v572 [fillcolor = "0.117647 1.0 1.0", label = "tosa.conv2d : (tensor<4x2x2x48xf32>)\n\ndilation: array<i64: 1, 1>\npad: array<i64: 0, 0, 0, ...\nstride: array<i64: 1, 1>", shape = ellipse, style = filled];
          v573 [fillcolor = "0.058824 1.0 1.0", label = "tosa.transpose : (tensor<4x48x2x2xf32>)\n", shape = ellipse, style = filled];
          v574 [fillcolor = "0.176471 1.0 1.0", label = "tosa.sub : (tensor<4x48x2x2xf32>)\n", shape = ellipse, style = filled];
          v575 [fillcolor = "0.235294 1.0 1.0", label = "tosa.add : (tensor<48x1x1xf32>)\n", shape = ellipse, style = filled];
          v576 [fillcolor = "0.294118 1.0 1.0", label = "tosa.rsqrt : (tensor<48x1x1xf32>)\n", shape = ellipse, style = filled];
          v577 [fillcolor = "0.352941 1.0 1.0", label = "tosa.reshape : (tensor<1x48x1x1xf32>)\n\nnew_shape: array<i64: 1, 48, 1,...", shape = ellipse, style = filled];
          v578 [fillcolor = "0.411765 1.0 1.0", label = "tosa.mul : (tensor<4x48x2x2xf32>)\n\nshift: 0 : i8", shape = ellipse, style = filled];
          v579 [fillcolor = "0.411765 1.0 1.0", label = "tosa.mul : (tensor<4x48x2x2xf32>)\n\nshift: 0 : i8", shape = ellipse, style = filled];
          v580 [fillcolor = "0.235294 1.0 1.0", label = "tosa.add : (tensor<4x48x2x2xf32>)\n", shape = ellipse, style = filled];
          v581 [fillcolor = "0.058824 1.0 1.0", label = "tosa.transpose : (tensor<4x2x2x48xf32>)\n", shape = ellipse, style = filled];
          v582 [fillcolor = "0.117647 1.0 1.0", label = "tosa.conv2d : (tensor<4x2x2x144xf32...)\n\ndilation: array<i64: 1, 1>\npad: array<i64: 0, 0, 0, ...\nstride: array<i64: 1, 1>", shape = ellipse, style = filled];
          v583 [fillcolor = "0.058824 1.0 1.0", label = "tosa.transpose : (tensor<4x144x2x2xf32...)\n", shape = ellipse, style = filled];
          v584 [fillcolor = "0.176471 1.0 1.0", label = "tosa.sub : (tensor<4x144x2x2xf32...)\n", shape = ellipse, style = filled];
          v585 [fillcolor = "0.235294 1.0 1.0", label = "tosa.add : (tensor<144x1x1xf32>)\n", shape = ellipse, style = filled];
          v586 [fillcolor = "0.294118 1.0 1.0", label = "tosa.rsqrt : (tensor<144x1x1xf32>)\n", shape = ellipse, style = filled];
          v587 [fillcolor = "0.352941 1.0 1.0", label = "tosa.reshape : (tensor<1x144x1x1xf32...)\n\nnew_shape: array<i64: 1, 144, 1...", shape = ellipse, style = filled];
          v588 [fillcolor = "0.411765 1.0 1.0", label = "tosa.mul : (tensor<4x144x2x2xf32...)\n\nshift: 0 : i8", shape = ellipse, style = filled];
          v589 [fillcolor = "0.411765 1.0 1.0", label = "tosa.mul : (tensor<4x144x2x2xf32...)\n\nshift: 0 : i8", shape = ellipse, style = filled];
          v590 [fillcolor = "0.235294 1.0 1.0", label = "tosa.add : (tensor<4x144x2x2xf32...)\n", shape = ellipse, style = filled];
          v591 [fillcolor = "0.235294 1.0 1.0", label = "tosa.add : (tensor<4x144x2x2xf32...)\n", shape = ellipse, style = filled];
          v592 [fillcolor = "0.470588 1.0 1.0", label = "tosa.clamp : (tensor<4x144x2x2xf32...)\n\nmax_fp: 3.40282347E+38 : f32\nmax_int: 2147483647 : i64\nmin_fp: 0.000000e+00 : f32\nmin_int: 0 : i64", shape = ellipse, style = filled];
          v593 [fillcolor = "0.529412 1.0 1.0", label = "tosa.minimum : (tensor<4x144x2x2xf32...)\n", shape = ellipse, style = filled];
          v594 [fillcolor = "0.411765 1.0 1.0", label = "tosa.mul : (tensor<4x144x2x2xf32...)\n\nshift: 0 : i8", shape = ellipse, style = filled];
          v595 [fillcolor = "0.411765 1.0 1.0", label = "tosa.mul : (tensor<4x144x2x2xf32...)\n\nshift: 0 : i8", shape = ellipse, style = filled];
          v596 [fillcolor = "0.058824 1.0 1.0", label = "tosa.transpose : (tensor<4x2x2x144xf32...)\n", shape = ellipse, style = filled];
          v597 [fillcolor = "0.058824 1.0 1.0", label = "tosa.transpose : (tensor<5x5x144x1xf32...)\n", shape = ellipse, style = filled];
          v598 [fillcolor = "0.588235 1.0 1.0", label = "tosa.depthwise_conv2d : (tensor<4x2x2x144xf32...)\n\ndilation: array<i64: 1, 1>\npad: array<i64: 2, 2, 2, ...\nstride: array<i64: 1, 1>", shape = ellipse, style = filled];
          v599 [fillcolor = "0.058824 1.0 1.0", label = "tosa.transpose : (tensor<4x144x2x2xf32...)\n", shape = ellipse, style = filled];
          v600 [fillcolor = "0.176471 1.0 1.0", label = "tosa.sub : (tensor<4x144x2x2xf32...)\n", shape = ellipse, style = filled];
          v601 [fillcolor = "0.235294 1.0 1.0", label = "tosa.add : (tensor<144x1x1xf32>)\n", shape = ellipse, style = filled];
          v602 [fillcolor = "0.294118 1.0 1.0", label = "tosa.rsqrt : (tensor<144x1x1xf32>)\n", shape = ellipse, style = filled];
          v603 [fillcolor = "0.352941 1.0 1.0", label = "tosa.reshape : (tensor<1x144x1x1xf32...)\n\nnew_shape: array<i64: 1, 144, 1...", shape = ellipse, style = filled];
          v604 [fillcolor = "0.411765 1.0 1.0", label = "tosa.mul : (tensor<4x144x2x2xf32...)\n\nshift: 0 : i8", shape = ellipse, style = filled];
          v605 [fillcolor = "0.411765 1.0 1.0", label = "tosa.mul : (tensor<4x144x2x2xf32...)\n\nshift: 0 : i8", shape = ellipse, style = filled];
          v606 [fillcolor = "0.235294 1.0 1.0", label = "tosa.add : (tensor<4x144x2x2xf32...)\n", shape = ellipse, style = filled];
          v607 [fillcolor = "0.235294 1.0 1.0", label = "tosa.add : (tensor<4x144x2x2xf32...)\n", shape = ellipse, style = filled];
          v608 [fillcolor = "0.470588 1.0 1.0", label = "tosa.clamp : (tensor<4x144x2x2xf32...)\n\nmax_fp: 3.40282347E+38 : f32\nmax_int: 2147483647 : i64\nmin_fp: 0.000000e+00 : f32\nmin_int: 0 : i64", shape = ellipse, style = filled];
          v609 [fillcolor = "0.529412 1.0 1.0", label = "tosa.minimum : (tensor<4x144x2x2xf32...)\n", shape = ellipse, style = filled];
          v610 [fillcolor = "0.411765 1.0 1.0", label = "tosa.mul : (tensor<4x144x2x2xf32...)\n\nshift: 0 : i8", shape = ellipse, style = filled];
          v611 [fillcolor = "0.411765 1.0 1.0", label = "tosa.mul : (tensor<4x144x2x2xf32...)\n\nshift: 0 : i8", shape = ellipse, style = filled];
          v612 [fillcolor = "0.058824 1.0 1.0", label = "tosa.transpose : (tensor<4x2x2x144xf32...)\n", shape = ellipse, style = filled];
          v613 [fillcolor = "0.647059 1.0 1.0", label = "tosa.avg_pool2d : (tensor<4x1x1x144xf32...)\n\nacc_type: f32\nkernel: array<i64: 2, 2>\npad: array<i64: 0, 0, 0, ...\nstride: array<i64: 2, 2>", shape = ellipse, style = filled];
          v614 [fillcolor = "0.117647 1.0 1.0", label = "tosa.conv2d : (tensor<4x1x1x40xf32>)\n\ndilation: array<i64: 1, 1>\npad: array<i64: 0, 0, 0, ...\nstride: array<i64: 1, 1>", shape = ellipse, style = filled];
          v615 [fillcolor = "0.352941 1.0 1.0", label = "tosa.reshape : (tensor<4x40x1x1xf32>)\n\nnew_shape: array<i64: 4, 40, 1,...", shape = ellipse, style = filled];
          v616 [fillcolor = "0.470588 1.0 1.0", label = "tosa.clamp : (tensor<4x40x1x1xf32>)\n\nmax_fp: 3.40282347E+38 : f32\nmax_int: 2147483647 : i64\nmin_fp: 0.000000e+00 : f32\nmin_int: 0 : i64", shape = ellipse, style = filled];
          v617 [fillcolor = "0.352941 1.0 1.0", label = "tosa.reshape : (tensor<4x1x1x40xf32>)\n\nnew_shape: array<i64: 4, 1, 1, ...", shape = ellipse, style = filled];
          v618 [fillcolor = "0.117647 1.0 1.0", label = "tosa.conv2d : (tensor<4x1x1x144xf32...)\n\ndilation: array<i64: 1, 1>\npad: array<i64: 0, 0, 0, ...\nstride: array<i64: 1, 1>", shape = ellipse, style = filled];
          v619 [fillcolor = "0.352941 1.0 1.0", label = "tosa.reshape : (tensor<4x144x1x1xf32...)\n\nnew_shape: array<i64: 4, 144, 1...", shape = ellipse, style = filled];
          v620 [fillcolor = "0.235294 1.0 1.0", label = "tosa.add : (tensor<4x144x1x1xf32...)\n", shape = ellipse, style = filled];
          v621 [fillcolor = "0.411765 1.0 1.0", label = "tosa.mul : (tensor<4x144x1x1xf32...)\n\nshift: 0 : i8", shape = ellipse, style = filled];
          v622 [fillcolor = "0.529412 1.0 1.0", label = "tosa.minimum : (tensor<4x144x1x1xf32...)\n", shape = ellipse, style = filled];
          v623 [fillcolor = "0.705882 1.0 1.0", label = "tosa.maximum : (tensor<4x144x1x1xf32...)\n", shape = ellipse, style = filled];
          v624 [fillcolor = "0.411765 1.0 1.0", label = "tosa.mul : (tensor<4x144x2x2xf32...)\n\nshift: 0 : i8", shape = ellipse, style = filled];
          v625 [fillcolor = "0.058824 1.0 1.0", label = "tosa.transpose : (tensor<4x2x2x144xf32...)\n", shape = ellipse, style = filled];
          v626 [fillcolor = "0.117647 1.0 1.0", label = "tosa.conv2d : (tensor<4x2x2x48xf32>)\n\ndilation: array<i64: 1, 1>\npad: array<i64: 0, 0, 0, ...\nstride: array<i64: 1, 1>", shape = ellipse, style = filled];
          v627 [fillcolor = "0.058824 1.0 1.0", label = "tosa.transpose : (tensor<4x48x2x2xf32>)\n", shape = ellipse, style = filled];
          v628 [fillcolor = "0.176471 1.0 1.0", label = "tosa.sub : (tensor<4x48x2x2xf32>)\n", shape = ellipse, style = filled];
          v629 [fillcolor = "0.235294 1.0 1.0", label = "tosa.add : (tensor<48x1x1xf32>)\n", shape = ellipse, style = filled];
          v630 [fillcolor = "0.294118 1.0 1.0", label = "tosa.rsqrt : (tensor<48x1x1xf32>)\n", shape = ellipse, style = filled];
          v631 [fillcolor = "0.352941 1.0 1.0", label = "tosa.reshape : (tensor<1x48x1x1xf32>)\n\nnew_shape: array<i64: 1, 48, 1,...", shape = ellipse, style = filled];
          v632 [fillcolor = "0.411765 1.0 1.0", label = "tosa.mul : (tensor<4x48x2x2xf32>)\n\nshift: 0 : i8", shape = ellipse, style = filled];
          v633 [fillcolor = "0.411765 1.0 1.0", label = "tosa.mul : (tensor<4x48x2x2xf32>)\n\nshift: 0 : i8", shape = ellipse, style = filled];
          v634 [fillcolor = "0.235294 1.0 1.0", label = "tosa.add : (tensor<4x48x2x2xf32>)\n", shape = ellipse, style = filled];
          v635 [fillcolor = "0.235294 1.0 1.0", label = "tosa.add : (tensor<4x48x2x2xf32>)\n", shape = ellipse, style = filled];
          v636 [fillcolor = "0.058824 1.0 1.0", label = "tosa.transpose : (tensor<4x2x2x48xf32>)\n", shape = ellipse, style = filled];
          v637 [fillcolor = "0.117647 1.0 1.0", label = "tosa.conv2d : (tensor<4x2x2x288xf32...)\n\ndilation: array<i64: 1, 1>\npad: array<i64: 0, 0, 0, ...\nstride: array<i64: 1, 1>", shape = ellipse, style = filled];
          v638 [fillcolor = "0.058824 1.0 1.0", label = "tosa.transpose : (tensor<4x288x2x2xf32...)\n", shape = ellipse, style = filled];
          v639 [fillcolor = "0.176471 1.0 1.0", label = "tosa.sub : (tensor<4x288x2x2xf32...)\n", shape = ellipse, style = filled];
          v640 [fillcolor = "0.235294 1.0 1.0", label = "tosa.add : (tensor<288x1x1xf32>)\n", shape = ellipse, style = filled];
          v641 [fillcolor = "0.294118 1.0 1.0", label = "tosa.rsqrt : (tensor<288x1x1xf32>)\n", shape = ellipse, style = filled];
          v642 [fillcolor = "0.352941 1.0 1.0", label = "tosa.reshape : (tensor<1x288x1x1xf32...)\n\nnew_shape: array<i64: 1, 288, 1...", shape = ellipse, style = filled];
          v643 [fillcolor = "0.411765 1.0 1.0", label = "tosa.mul : (tensor<4x288x2x2xf32...)\n\nshift: 0 : i8", shape = ellipse, style = filled];
          v644 [fillcolor = "0.411765 1.0 1.0", label = "tosa.mul : (tensor<4x288x2x2xf32...)\n\nshift: 0 : i8", shape = ellipse, style = filled];
          v645 [fillcolor = "0.235294 1.0 1.0", label = "tosa.add : (tensor<4x288x2x2xf32...)\n", shape = ellipse, style = filled];
          v646 [fillcolor = "0.235294 1.0 1.0", label = "tosa.add : (tensor<4x288x2x2xf32...)\n", shape = ellipse, style = filled];
          v647 [fillcolor = "0.470588 1.0 1.0", label = "tosa.clamp : (tensor<4x288x2x2xf32...)\n\nmax_fp: 3.40282347E+38 : f32\nmax_int: 2147483647 : i64\nmin_fp: 0.000000e+00 : f32\nmin_int: 0 : i64", shape = ellipse, style = filled];
          v648 [fillcolor = "0.529412 1.0 1.0", label = "tosa.minimum : (tensor<4x288x2x2xf32...)\n", shape = ellipse, style = filled];
          v649 [fillcolor = "0.411765 1.0 1.0", label = "tosa.mul : (tensor<4x288x2x2xf32...)\n\nshift: 0 : i8", shape = ellipse, style = filled];
          v650 [fillcolor = "0.411765 1.0 1.0", label = "tosa.mul : (tensor<4x288x2x2xf32...)\n\nshift: 0 : i8", shape = ellipse, style = filled];
          v651 [fillcolor = "0.058824 1.0 1.0", label = "tosa.transpose : (tensor<4x2x2x288xf32...)\n", shape = ellipse, style = filled];
          v652 [fillcolor = "0.058824 1.0 1.0", label = "tosa.transpose : (tensor<5x5x288x1xf32...)\n", shape = ellipse, style = filled];
          v653 [fillcolor = "0.588235 1.0 1.0", label = "tosa.depthwise_conv2d : (tensor<4x1x1x288xf32...)\n\ndilation: array<i64: 1, 1>\npad: array<i64: 2, 2, 2, ...\nstride: array<i64: 2, 2>", shape = ellipse, style = filled];
          v654 [fillcolor = "0.352941 1.0 1.0", label = "tosa.reshape : (tensor<4x288x1x1xf32...)\n\nnew_shape: array<i64: 4, 288, 1...", shape = ellipse, style = filled];
          v655 [fillcolor = "0.176471 1.0 1.0", label = "tosa.sub : (tensor<4x288x1x1xf32...)\n", shape = ellipse, style = filled];
          v656 [fillcolor = "0.235294 1.0 1.0", label = "tosa.add : (tensor<288x1x1xf32>)\n", shape = ellipse, style = filled];
          v657 [fillcolor = "0.294118 1.0 1.0", label = "tosa.rsqrt : (tensor<288x1x1xf32>)\n", shape = ellipse, style = filled];
          v658 [fillcolor = "0.352941 1.0 1.0", label = "tosa.reshape : (tensor<1x288x1x1xf32...)\n\nnew_shape: array<i64: 1, 288, 1...", shape = ellipse, style = filled];
          v659 [fillcolor = "0.411765 1.0 1.0", label = "tosa.mul : (tensor<4x288x1x1xf32...)\n\nshift: 0 : i8", shape = ellipse, style = filled];
          v660 [fillcolor = "0.411765 1.0 1.0", label = "tosa.mul : (tensor<4x288x1x1xf32...)\n\nshift: 0 : i8", shape = ellipse, style = filled];
          v661 [fillcolor = "0.235294 1.0 1.0", label = "tosa.add : (tensor<4x288x1x1xf32...)\n", shape = ellipse, style = filled];
          v662 [fillcolor = "0.235294 1.0 1.0", label = "tosa.add : (tensor<4x288x1x1xf32...)\n", shape = ellipse, style = filled];
          v663 [fillcolor = "0.470588 1.0 1.0", label = "tosa.clamp : (tensor<4x288x1x1xf32...)\n\nmax_fp: 3.40282347E+38 : f32\nmax_int: 2147483647 : i64\nmin_fp: 0.000000e+00 : f32\nmin_int: 0 : i64", shape = ellipse, style = filled];
          v664 [fillcolor = "0.529412 1.0 1.0", label = "tosa.minimum : (tensor<4x288x1x1xf32...)\n", shape = ellipse, style = filled];
          v665 [fillcolor = "0.411765 1.0 1.0", label = "tosa.mul : (tensor<4x288x1x1xf32...)\n\nshift: 0 : i8", shape = ellipse, style = filled];
          v666 [fillcolor = "0.411765 1.0 1.0", label = "tosa.mul : (tensor<4x288x1x1xf32...)\n\nshift: 0 : i8", shape = ellipse, style = filled];
          v667 [fillcolor = "0.352941 1.0 1.0", label = "tosa.reshape : (tensor<4x1x1x288xf32...)\n\nnew_shape: array<i64: 4, 1, 1, ...", shape = ellipse, style = filled];
          v668 [fillcolor = "0.647059 1.0 1.0", label = "tosa.avg_pool2d : (tensor<4x1x1x288xf32...)\n\nacc_type: f32\nkernel: array<i64: 1, 1>\npad: array<i64: 0, 0, 0, ...\nstride: array<i64: 1, 1>", shape = ellipse, style = filled];
          v669 [fillcolor = "0.117647 1.0 1.0", label = "tosa.conv2d : (tensor<4x1x1x72xf32>)\n\ndilation: array<i64: 1, 1>\npad: array<i64: 0, 0, 0, ...\nstride: array<i64: 1, 1>", shape = ellipse, style = filled];
          v670 [fillcolor = "0.352941 1.0 1.0", label = "tosa.reshape : (tensor<4x72x1x1xf32>)\n\nnew_shape: array<i64: 4, 72, 1,...", shape = ellipse, style = filled];
          v671 [fillcolor = "0.470588 1.0 1.0", label = "tosa.clamp : (tensor<4x72x1x1xf32>)\n\nmax_fp: 3.40282347E+38 : f32\nmax_int: 2147483647 : i64\nmin_fp: 0.000000e+00 : f32\nmin_int: 0 : i64", shape = ellipse, style = filled];
          v672 [fillcolor = "0.352941 1.0 1.0", label = "tosa.reshape : (tensor<4x1x1x72xf32>)\n\nnew_shape: array<i64: 4, 1, 1, ...", shape = ellipse, style = filled];
          v673 [fillcolor = "0.117647 1.0 1.0", label = "tosa.conv2d : (tensor<4x1x1x288xf32...)\n\ndilation: array<i64: 1, 1>\npad: array<i64: 0, 0, 0, ...\nstride: array<i64: 1, 1>", shape = ellipse, style = filled];
          v674 [fillcolor = "0.352941 1.0 1.0", label = "tosa.reshape : (tensor<4x288x1x1xf32...)\n\nnew_shape: array<i64: 4, 288, 1...", shape = ellipse, style = filled];
          v675 [fillcolor = "0.235294 1.0 1.0", label = "tosa.add : (tensor<4x288x1x1xf32...)\n", shape = ellipse, style = filled];
          v676 [fillcolor = "0.411765 1.0 1.0", label = "tosa.mul : (tensor<4x288x1x1xf32...)\n\nshift: 0 : i8", shape = ellipse, style = filled];
          v677 [fillcolor = "0.529412 1.0 1.0", label = "tosa.minimum : (tensor<4x288x1x1xf32...)\n", shape = ellipse, style = filled];
          v678 [fillcolor = "0.705882 1.0 1.0", label = "tosa.maximum : (tensor<4x288x1x1xf32...)\n", shape = ellipse, style = filled];
          v679 [fillcolor = "0.411765 1.0 1.0", label = "tosa.mul : (tensor<4x288x1x1xf32...)\n\nshift: 0 : i8", shape = ellipse, style = filled];
          v680 [fillcolor = "0.352941 1.0 1.0", label = "tosa.reshape : (tensor<4x1x1x288xf32...)\n\nnew_shape: array<i64: 4, 1, 1, ...", shape = ellipse, style = filled];
          v681 [fillcolor = "0.117647 1.0 1.0", label = "tosa.conv2d : (tensor<4x1x1x96xf32>)\n\ndilation: array<i64: 1, 1>\npad: array<i64: 0, 0, 0, ...\nstride: array<i64: 1, 1>", shape = ellipse, style = filled];
          v682 [fillcolor = "0.352941 1.0 1.0", label = "tosa.reshape : (tensor<4x96x1x1xf32>)\n\nnew_shape: array<i64: 4, 96, 1,...", shape = ellipse, style = filled];
          v683 [fillcolor = "0.176471 1.0 1.0", label = "tosa.sub : (tensor<4x96x1x1xf32>)\n", shape = ellipse, style = filled];
          v684 [fillcolor = "0.235294 1.0 1.0", label = "tosa.add : (tensor<96x1x1xf32>)\n", shape = ellipse, style = filled];
          v685 [fillcolor = "0.294118 1.0 1.0", label = "tosa.rsqrt : (tensor<96x1x1xf32>)\n", shape = ellipse, style = filled];
          v686 [fillcolor = "0.352941 1.0 1.0", label = "tosa.reshape : (tensor<1x96x1x1xf32>)\n\nnew_shape: array<i64: 1, 96, 1,...", shape = ellipse, style = filled];
          v687 [fillcolor = "0.411765 1.0 1.0", label = "tosa.mul : (tensor<4x96x1x1xf32>)\n\nshift: 0 : i8", shape = ellipse, style = filled];
          v688 [fillcolor = "0.411765 1.0 1.0", label = "tosa.mul : (tensor<4x96x1x1xf32>)\n\nshift: 0 : i8", shape = ellipse, style = filled];
          v689 [fillcolor = "0.235294 1.0 1.0", label = "tosa.add : (tensor<4x96x1x1xf32>)\n", shape = ellipse, style = filled];
          v690 [fillcolor = "0.352941 1.0 1.0", label = "tosa.reshape : (tensor<4x1x1x96xf32>)\n\nnew_shape: array<i64: 4, 1, 1, ...", shape = ellipse, style = filled];
          v691 [fillcolor = "0.117647 1.0 1.0", label = "tosa.conv2d : (tensor<4x1x1x576xf32...)\n\ndilation: array<i64: 1, 1>\npad: array<i64: 0, 0, 0, ...\nstride: array<i64: 1, 1>", shape = ellipse, style = filled];
          v692 [fillcolor = "0.352941 1.0 1.0", label = "tosa.reshape : (tensor<4x576x1x1xf32...)\n\nnew_shape: array<i64: 4, 576, 1...", shape = ellipse, style = filled];
          v693 [fillcolor = "0.176471 1.0 1.0", label = "tosa.sub : (tensor<4x576x1x1xf32...)\n", shape = ellipse, style = filled];
          v694 [fillcolor = "0.235294 1.0 1.0", label = "tosa.add : (tensor<576x1x1xf32>)\n", shape = ellipse, style = filled];
          v695 [fillcolor = "0.294118 1.0 1.0", label = "tosa.rsqrt : (tensor<576x1x1xf32>)\n", shape = ellipse, style = filled];
          v696 [fillcolor = "0.352941 1.0 1.0", label = "tosa.reshape : (tensor<1x576x1x1xf32...)\n\nnew_shape: array<i64: 1, 576, 1...", shape = ellipse, style = filled];
          v697 [fillcolor = "0.411765 1.0 1.0", label = "tosa.mul : (tensor<4x576x1x1xf32...)\n\nshift: 0 : i8", shape = ellipse, style = filled];
          v698 [fillcolor = "0.411765 1.0 1.0", label = "tosa.mul : (tensor<4x576x1x1xf32...)\n\nshift: 0 : i8", shape = ellipse, style = filled];
          v699 [fillcolor = "0.235294 1.0 1.0", label = "tosa.add : (tensor<4x576x1x1xf32...)\n", shape = ellipse, style = filled];
          v700 [fillcolor = "0.235294 1.0 1.0", label = "tosa.add : (tensor<4x576x1x1xf32...)\n", shape = ellipse, style = filled];
          v701 [fillcolor = "0.470588 1.0 1.0", label = "tosa.clamp : (tensor<4x576x1x1xf32...)\n\nmax_fp: 3.40282347E+38 : f32\nmax_int: 2147483647 : i64\nmin_fp: 0.000000e+00 : f32\nmin_int: 0 : i64", shape = ellipse, style = filled];
          v702 [fillcolor = "0.529412 1.0 1.0", label = "tosa.minimum : (tensor<4x576x1x1xf32...)\n", shape = ellipse, style = filled];
          v703 [fillcolor = "0.411765 1.0 1.0", label = "tosa.mul : (tensor<4x576x1x1xf32...)\n\nshift: 0 : i8", shape = ellipse, style = filled];
          v704 [fillcolor = "0.411765 1.0 1.0", label = "tosa.mul : (tensor<4x576x1x1xf32...)\n\nshift: 0 : i8", shape = ellipse, style = filled];
          v705 [fillcolor = "0.352941 1.0 1.0", label = "tosa.reshape : (tensor<4x1x1x576xf32...)\n\nnew_shape: array<i64: 4, 1, 1, ...", shape = ellipse, style = filled];
          v706 [fillcolor = "0.058824 1.0 1.0", label = "tosa.transpose : (tensor<5x5x576x1xf32...)\n", shape = ellipse, style = filled];
          v707 [fillcolor = "0.588235 1.0 1.0", label = "tosa.depthwise_conv2d : (tensor<4x1x1x576xf32...)\n\ndilation: array<i64: 1, 1>\npad: array<i64: 2, 2, 2, ...\nstride: array<i64: 1, 1>", shape = ellipse, style = filled];
          v708 [fillcolor = "0.352941 1.0 1.0", label = "tosa.reshape : (tensor<4x576x1x1xf32...)\n\nnew_shape: array<i64: 4, 576, 1...", shape = ellipse, style = filled];
          v709 [fillcolor = "0.176471 1.0 1.0", label = "tosa.sub : (tensor<4x576x1x1xf32...)\n", shape = ellipse, style = filled];
          v710 [fillcolor = "0.235294 1.0 1.0", label = "tosa.add : (tensor<576x1x1xf32>)\n", shape = ellipse, style = filled];
          v711 [fillcolor = "0.294118 1.0 1.0", label = "tosa.rsqrt : (tensor<576x1x1xf32>)\n", shape = ellipse, style = filled];
          v712 [fillcolor = "0.352941 1.0 1.0", label = "tosa.reshape : (tensor<1x576x1x1xf32...)\n\nnew_shape: array<i64: 1, 576, 1...", shape = ellipse, style = filled];
          v713 [fillcolor = "0.411765 1.0 1.0", label = "tosa.mul : (tensor<4x576x1x1xf32...)\n\nshift: 0 : i8", shape = ellipse, style = filled];
          v714 [fillcolor = "0.411765 1.0 1.0", label = "tosa.mul : (tensor<4x576x1x1xf32...)\n\nshift: 0 : i8", shape = ellipse, style = filled];
          v715 [fillcolor = "0.235294 1.0 1.0", label = "tosa.add : (tensor<4x576x1x1xf32...)\n", shape = ellipse, style = filled];
          v716 [fillcolor = "0.235294 1.0 1.0", label = "tosa.add : (tensor<4x576x1x1xf32...)\n", shape = ellipse, style = filled];
          v717 [fillcolor = "0.470588 1.0 1.0", label = "tosa.clamp : (tensor<4x576x1x1xf32...)\n\nmax_fp: 3.40282347E+38 : f32\nmax_int: 2147483647 : i64\nmin_fp: 0.000000e+00 : f32\nmin_int: 0 : i64", shape = ellipse, style = filled];
          v718 [fillcolor = "0.529412 1.0 1.0", label = "tosa.minimum : (tensor<4x576x1x1xf32...)\n", shape = ellipse, style = filled];
          v719 [fillcolor = "0.411765 1.0 1.0", label = "tosa.mul : (tensor<4x576x1x1xf32...)\n\nshift: 0 : i8", shape = ellipse, style = filled];
          v720 [fillcolor = "0.411765 1.0 1.0", label = "tosa.mul : (tensor<4x576x1x1xf32...)\n\nshift: 0 : i8", shape = ellipse, style = filled];
          v721 [fillcolor = "0.352941 1.0 1.0", label = "tosa.reshape : (tensor<4x1x1x576xf32...)\n\nnew_shape: array<i64: 4, 1, 1, ...", shape = ellipse, style = filled];
          v722 [fillcolor = "0.647059 1.0 1.0", label = "tosa.avg_pool2d : (tensor<4x1x1x576xf32...)\n\nacc_type: f32\nkernel: array<i64: 1, 1>\npad: array<i64: 0, 0, 0, ...\nstride: array<i64: 1, 1>", shape = ellipse, style = filled];
          v723 [fillcolor = "0.117647 1.0 1.0", label = "tosa.conv2d : (tensor<4x1x1x144xf32...)\n\ndilation: array<i64: 1, 1>\npad: array<i64: 0, 0, 0, ...\nstride: array<i64: 1, 1>", shape = ellipse, style = filled];
          v724 [fillcolor = "0.352941 1.0 1.0", label = "tosa.reshape : (tensor<4x144x1x1xf32...)\n\nnew_shape: array<i64: 4, 144, 1...", shape = ellipse, style = filled];
          v725 [fillcolor = "0.470588 1.0 1.0", label = "tosa.clamp : (tensor<4x144x1x1xf32...)\n\nmax_fp: 3.40282347E+38 : f32\nmax_int: 2147483647 : i64\nmin_fp: 0.000000e+00 : f32\nmin_int: 0 : i64", shape = ellipse, style = filled];
          v726 [fillcolor = "0.352941 1.0 1.0", label = "tosa.reshape : (tensor<4x1x1x144xf32...)\n\nnew_shape: array<i64: 4, 1, 1, ...", shape = ellipse, style = filled];
          v727 [fillcolor = "0.117647 1.0 1.0", label = "tosa.conv2d : (tensor<4x1x1x576xf32...)\n\ndilation: array<i64: 1, 1>\npad: array<i64: 0, 0, 0, ...\nstride: array<i64: 1, 1>", shape = ellipse, style = filled];
          v728 [fillcolor = "0.352941 1.0 1.0", label = "tosa.reshape : (tensor<4x576x1x1xf32...)\n\nnew_shape: array<i64: 4, 576, 1...", shape = ellipse, style = filled];
          v729 [fillcolor = "0.235294 1.0 1.0", label = "tosa.add : (tensor<4x576x1x1xf32...)\n", shape = ellipse, style = filled];
          v730 [fillcolor = "0.411765 1.0 1.0", label = "tosa.mul : (tensor<4x576x1x1xf32...)\n\nshift: 0 : i8", shape = ellipse, style = filled];
          v731 [fillcolor = "0.529412 1.0 1.0", label = "tosa.minimum : (tensor<4x576x1x1xf32...)\n", shape = ellipse, style = filled];
          v732 [fillcolor = "0.705882 1.0 1.0", label = "tosa.maximum : (tensor<4x576x1x1xf32...)\n", shape = ellipse, style = filled];
          v733 [fillcolor = "0.411765 1.0 1.0", label = "tosa.mul : (tensor<4x576x1x1xf32...)\n\nshift: 0 : i8", shape = ellipse, style = filled];
          v734 [fillcolor = "0.352941 1.0 1.0", label = "tosa.reshape : (tensor<4x1x1x576xf32...)\n\nnew_shape: array<i64: 4, 1, 1, ...", shape = ellipse, style = filled];
          v735 [fillcolor = "0.117647 1.0 1.0", label = "tosa.conv2d : (tensor<4x1x1x96xf32>)\n\ndilation: array<i64: 1, 1>\npad: array<i64: 0, 0, 0, ...\nstride: array<i64: 1, 1>", shape = ellipse, style = filled];
          v736 [fillcolor = "0.352941 1.0 1.0", label = "tosa.reshape : (tensor<4x96x1x1xf32>)\n\nnew_shape: array<i64: 4, 96, 1,...", shape = ellipse, style = filled];
          v737 [fillcolor = "0.176471 1.0 1.0", label = "tosa.sub : (tensor<4x96x1x1xf32>)\n", shape = ellipse, style = filled];
          v738 [fillcolor = "0.235294 1.0 1.0", label = "tosa.add : (tensor<96x1x1xf32>)\n", shape = ellipse, style = filled];
          v739 [fillcolor = "0.294118 1.0 1.0", label = "tosa.rsqrt : (tensor<96x1x1xf32>)\n", shape = ellipse, style = filled];
          v740 [fillcolor = "0.352941 1.0 1.0", label = "tosa.reshape : (tensor<1x96x1x1xf32>)\n\nnew_shape: array<i64: 1, 96, 1,...", shape = ellipse, style = filled];
          v741 [fillcolor = "0.411765 1.0 1.0", label = "tosa.mul : (tensor<4x96x1x1xf32>)\n\nshift: 0 : i8", shape = ellipse, style = filled];
          v742 [fillcolor = "0.411765 1.0 1.0", label = "tosa.mul : (tensor<4x96x1x1xf32>)\n\nshift: 0 : i8", shape = ellipse, style = filled];
          v743 [fillcolor = "0.235294 1.0 1.0", label = "tosa.add : (tensor<4x96x1x1xf32>)\n", shape = ellipse, style = filled];
          v744 [fillcolor = "0.235294 1.0 1.0", label = "tosa.add : (tensor<4x96x1x1xf32>)\n", shape = ellipse, style = filled];
          v745 [fillcolor = "0.352941 1.0 1.0", label = "tosa.reshape : (tensor<4x1x1x96xf32>)\n\nnew_shape: array<i64: 4, 1, 1, ...", shape = ellipse, style = filled];
          v746 [fillcolor = "0.117647 1.0 1.0", label = "tosa.conv2d : (tensor<4x1x1x576xf32...)\n\ndilation: array<i64: 1, 1>\npad: array<i64: 0, 0, 0, ...\nstride: array<i64: 1, 1>", shape = ellipse, style = filled];
          v747 [fillcolor = "0.352941 1.0 1.0", label = "tosa.reshape : (tensor<4x576x1x1xf32...)\n\nnew_shape: array<i64: 4, 576, 1...", shape = ellipse, style = filled];
          v748 [fillcolor = "0.176471 1.0 1.0", label = "tosa.sub : (tensor<4x576x1x1xf32...)\n", shape = ellipse, style = filled];
          v749 [fillcolor = "0.235294 1.0 1.0", label = "tosa.add : (tensor<576x1x1xf32>)\n", shape = ellipse, style = filled];
          v750 [fillcolor = "0.294118 1.0 1.0", label = "tosa.rsqrt : (tensor<576x1x1xf32>)\n", shape = ellipse, style = filled];
          v751 [fillcolor = "0.352941 1.0 1.0", label = "tosa.reshape : (tensor<1x576x1x1xf32...)\n\nnew_shape: array<i64: 1, 576, 1...", shape = ellipse, style = filled];
          v752 [fillcolor = "0.411765 1.0 1.0", label = "tosa.mul : (tensor<4x576x1x1xf32...)\n\nshift: 0 : i8", shape = ellipse, style = filled];
          v753 [fillcolor = "0.411765 1.0 1.0", label = "tosa.mul : (tensor<4x576x1x1xf32...)\n\nshift: 0 : i8", shape = ellipse, style = filled];
          v754 [fillcolor = "0.235294 1.0 1.0", label = "tosa.add : (tensor<4x576x1x1xf32...)\n", shape = ellipse, style = filled];
          v755 [fillcolor = "0.235294 1.0 1.0", label = "tosa.add : (tensor<4x576x1x1xf32...)\n", shape = ellipse, style = filled];
          v756 [fillcolor = "0.470588 1.0 1.0", label = "tosa.clamp : (tensor<4x576x1x1xf32...)\n\nmax_fp: 3.40282347E+38 : f32\nmax_int: 2147483647 : i64\nmin_fp: 0.000000e+00 : f32\nmin_int: 0 : i64", shape = ellipse, style = filled];
          v757 [fillcolor = "0.529412 1.0 1.0", label = "tosa.minimum : (tensor<4x576x1x1xf32...)\n", shape = ellipse, style = filled];
          v758 [fillcolor = "0.411765 1.0 1.0", label = "tosa.mul : (tensor<4x576x1x1xf32...)\n\nshift: 0 : i8", shape = ellipse, style = filled];
          v759 [fillcolor = "0.411765 1.0 1.0", label = "tosa.mul : (tensor<4x576x1x1xf32...)\n\nshift: 0 : i8", shape = ellipse, style = filled];
          v760 [fillcolor = "0.352941 1.0 1.0", label = "tosa.reshape : (tensor<4x1x1x576xf32...)\n\nnew_shape: array<i64: 4, 1, 1, ...", shape = ellipse, style = filled];
          v761 [fillcolor = "0.058824 1.0 1.0", label = "tosa.transpose : (tensor<5x5x576x1xf32...)\n", shape = ellipse, style = filled];
          v762 [fillcolor = "0.588235 1.0 1.0", label = "tosa.depthwise_conv2d : (tensor<4x1x1x576xf32...)\n\ndilation: array<i64: 1, 1>\npad: array<i64: 2, 2, 2, ...\nstride: array<i64: 1, 1>", shape = ellipse, style = filled];
          v763 [fillcolor = "0.352941 1.0 1.0", label = "tosa.reshape : (tensor<4x576x1x1xf32...)\n\nnew_shape: array<i64: 4, 576, 1...", shape = ellipse, style = filled];
          v764 [fillcolor = "0.176471 1.0 1.0", label = "tosa.sub : (tensor<4x576x1x1xf32...)\n", shape = ellipse, style = filled];
          v765 [fillcolor = "0.235294 1.0 1.0", label = "tosa.add : (tensor<576x1x1xf32>)\n", shape = ellipse, style = filled];
          v766 [fillcolor = "0.294118 1.0 1.0", label = "tosa.rsqrt : (tensor<576x1x1xf32>)\n", shape = ellipse, style = filled];
          v767 [fillcolor = "0.352941 1.0 1.0", label = "tosa.reshape : (tensor<1x576x1x1xf32...)\n\nnew_shape: array<i64: 1, 576, 1...", shape = ellipse, style = filled];
          v768 [fillcolor = "0.411765 1.0 1.0", label = "tosa.mul : (tensor<4x576x1x1xf32...)\n\nshift: 0 : i8", shape = ellipse, style = filled];
          v769 [fillcolor = "0.411765 1.0 1.0", label = "tosa.mul : (tensor<4x576x1x1xf32...)\n\nshift: 0 : i8", shape = ellipse, style = filled];
          v770 [fillcolor = "0.235294 1.0 1.0", label = "tosa.add : (tensor<4x576x1x1xf32...)\n", shape = ellipse, style = filled];
          v771 [fillcolor = "0.235294 1.0 1.0", label = "tosa.add : (tensor<4x576x1x1xf32...)\n", shape = ellipse, style = filled];
          v772 [fillcolor = "0.470588 1.0 1.0", label = "tosa.clamp : (tensor<4x576x1x1xf32...)\n\nmax_fp: 3.40282347E+38 : f32\nmax_int: 2147483647 : i64\nmin_fp: 0.000000e+00 : f32\nmin_int: 0 : i64", shape = ellipse, style = filled];
          v773 [fillcolor = "0.529412 1.0 1.0", label = "tosa.minimum : (tensor<4x576x1x1xf32...)\n", shape = ellipse, style = filled];
          v774 [fillcolor = "0.411765 1.0 1.0", label = "tosa.mul : (tensor<4x576x1x1xf32...)\n\nshift: 0 : i8", shape = ellipse, style = filled];
          v775 [fillcolor = "0.411765 1.0 1.0", label = "tosa.mul : (tensor<4x576x1x1xf32...)\n\nshift: 0 : i8", shape = ellipse, style = filled];
          v776 [fillcolor = "0.352941 1.0 1.0", label = "tosa.reshape : (tensor<4x1x1x576xf32...)\n\nnew_shape: array<i64: 4, 1, 1, ...", shape = ellipse, style = filled];
          v777 [fillcolor = "0.647059 1.0 1.0", label = "tosa.avg_pool2d : (tensor<4x1x1x576xf32...)\n\nacc_type: f32\nkernel: array<i64: 1, 1>\npad: array<i64: 0, 0, 0, ...\nstride: array<i64: 1, 1>", shape = ellipse, style = filled];
          v778 [fillcolor = "0.117647 1.0 1.0", label = "tosa.conv2d : (tensor<4x1x1x144xf32...)\n\ndilation: array<i64: 1, 1>\npad: array<i64: 0, 0, 0, ...\nstride: array<i64: 1, 1>", shape = ellipse, style = filled];
          v779 [fillcolor = "0.352941 1.0 1.0", label = "tosa.reshape : (tensor<4x144x1x1xf32...)\n\nnew_shape: array<i64: 4, 144, 1...", shape = ellipse, style = filled];
          v780 [fillcolor = "0.470588 1.0 1.0", label = "tosa.clamp : (tensor<4x144x1x1xf32...)\n\nmax_fp: 3.40282347E+38 : f32\nmax_int: 2147483647 : i64\nmin_fp: 0.000000e+00 : f32\nmin_int: 0 : i64", shape = ellipse, style = filled];
          v781 [fillcolor = "0.352941 1.0 1.0", label = "tosa.reshape : (tensor<4x1x1x144xf32...)\n\nnew_shape: array<i64: 4, 1, 1, ...", shape = ellipse, style = filled];
          v782 [fillcolor = "0.117647 1.0 1.0", label = "tosa.conv2d : (tensor<4x1x1x576xf32...)\n\ndilation: array<i64: 1, 1>\npad: array<i64: 0, 0, 0, ...\nstride: array<i64: 1, 1>", shape = ellipse, style = filled];
          v783 [fillcolor = "0.352941 1.0 1.0", label = "tosa.reshape : (tensor<4x576x1x1xf32...)\n\nnew_shape: array<i64: 4, 576, 1...", shape = ellipse, style = filled];
          v784 [fillcolor = "0.235294 1.0 1.0", label = "tosa.add : (tensor<4x576x1x1xf32...)\n", shape = ellipse, style = filled];
          v785 [fillcolor = "0.411765 1.0 1.0", label = "tosa.mul : (tensor<4x576x1x1xf32...)\n\nshift: 0 : i8", shape = ellipse, style = filled];
          v786 [fillcolor = "0.529412 1.0 1.0", label = "tosa.minimum : (tensor<4x576x1x1xf32...)\n", shape = ellipse, style = filled];
          v787 [fillcolor = "0.705882 1.0 1.0", label = "tosa.maximum : (tensor<4x576x1x1xf32...)\n", shape = ellipse, style = filled];
          v788 [fillcolor = "0.411765 1.0 1.0", label = "tosa.mul : (tensor<4x576x1x1xf32...)\n\nshift: 0 : i8", shape = ellipse, style = filled];
          v789 [fillcolor = "0.352941 1.0 1.0", label = "tosa.reshape : (tensor<4x1x1x576xf32...)\n\nnew_shape: array<i64: 4, 1, 1, ...", shape = ellipse, style = filled];
          v790 [fillcolor = "0.117647 1.0 1.0", label = "tosa.conv2d : (tensor<4x1x1x96xf32>)\n\ndilation: array<i64: 1, 1>\npad: array<i64: 0, 0, 0, ...\nstride: array<i64: 1, 1>", shape = ellipse, style = filled];
          v791 [fillcolor = "0.352941 1.0 1.0", label = "tosa.reshape : (tensor<4x96x1x1xf32>)\n\nnew_shape: array<i64: 4, 96, 1,...", shape = ellipse, style = filled];
          v792 [fillcolor = "0.176471 1.0 1.0", label = "tosa.sub : (tensor<4x96x1x1xf32>)\n", shape = ellipse, style = filled];
          v793 [fillcolor = "0.235294 1.0 1.0", label = "tosa.add : (tensor<96x1x1xf32>)\n", shape = ellipse, style = filled];
          v794 [fillcolor = "0.294118 1.0 1.0", label = "tosa.rsqrt : (tensor<96x1x1xf32>)\n", shape = ellipse, style = filled];
          v795 [fillcolor = "0.352941 1.0 1.0", label = "tosa.reshape : (tensor<1x96x1x1xf32>)\n\nnew_shape: array<i64: 1, 96, 1,...", shape = ellipse, style = filled];
          v796 [fillcolor = "0.411765 1.0 1.0", label = "tosa.mul : (tensor<4x96x1x1xf32>)\n\nshift: 0 : i8", shape = ellipse, style = filled];
          v797 [fillcolor = "0.411765 1.0 1.0", label = "tosa.mul : (tensor<4x96x1x1xf32>)\n\nshift: 0 : i8", shape = ellipse, style = filled];
          v798 [fillcolor = "0.235294 1.0 1.0", label = "tosa.add : (tensor<4x96x1x1xf32>)\n", shape = ellipse, style = filled];
          v799 [fillcolor = "0.235294 1.0 1.0", label = "tosa.add : (tensor<4x96x1x1xf32>)\n", shape = ellipse, style = filled];
          v800 [fillcolor = "0.352941 1.0 1.0", label = "tosa.reshape : (tensor<4x1x1x96xf32>)\n\nnew_shape: array<i64: 4, 1, 1, ...", shape = ellipse, style = filled];
          v801 [fillcolor = "0.117647 1.0 1.0", label = "tosa.conv2d : (tensor<4x1x1x576xf32...)\n\ndilation: array<i64: 1, 1>\npad: array<i64: 0, 0, 0, ...\nstride: array<i64: 1, 1>", shape = ellipse, style = filled];
          v802 [fillcolor = "0.352941 1.0 1.0", label = "tosa.reshape : (tensor<4x576x1x1xf32...)\n\nnew_shape: array<i64: 4, 576, 1...", shape = ellipse, style = filled];
          v803 [fillcolor = "0.176471 1.0 1.0", label = "tosa.sub : (tensor<4x576x1x1xf32...)\n", shape = ellipse, style = filled];
          v804 [fillcolor = "0.235294 1.0 1.0", label = "tosa.add : (tensor<576x1x1xf32>)\n", shape = ellipse, style = filled];
          v805 [fillcolor = "0.294118 1.0 1.0", label = "tosa.rsqrt : (tensor<576x1x1xf32>)\n", shape = ellipse, style = filled];
          v806 [fillcolor = "0.352941 1.0 1.0", label = "tosa.reshape : (tensor<1x576x1x1xf32...)\n\nnew_shape: array<i64: 1, 576, 1...", shape = ellipse, style = filled];
          v807 [fillcolor = "0.411765 1.0 1.0", label = "tosa.mul : (tensor<4x576x1x1xf32...)\n\nshift: 0 : i8", shape = ellipse, style = filled];
          v808 [fillcolor = "0.411765 1.0 1.0", label = "tosa.mul : (tensor<4x576x1x1xf32...)\n\nshift: 0 : i8", shape = ellipse, style = filled];
          v809 [fillcolor = "0.235294 1.0 1.0", label = "tosa.add : (tensor<4x576x1x1xf32...)\n", shape = ellipse, style = filled];
          v810 [fillcolor = "0.235294 1.0 1.0", label = "tosa.add : (tensor<4x576x1x1xf32...)\n", shape = ellipse, style = filled];
          v811 [fillcolor = "0.470588 1.0 1.0", label = "tosa.clamp : (tensor<4x576x1x1xf32...)\n\nmax_fp: 3.40282347E+38 : f32\nmax_int: 2147483647 : i64\nmin_fp: 0.000000e+00 : f32\nmin_int: 0 : i64", shape = ellipse, style = filled];
          v812 [fillcolor = "0.529412 1.0 1.0", label = "tosa.minimum : (tensor<4x576x1x1xf32...)\n", shape = ellipse, style = filled];
          v813 [fillcolor = "0.411765 1.0 1.0", label = "tosa.mul : (tensor<4x576x1x1xf32...)\n\nshift: 0 : i8", shape = ellipse, style = filled];
          v814 [fillcolor = "0.411765 1.0 1.0", label = "tosa.mul : (tensor<4x576x1x1xf32...)\n\nshift: 0 : i8", shape = ellipse, style = filled];
          v815 [fillcolor = "0.352941 1.0 1.0", label = "tosa.reshape : (tensor<4x1x1x576xf32...)\n\nnew_shape: array<i64: 4, 1, 1, ...", shape = ellipse, style = filled];
          v816 [fillcolor = "0.647059 1.0 1.0", label = "tosa.avg_pool2d : (tensor<4x1x1x576xf32...)\n\nacc_type: f32\nkernel: array<i64: 1, 1>\npad: array<i64: 0, 0, 0, ...\nstride: array<i64: 1, 1>", shape = ellipse, style = filled];
          v817 [fillcolor = "0.058824 1.0 1.0", label = "tosa.transpose : (tensor<576x1024xf32>)\n", shape = ellipse, style = filled];
          v818 [fillcolor = "0.352941 1.0 1.0", label = "tosa.reshape : (tensor<1x4x576xf32>)\n\nnew_shape: array<i64: 1, 4, 576...", shape = ellipse, style = filled];
          v819 [fillcolor = "0.352941 1.0 1.0", label = "tosa.reshape : (tensor<1x576x1024xf3...)\n\nnew_shape: array<i64: 1, 576, 1...", shape = ellipse, style = filled];
          v820 [fillcolor = "0.764706 1.0 1.0", label = "tosa.matmul : (tensor<1x4x1024xf32>)\n", shape = ellipse, style = filled];
          v821 [fillcolor = "0.352941 1.0 1.0", label = "tosa.reshape : (tensor<4x1024xf32>)\n\nnew_shape: array<i64: 4, 1024>", shape = ellipse, style = filled];
          v822 [fillcolor = "0.235294 1.0 1.0", label = "tosa.add : (tensor<4x1024xf32>)\n", shape = ellipse, style = filled];
          v823 [fillcolor = "0.235294 1.0 1.0", label = "tosa.add : (tensor<4x1024xf32>)\n", shape = ellipse, style = filled];
          v824 [fillcolor = "0.470588 1.0 1.0", label = "tosa.clamp : (tensor<4x1024xf32>)\n\nmax_fp: 3.40282347E+38 : f32\nmax_int: 2147483647 : i64\nmin_fp: 0.000000e+00 : f32\nmin_int: 0 : i64", shape = ellipse, style = filled];
          v825 [fillcolor = "0.529412 1.0 1.0", label = "tosa.minimum : (tensor<4x1024xf32>)\n", shape = ellipse, style = filled];
          v826 [fillcolor = "0.411765 1.0 1.0", label = "tosa.mul : (tensor<4x1024xf32>)\n\nshift: 0 : i8", shape = ellipse, style = filled];
          v827 [fillcolor = "0.411765 1.0 1.0", label = "tosa.mul : (tensor<4x1024xf32>)\n\nshift: 0 : i8", shape = ellipse, style = filled];
          v828 [fillcolor = "0.058824 1.0 1.0", label = "tosa.transpose : (tensor<1024x1000xf32...)\n", shape = ellipse, style = filled];
          v829 [fillcolor = "0.352941 1.0 1.0", label = "tosa.reshape : (tensor<1x4x1024xf32>)\n\nnew_shape: array<i64: 1, 4, 102...", shape = ellipse, style = filled];
          v830 [fillcolor = "0.352941 1.0 1.0", label = "tosa.reshape : (tensor<1x1024x1000xf...)\n\nnew_shape: array<i64: 1, 1024, ...", shape = ellipse, style = filled];
          v831 [fillcolor = "0.764706 1.0 1.0", label = "tosa.matmul : (tensor<1x4x1000xf32>)\n", shape = ellipse, style = filled];
          v832 [fillcolor = "0.352941 1.0 1.0", label = "tosa.reshape : (tensor<4x1000xf32>)\n\nnew_shape: array<i64: 4, 1000>", shape = ellipse, style = filled];
          v833 [fillcolor = "0.235294 1.0 1.0", label = "tosa.add : (tensor<4x1000xf32>)\n", shape = ellipse, style = filled];
          v834 [fillcolor = "0.823529 1.0 1.0", label = "func.return : ()\n", shape = ellipse, style = filled];
        }
      }
    }
  }
  v9 -> v245 [label = "0", style = solid];
  v43 -> v245 [label = "1", style = solid];
  v41 -> v246 [label = "0", style = solid];
  v43 -> v246 [label = "1", style = solid];
  v245 -> v247 [label = "0", style = solid];
  v246 -> v247 [label = "1", style = solid];
  v42 -> v247 [label = "2", style = solid];
  v247 -> v248 [label = "0", style = solid];
  v44 -> v248 [label = "1", style = solid];
  v248 -> v249 [label = "0", style = solid];
  v103 -> v249 [label = "1", style = solid];
  v58 -> v250 [label = "0", style = solid];
  v59 -> v250 [label = "1", style = solid];
  v250 -> v251 [label = "", style = solid];
  v251 -> v252 [label = "", style = solid];
  v249 -> v253 [label = "0", style = solid];
  v252 -> v253 [label = "1", style = solid];
  v253 -> v254 [label = "0", style = solid];
  v104 -> v254 [label = "1", style = solid];
  v254 -> v255 [label = "0", style = solid];
  v105 -> v255 [label = "1", style = solid];
  v255 -> v256 [label = "0", style = solid];
  v60 -> v256 [label = "1", style = solid];
  v256 -> v257 [label = "", style = solid];
  v257 -> v258 [label = "0", style = solid];
  v61 -> v258 [label = "1", style = solid];
  v258 -> v259 [label = "0", style = solid];
  v62 -> v259 [label = "1", style = solid];
  v259 -> v260 [label = "0", style = solid];
  v255 -> v260 [label = "1", style = solid];
  v260 -> v261 [label = "0", style = solid];
  v43 -> v261 [label = "1", style = solid];
  v40 -> v262 [label = "0", style = solid];
  v45 -> v262 [label = "1", style = solid];
  v261 -> v263 [label = "0", style = solid];
  v262 -> v263 [label = "1", style = solid];
  v42 -> v263 [label = "2", style = solid];
  v263 -> v264 [label = "0", style = solid];
  v44 -> v264 [label = "1", style = solid];
  v264 -> v265 [label = "0", style = solid];
  v106 -> v265 [label = "1", style = solid];
  v63 -> v266 [label = "0", style = solid];
  v59 -> v266 [label = "1", style = solid];
  v266 -> v267 [label = "", style = solid];
  v267 -> v268 [label = "", style = solid];
  v265 -> v269 [label = "0", style = solid];
  v268 -> v269 [label = "1", style = solid];
  v269 -> v270 [label = "0", style = solid];
  v107 -> v270 [label = "1", style = solid];
  v270 -> v271 [label = "0", style = solid];
  v108 -> v271 [label = "1", style = solid];
  v271 -> v272 [label = "", style = solid];
  v272 -> v273 [label = "0", style = solid];
  v43 -> v273 [label = "1", style = solid];
  v273 -> v274 [label = "", style = solid];
  v274 -> v275 [label = "0", style = solid];
  v205 -> v275 [label = "1", style = solid];
  v39 -> v275 [label = "2", style = solid];
  v275 -> v276 [label = "", style = solid];
  v276 -> v277 [label = "", style = solid];
  v277 -> v278 [label = "", style = solid];
  v278 -> v279 [label = "0", style = solid];
  v206 -> v279 [label = "1", style = solid];
  v38 -> v279 [label = "2", style = solid];
  v279 -> v280 [label = "", style = solid];
  v280 -> v281 [label = "0", style = solid];
  v60 -> v281 [label = "1", style = solid];
  v281 -> v282 [label = "0", style = solid];
  v62 -> v282 [label = "1", style = solid];
  v282 -> v283 [label = "0", style = solid];
  v64 -> v283 [label = "1", style = solid];
  v283 -> v284 [label = "0", style = solid];
  v65 -> v284 [label = "1", style = solid];
  v284 -> v285 [label = "0", style = solid];
  v272 -> v285 [label = "1", style = solid];
  v285 -> v286 [label = "0", style = solid];
  v43 -> v286 [label = "1", style = solid];
  v286 -> v287 [label = "0", style = solid];
  v207 -> v287 [label = "1", style = solid];
  v42 -> v287 [label = "2", style = solid];
  v287 -> v288 [label = "0", style = solid];
  v44 -> v288 [label = "1", style = solid];
  v288 -> v289 [label = "0", style = solid];
  v109 -> v289 [label = "1", style = solid];
  v66 -> v290 [label = "0", style = solid];
  v59 -> v290 [label = "1", style = solid];
  v290 -> v291 [label = "", style = solid];
  v291 -> v292 [label = "", style = solid];
  v289 -> v293 [label = "0", style = solid];
  v292 -> v293 [label = "1", style = solid];
  v293 -> v294 [label = "0", style = solid];
  v110 -> v294 [label = "1", style = solid];
  v294 -> v295 [label = "0", style = solid];
  v111 -> v295 [label = "1", style = solid];
  v295 -> v296 [label = "0", style = solid];
  v43 -> v296 [label = "1", style = solid];
  v296 -> v297 [label = "0", style = solid];
  v208 -> v297 [label = "1", style = solid];
  v46 -> v297 [label = "2", style = solid];
  v297 -> v298 [label = "0", style = solid];
  v44 -> v298 [label = "1", style = solid];
  v298 -> v299 [label = "0", style = solid];
  v112 -> v299 [label = "1", style = solid];
  v67 -> v300 [label = "0", style = solid];
  v59 -> v300 [label = "1", style = solid];
  v300 -> v301 [label = "", style = solid];
  v301 -> v302 [label = "", style = solid];
  v299 -> v303 [label = "0", style = solid];
  v302 -> v303 [label = "1", style = solid];
  v303 -> v304 [label = "0", style = solid];
  v113 -> v304 [label = "1", style = solid];
  v304 -> v305 [label = "0", style = solid];
  v114 -> v305 [label = "1", style = solid];
  v305 -> v306 [label = "", style = solid];
  v306 -> v307 [label = "0", style = solid];
  v43 -> v307 [label = "1", style = solid];
  v37 -> v308 [label = "0", style = solid];
  v45 -> v308 [label = "1", style = solid];
  v307 -> v309 [label = "0", style = solid];
  v308 -> v309 [label = "1", style = solid];
  v46 -> v309 [label = "2", style = solid];
  v309 -> v310 [label = "0", style = solid];
  v44 -> v310 [label = "1", style = solid];
  v310 -> v311 [label = "0", style = solid];
  v115 -> v311 [label = "1", style = solid];
  v68 -> v312 [label = "0", style = solid];
  v59 -> v312 [label = "1", style = solid];
  v312 -> v313 [label = "", style = solid];
  v313 -> v314 [label = "", style = solid];
  v311 -> v315 [label = "0", style = solid];
  v314 -> v315 [label = "1", style = solid];
  v315 -> v316 [label = "0", style = solid];
  v116 -> v316 [label = "1", style = solid];
  v316 -> v317 [label = "0", style = solid];
  v117 -> v317 [label = "1", style = solid];
  v317 -> v318 [label = "", style = solid];
  v318 -> v319 [label = "0", style = solid];
  v43 -> v319 [label = "1", style = solid];
  v319 -> v320 [label = "0", style = solid];
  v209 -> v320 [label = "1", style = solid];
  v47 -> v320 [label = "2", style = solid];
  v320 -> v321 [label = "0", style = solid];
  v44 -> v321 [label = "1", style = solid];
  v321 -> v322 [label = "0", style = solid];
  v118 -> v322 [label = "1", style = solid];
  v69 -> v323 [label = "0", style = solid];
  v59 -> v323 [label = "1", style = solid];
  v323 -> v324 [label = "", style = solid];
  v324 -> v325 [label = "", style = solid];
  v322 -> v326 [label = "0", style = solid];
  v325 -> v326 [label = "1", style = solid];
  v326 -> v327 [label = "0", style = solid];
  v119 -> v327 [label = "1", style = solid];
  v327 -> v328 [label = "0", style = solid];
  v120 -> v328 [label = "1", style = solid];
  v328 -> v329 [label = "0", style = solid];
  v43 -> v329 [label = "1", style = solid];
  v329 -> v330 [label = "0", style = solid];
  v210 -> v330 [label = "1", style = solid];
  v48 -> v330 [label = "2", style = solid];
  v330 -> v331 [label = "0", style = solid];
  v44 -> v331 [label = "1", style = solid];
  v331 -> v332 [label = "0", style = solid];
  v121 -> v332 [label = "1", style = solid];
  v70 -> v333 [label = "0", style = solid];
  v59 -> v333 [label = "1", style = solid];
  v333 -> v334 [label = "", style = solid];
  v334 -> v335 [label = "", style = solid];
  v332 -> v336 [label = "0", style = solid];
  v335 -> v336 [label = "1", style = solid];
  v336 -> v337 [label = "0", style = solid];
  v122 -> v337 [label = "1", style = solid];
  v337 -> v338 [label = "0", style = solid];
  v123 -> v338 [label = "1", style = solid];
  v338 -> v339 [label = "", style = solid];
  v339 -> v340 [label = "0", style = solid];
  v43 -> v340 [label = "1", style = solid];
  v36 -> v341 [label = "0", style = solid];
  v45 -> v341 [label = "1", style = solid];
  v340 -> v342 [label = "0", style = solid];
  v341 -> v342 [label = "1", style = solid];
  v48 -> v342 [label = "2", style = solid];
  v342 -> v343 [label = "0", style = solid];
  v44 -> v343 [label = "1", style = solid];
  v343 -> v344 [label = "0", style = solid];
  v124 -> v344 [label = "1", style = solid];
  v71 -> v345 [label = "0", style = solid];
  v59 -> v345 [label = "1", style = solid];
  v345 -> v346 [label = "", style = solid];
  v346 -> v347 [label = "", style = solid];
  v344 -> v348 [label = "0", style = solid];
  v347 -> v348 [label = "1", style = solid];
  v348 -> v349 [label = "0", style = solid];
  v125 -> v349 [label = "1", style = solid];
  v349 -> v350 [label = "0", style = solid];
  v126 -> v350 [label = "1", style = solid];
  v350 -> v351 [label = "", style = solid];
  v351 -> v352 [label = "0", style = solid];
  v43 -> v352 [label = "1", style = solid];
  v352 -> v353 [label = "0", style = solid];
  v211 -> v353 [label = "1", style = solid];
  v47 -> v353 [label = "2", style = solid];
  v353 -> v354 [label = "0", style = solid];
  v44 -> v354 [label = "1", style = solid];
  v354 -> v355 [label = "0", style = solid];
  v127 -> v355 [label = "1", style = solid];
  v72 -> v356 [label = "0", style = solid];
  v59 -> v356 [label = "1", style = solid];
  v356 -> v357 [label = "", style = solid];
  v357 -> v358 [label = "", style = solid];
  v355 -> v359 [label = "0", style = solid];
  v358 -> v359 [label = "1", style = solid];
  v359 -> v360 [label = "0", style = solid];
  v128 -> v360 [label = "1", style = solid];
  v360 -> v361 [label = "0", style = solid];
  v129 -> v361 [label = "1", style = solid];
  v361 -> v362 [label = "0", style = solid];
  v328 -> v362 [label = "1", style = solid];
  v362 -> v363 [label = "0", style = solid];
  v43 -> v363 [label = "1", style = solid];
  v363 -> v364 [label = "0", style = solid];
  v212 -> v364 [label = "1", style = solid];
  v49 -> v364 [label = "2", style = solid];
  v364 -> v365 [label = "0", style = solid];
  v44 -> v365 [label = "1", style = solid];
  v365 -> v366 [label = "0", style = solid];
  v130 -> v366 [label = "1", style = solid];
  v73 -> v367 [label = "0", style = solid];
  v59 -> v367 [label = "1", style = solid];
  v367 -> v368 [label = "", style = solid];
  v368 -> v369 [label = "", style = solid];
  v366 -> v370 [label = "0", style = solid];
  v369 -> v370 [label = "1", style = solid];
  v370 -> v371 [label = "0", style = solid];
  v131 -> v371 [label = "1", style = solid];
  v371 -> v372 [label = "0", style = solid];
  v132 -> v372 [label = "1", style = solid];
  v372 -> v373 [label = "0", style = solid];
  v60 -> v373 [label = "1", style = solid];
  v373 -> v374 [label = "", style = solid];
  v374 -> v375 [label = "0", style = solid];
  v61 -> v375 [label = "1", style = solid];
  v375 -> v376 [label = "0", style = solid];
  v62 -> v376 [label = "1", style = solid];
  v376 -> v377 [label = "0", style = solid];
  v372 -> v377 [label = "1", style = solid];
  v377 -> v378 [label = "0", style = solid];
  v43 -> v378 [label = "1", style = solid];
  v35 -> v379 [label = "0", style = solid];
  v45 -> v379 [label = "1", style = solid];
  v378 -> v380 [label = "0", style = solid];
  v379 -> v380 [label = "1", style = solid];
  v49 -> v380 [label = "2", style = solid];
  v380 -> v381 [label = "0", style = solid];
  v44 -> v381 [label = "1", style = solid];
  v381 -> v382 [label = "0", style = solid];
  v133 -> v382 [label = "1", style = solid];
  v74 -> v383 [label = "0", style = solid];
  v59 -> v383 [label = "1", style = solid];
  v383 -> v384 [label = "", style = solid];
  v384 -> v385 [label = "", style = solid];
  v382 -> v386 [label = "0", style = solid];
  v385 -> v386 [label = "1", style = solid];
  v386 -> v387 [label = "0", style = solid];
  v134 -> v387 [label = "1", style = solid];
  v387 -> v388 [label = "0", style = solid];
  v135 -> v388 [label = "1", style = solid];
  v388 -> v389 [label = "0", style = solid];
  v60 -> v389 [label = "1", style = solid];
  v389 -> v390 [label = "", style = solid];
  v390 -> v391 [label = "0", style = solid];
  v61 -> v391 [label = "1", style = solid];
  v391 -> v392 [label = "0", style = solid];
  v62 -> v392 [label = "1", style = solid];
  v392 -> v393 [label = "0", style = solid];
  v388 -> v393 [label = "1", style = solid];
  v393 -> v394 [label = "0", style = solid];
  v43 -> v394 [label = "1", style = solid];
  v394 -> v395 [label = "", style = solid];
  v395 -> v396 [label = "0", style = solid];
  v213 -> v396 [label = "1", style = solid];
  v34 -> v396 [label = "2", style = solid];
  v396 -> v397 [label = "", style = solid];
  v397 -> v398 [label = "", style = solid];
  v398 -> v399 [label = "", style = solid];
  v399 -> v400 [label = "0", style = solid];
  v214 -> v400 [label = "1", style = solid];
  v33 -> v400 [label = "2", style = solid];
  v400 -> v401 [label = "", style = solid];
  v401 -> v402 [label = "0", style = solid];
  v60 -> v402 [label = "1", style = solid];
  v402 -> v403 [label = "0", style = solid];
  v62 -> v403 [label = "1", style = solid];
  v403 -> v404 [label = "0", style = solid];
  v64 -> v404 [label = "1", style = solid];
  v404 -> v405 [label = "0", style = solid];
  v65 -> v405 [label = "1", style = solid];
  v405 -> v406 [label = "0", style = solid];
  v393 -> v406 [label = "1", style = solid];
  v406 -> v407 [label = "0", style = solid];
  v43 -> v407 [label = "1", style = solid];
  v407 -> v408 [label = "0", style = solid];
  v215 -> v408 [label = "1", style = solid];
  v50 -> v408 [label = "2", style = solid];
  v408 -> v409 [label = "0", style = solid];
  v44 -> v409 [label = "1", style = solid];
  v409 -> v410 [label = "0", style = solid];
  v136 -> v410 [label = "1", style = solid];
  v75 -> v411 [label = "0", style = solid];
  v59 -> v411 [label = "1", style = solid];
  v411 -> v412 [label = "", style = solid];
  v412 -> v413 [label = "", style = solid];
  v410 -> v414 [label = "0", style = solid];
  v413 -> v414 [label = "1", style = solid];
  v414 -> v415 [label = "0", style = solid];
  v137 -> v415 [label = "1", style = solid];
  v415 -> v416 [label = "0", style = solid];
  v138 -> v416 [label = "1", style = solid];
  v416 -> v417 [label = "0", style = solid];
  v43 -> v417 [label = "1", style = solid];
  v417 -> v418 [label = "0", style = solid];
  v216 -> v418 [label = "1", style = solid];
  v51 -> v418 [label = "2", style = solid];
  v418 -> v419 [label = "0", style = solid];
  v44 -> v419 [label = "1", style = solid];
  v419 -> v420 [label = "0", style = solid];
  v139 -> v420 [label = "1", style = solid];
  v76 -> v421 [label = "0", style = solid];
  v59 -> v421 [label = "1", style = solid];
  v421 -> v422 [label = "", style = solid];
  v422 -> v423 [label = "", style = solid];
  v420 -> v424 [label = "0", style = solid];
  v423 -> v424 [label = "1", style = solid];
  v424 -> v425 [label = "0", style = solid];
  v140 -> v425 [label = "1", style = solid];
  v425 -> v426 [label = "0", style = solid];
  v141 -> v426 [label = "1", style = solid];
  v426 -> v427 [label = "0", style = solid];
  v60 -> v427 [label = "1", style = solid];
  v427 -> v428 [label = "", style = solid];
  v428 -> v429 [label = "0", style = solid];
  v61 -> v429 [label = "1", style = solid];
  v429 -> v430 [label = "0", style = solid];
  v62 -> v430 [label = "1", style = solid];
  v430 -> v431 [label = "0", style = solid];
  v426 -> v431 [label = "1", style = solid];
  v431 -> v432 [label = "0", style = solid];
  v43 -> v432 [label = "1", style = solid];
  v32 -> v433 [label = "0", style = solid];
  v45 -> v433 [label = "1", style = solid];
  v432 -> v434 [label = "0", style = solid];
  v433 -> v434 [label = "1", style = solid];
  v51 -> v434 [label = "2", style = solid];
  v434 -> v435 [label = "0", style = solid];
  v44 -> v435 [label = "1", style = solid];
  v435 -> v436 [label = "0", style = solid];
  v142 -> v436 [label = "1", style = solid];
  v77 -> v437 [label = "0", style = solid];
  v59 -> v437 [label = "1", style = solid];
  v437 -> v438 [label = "", style = solid];
  v438 -> v439 [label = "", style = solid];
  v436 -> v440 [label = "0", style = solid];
  v439 -> v440 [label = "1", style = solid];
  v440 -> v441 [label = "0", style = solid];
  v143 -> v441 [label = "1", style = solid];
  v441 -> v442 [label = "0", style = solid];
  v144 -> v442 [label = "1", style = solid];
  v442 -> v443 [label = "0", style = solid];
  v60 -> v443 [label = "1", style = solid];
  v443 -> v444 [label = "", style = solid];
  v444 -> v445 [label = "0", style = solid];
  v61 -> v445 [label = "1", style = solid];
  v445 -> v446 [label = "0", style = solid];
  v62 -> v446 [label = "1", style = solid];
  v446 -> v447 [label = "0", style = solid];
  v442 -> v447 [label = "1", style = solid];
  v447 -> v448 [label = "0", style = solid];
  v43 -> v448 [label = "1", style = solid];
  v448 -> v449 [label = "", style = solid];
  v449 -> v450 [label = "0", style = solid];
  v217 -> v450 [label = "1", style = solid];
  v31 -> v450 [label = "2", style = solid];
  v450 -> v451 [label = "", style = solid];
  v451 -> v452 [label = "", style = solid];
  v452 -> v453 [label = "", style = solid];
  v453 -> v454 [label = "0", style = solid];
  v218 -> v454 [label = "1", style = solid];
  v30 -> v454 [label = "2", style = solid];
  v454 -> v455 [label = "", style = solid];
  v455 -> v456 [label = "0", style = solid];
  v60 -> v456 [label = "1", style = solid];
  v456 -> v457 [label = "0", style = solid];
  v62 -> v457 [label = "1", style = solid];
  v457 -> v458 [label = "0", style = solid];
  v64 -> v458 [label = "1", style = solid];
  v458 -> v459 [label = "0", style = solid];
  v65 -> v459 [label = "1", style = solid];
  v459 -> v460 [label = "0", style = solid];
  v447 -> v460 [label = "1", style = solid];
  v460 -> v461 [label = "0", style = solid];
  v43 -> v461 [label = "1", style = solid];
  v461 -> v462 [label = "0", style = solid];
  v219 -> v462 [label = "1", style = solid];
  v50 -> v462 [label = "2", style = solid];
  v462 -> v463 [label = "0", style = solid];
  v44 -> v463 [label = "1", style = solid];
  v463 -> v464 [label = "0", style = solid];
  v145 -> v464 [label = "1", style = solid];
  v78 -> v465 [label = "0", style = solid];
  v59 -> v465 [label = "1", style = solid];
  v465 -> v466 [label = "", style = solid];
  v466 -> v467 [label = "", style = solid];
  v464 -> v468 [label = "0", style = solid];
  v467 -> v468 [label = "1", style = solid];
  v468 -> v469 [label = "0", style = solid];
  v146 -> v469 [label = "1", style = solid];
  v469 -> v470 [label = "0", style = solid];
  v147 -> v470 [label = "1", style = solid];
  v470 -> v471 [label = "0", style = solid];
  v416 -> v471 [label = "1", style = solid];
  v471 -> v472 [label = "0", style = solid];
  v43 -> v472 [label = "1", style = solid];
  v472 -> v473 [label = "0", style = solid];
  v220 -> v473 [label = "1", style = solid];
  v51 -> v473 [label = "2", style = solid];
  v473 -> v474 [label = "0", style = solid];
  v44 -> v474 [label = "1", style = solid];
  v474 -> v475 [label = "0", style = solid];
  v148 -> v475 [label = "1", style = solid];
  v79 -> v476 [label = "0", style = solid];
  v59 -> v476 [label = "1", style = solid];
  v476 -> v477 [label = "", style = solid];
  v477 -> v478 [label = "", style = solid];
  v475 -> v479 [label = "0", style = solid];
  v478 -> v479 [label = "1", style = solid];
  v479 -> v480 [label = "0", style = solid];
  v149 -> v480 [label = "1", style = solid];
  v480 -> v481 [label = "0", style = solid];
  v150 -> v481 [label = "1", style = solid];
  v481 -> v482 [label = "0", style = solid];
  v60 -> v482 [label = "1", style = solid];
  v482 -> v483 [label = "", style = solid];
  v483 -> v484 [label = "0", style = solid];
  v61 -> v484 [label = "1", style = solid];
  v484 -> v485 [label = "0", style = solid];
  v62 -> v485 [label = "1", style = solid];
  v485 -> v486 [label = "0", style = solid];
  v481 -> v486 [label = "1", style = solid];
  v486 -> v487 [label = "0", style = solid];
  v43 -> v487 [label = "1", style = solid];
  v29 -> v488 [label = "0", style = solid];
  v45 -> v488 [label = "1", style = solid];
  v487 -> v489 [label = "0", style = solid];
  v488 -> v489 [label = "1", style = solid];
  v51 -> v489 [label = "2", style = solid];
  v489 -> v490 [label = "0", style = solid];
  v44 -> v490 [label = "1", style = solid];
  v490 -> v491 [label = "0", style = solid];
  v151 -> v491 [label = "1", style = solid];
  v80 -> v492 [label = "0", style = solid];
  v59 -> v492 [label = "1", style = solid];
  v492 -> v493 [label = "", style = solid];
  v493 -> v494 [label = "", style = solid];
  v491 -> v495 [label = "0", style = solid];
  v494 -> v495 [label = "1", style = solid];
  v495 -> v496 [label = "0", style = solid];
  v152 -> v496 [label = "1", style = solid];
  v496 -> v497 [label = "0", style = solid];
  v153 -> v497 [label = "1", style = solid];
  v497 -> v498 [label = "0", style = solid];
  v60 -> v498 [label = "1", style = solid];
  v498 -> v499 [label = "", style = solid];
  v499 -> v500 [label = "0", style = solid];
  v61 -> v500 [label = "1", style = solid];
  v500 -> v501 [label = "0", style = solid];
  v62 -> v501 [label = "1", style = solid];
  v501 -> v502 [label = "0", style = solid];
  v497 -> v502 [label = "1", style = solid];
  v502 -> v503 [label = "0", style = solid];
  v43 -> v503 [label = "1", style = solid];
  v503 -> v504 [label = "", style = solid];
  v504 -> v505 [label = "0", style = solid];
  v221 -> v505 [label = "1", style = solid];
  v28 -> v505 [label = "2", style = solid];
  v505 -> v506 [label = "", style = solid];
  v506 -> v507 [label = "", style = solid];
  v507 -> v508 [label = "", style = solid];
  v508 -> v509 [label = "0", style = solid];
  v222 -> v509 [label = "1", style = solid];
  v27 -> v509 [label = "2", style = solid];
  v509 -> v510 [label = "", style = solid];
  v510 -> v511 [label = "0", style = solid];
  v60 -> v511 [label = "1", style = solid];
  v511 -> v512 [label = "0", style = solid];
  v62 -> v512 [label = "1", style = solid];
  v512 -> v513 [label = "0", style = solid];
  v64 -> v513 [label = "1", style = solid];
  v513 -> v514 [label = "0", style = solid];
  v65 -> v514 [label = "1", style = solid];
  v514 -> v515 [label = "0", style = solid];
  v502 -> v515 [label = "1", style = solid];
  v515 -> v516 [label = "0", style = solid];
  v43 -> v516 [label = "1", style = solid];
  v516 -> v517 [label = "0", style = solid];
  v223 -> v517 [label = "1", style = solid];
  v50 -> v517 [label = "2", style = solid];
  v517 -> v518 [label = "0", style = solid];
  v44 -> v518 [label = "1", style = solid];
  v518 -> v519 [label = "0", style = solid];
  v154 -> v519 [label = "1", style = solid];
  v81 -> v520 [label = "0", style = solid];
  v59 -> v520 [label = "1", style = solid];
  v520 -> v521 [label = "", style = solid];
  v521 -> v522 [label = "", style = solid];
  v519 -> v523 [label = "0", style = solid];
  v522 -> v523 [label = "1", style = solid];
  v523 -> v524 [label = "0", style = solid];
  v155 -> v524 [label = "1", style = solid];
  v524 -> v525 [label = "0", style = solid];
  v156 -> v525 [label = "1", style = solid];
  v525 -> v526 [label = "0", style = solid];
  v471 -> v526 [label = "1", style = solid];
  v526 -> v527 [label = "0", style = solid];
  v43 -> v527 [label = "1", style = solid];
  v527 -> v528 [label = "0", style = solid];
  v224 -> v528 [label = "1", style = solid];
  v52 -> v528 [label = "2", style = solid];
  v528 -> v529 [label = "0", style = solid];
  v44 -> v529 [label = "1", style = solid];
  v529 -> v530 [label = "0", style = solid];
  v157 -> v530 [label = "1", style = solid];
  v82 -> v531 [label = "0", style = solid];
  v59 -> v531 [label = "1", style = solid];
  v531 -> v532 [label = "", style = solid];
  v532 -> v533 [label = "", style = solid];
  v530 -> v534 [label = "0", style = solid];
  v533 -> v534 [label = "1", style = solid];
  v534 -> v535 [label = "0", style = solid];
  v158 -> v535 [label = "1", style = solid];
  v535 -> v536 [label = "0", style = solid];
  v159 -> v536 [label = "1", style = solid];
  v536 -> v537 [label = "0", style = solid];
  v60 -> v537 [label = "1", style = solid];
  v537 -> v538 [label = "", style = solid];
  v538 -> v539 [label = "0", style = solid];
  v61 -> v539 [label = "1", style = solid];
  v539 -> v540 [label = "0", style = solid];
  v62 -> v540 [label = "1", style = solid];
  v540 -> v541 [label = "0", style = solid];
  v536 -> v541 [label = "1", style = solid];
  v541 -> v542 [label = "0", style = solid];
  v43 -> v542 [label = "1", style = solid];
  v26 -> v543 [label = "0", style = solid];
  v45 -> v543 [label = "1", style = solid];
  v542 -> v544 [label = "0", style = solid];
  v543 -> v544 [label = "1", style = solid];
  v52 -> v544 [label = "2", style = solid];
  v544 -> v545 [label = "0", style = solid];
  v44 -> v545 [label = "1", style = solid];
  v545 -> v546 [label = "0", style = solid];
  v160 -> v546 [label = "1", style = solid];
  v83 -> v547 [label = "0", style = solid];
  v59 -> v547 [label = "1", style = solid];
  v547 -> v548 [label = "", style = solid];
  v548 -> v549 [label = "", style = solid];
  v546 -> v550 [label = "0", style = solid];
  v549 -> v550 [label = "1", style = solid];
  v550 -> v551 [label = "0", style = solid];
  v161 -> v551 [label = "1", style = solid];
  v551 -> v552 [label = "0", style = solid];
  v162 -> v552 [label = "1", style = solid];
  v552 -> v553 [label = "0", style = solid];
  v60 -> v553 [label = "1", style = solid];
  v553 -> v554 [label = "", style = solid];
  v554 -> v555 [label = "0", style = solid];
  v61 -> v555 [label = "1", style = solid];
  v555 -> v556 [label = "0", style = solid];
  v62 -> v556 [label = "1", style = solid];
  v556 -> v557 [label = "0", style = solid];
  v552 -> v557 [label = "1", style = solid];
  v557 -> v558 [label = "0", style = solid];
  v43 -> v558 [label = "1", style = solid];
  v558 -> v559 [label = "", style = solid];
  v559 -> v560 [label = "0", style = solid];
  v225 -> v560 [label = "1", style = solid];
  v25 -> v560 [label = "2", style = solid];
  v560 -> v561 [label = "", style = solid];
  v561 -> v562 [label = "", style = solid];
  v562 -> v563 [label = "", style = solid];
  v563 -> v564 [label = "0", style = solid];
  v226 -> v564 [label = "1", style = solid];
  v24 -> v564 [label = "2", style = solid];
  v564 -> v565 [label = "", style = solid];
  v565 -> v566 [label = "0", style = solid];
  v60 -> v566 [label = "1", style = solid];
  v566 -> v567 [label = "0", style = solid];
  v62 -> v567 [label = "1", style = solid];
  v567 -> v568 [label = "0", style = solid];
  v64 -> v568 [label = "1", style = solid];
  v568 -> v569 [label = "0", style = solid];
  v65 -> v569 [label = "1", style = solid];
  v569 -> v570 [label = "0", style = solid];
  v557 -> v570 [label = "1", style = solid];
  v570 -> v571 [label = "0", style = solid];
  v43 -> v571 [label = "1", style = solid];
  v571 -> v572 [label = "0", style = solid];
  v227 -> v572 [label = "1", style = solid];
  v53 -> v572 [label = "2", style = solid];
  v572 -> v573 [label = "0", style = solid];
  v44 -> v573 [label = "1", style = solid];
  v573 -> v574 [label = "0", style = solid];
  v163 -> v574 [label = "1", style = solid];
  v84 -> v575 [label = "0", style = solid];
  v59 -> v575 [label = "1", style = solid];
  v575 -> v576 [label = "", style = solid];
  v576 -> v577 [label = "", style = solid];
  v574 -> v578 [label = "0", style = solid];
  v577 -> v578 [label = "1", style = solid];
  v578 -> v579 [label = "0", style = solid];
  v164 -> v579 [label = "1", style = solid];
  v579 -> v580 [label = "0", style = solid];
  v165 -> v580 [label = "1", style = solid];
  v580 -> v581 [label = "0", style = solid];
  v43 -> v581 [label = "1", style = solid];
  v581 -> v582 [label = "0", style = solid];
  v228 -> v582 [label = "1", style = solid];
  v54 -> v582 [label = "2", style = solid];
  v582 -> v583 [label = "0", style = solid];
  v44 -> v583 [label = "1", style = solid];
  v583 -> v584 [label = "0", style = solid];
  v166 -> v584 [label = "1", style = solid];
  v85 -> v585 [label = "0", style = solid];
  v59 -> v585 [label = "1", style = solid];
  v585 -> v586 [label = "", style = solid];
  v586 -> v587 [label = "", style = solid];
  v584 -> v588 [label = "0", style = solid];
  v587 -> v588 [label = "1", style = solid];
  v588 -> v589 [label = "0", style = solid];
  v167 -> v589 [label = "1", style = solid];
  v589 -> v590 [label = "0", style = solid];
  v168 -> v590 [label = "1", style = solid];
  v590 -> v591 [label = "0", style = solid];
  v60 -> v591 [label = "1", style = solid];
  v591 -> v592 [label = "", style = solid];
  v592 -> v593 [label = "0", style = solid];
  v61 -> v593 [label = "1", style = solid];
  v593 -> v594 [label = "0", style = solid];
  v62 -> v594 [label = "1", style = solid];
  v594 -> v595 [label = "0", style = solid];
  v590 -> v595 [label = "1", style = solid];
  v595 -> v596 [label = "0", style = solid];
  v43 -> v596 [label = "1", style = solid];
  v23 -> v597 [label = "0", style = solid];
  v45 -> v597 [label = "1", style = solid];
  v596 -> v598 [label = "0", style = solid];
  v597 -> v598 [label = "1", style = solid];
  v54 -> v598 [label = "2", style = solid];
  v598 -> v599 [label = "0", style = solid];
  v44 -> v599 [label = "1", style = solid];
  v599 -> v600 [label = "0", style = solid];
  v169 -> v600 [label = "1", style = solid];
  v86 -> v601 [label = "0", style = solid];
  v59 -> v601 [label = "1", style = solid];
  v601 -> v602 [label = "", style = solid];
  v602 -> v603 [label = "", style = solid];
  v600 -> v604 [label = "0", style = solid];
  v603 -> v604 [label = "1", style = solid];
  v604 -> v605 [label = "0", style = solid];
  v170 -> v605 [label = "1", style = solid];
  v605 -> v606 [label = "0", style = solid];
  v171 -> v606 [label = "1", style = solid];
  v606 -> v607 [label = "0", style = solid];
  v60 -> v607 [label = "1", style = solid];
  v607 -> v608 [label = "", style = solid];
  v608 -> v609 [label = "0", style = solid];
  v61 -> v609 [label = "1", style = solid];
  v609 -> v610 [label = "0", style = solid];
  v62 -> v610 [label = "1", style = solid];
  v610 -> v611 [label = "0", style = solid];
  v606 -> v611 [label = "1", style = solid];
  v611 -> v612 [label = "0", style = solid];
  v43 -> v612 [label = "1", style = solid];
  v612 -> v613 [label = "", style = solid];
  v613 -> v614 [label = "0", style = solid];
  v229 -> v614 [label = "1", style = solid];
  v22 -> v614 [label = "2", style = solid];
  v614 -> v615 [label = "", style = solid];
  v615 -> v616 [label = "", style = solid];
  v616 -> v617 [label = "", style = solid];
  v617 -> v618 [label = "0", style = solid];
  v230 -> v618 [label = "1", style = solid];
  v21 -> v618 [label = "2", style = solid];
  v618 -> v619 [label = "", style = solid];
  v619 -> v620 [label = "0", style = solid];
  v60 -> v620 [label = "1", style = solid];
  v620 -> v621 [label = "0", style = solid];
  v62 -> v621 [label = "1", style = solid];
  v621 -> v622 [label = "0", style = solid];
  v64 -> v622 [label = "1", style = solid];
  v622 -> v623 [label = "0", style = solid];
  v65 -> v623 [label = "1", style = solid];
  v623 -> v624 [label = "0", style = solid];
  v611 -> v624 [label = "1", style = solid];
  v624 -> v625 [label = "0", style = solid];
  v43 -> v625 [label = "1", style = solid];
  v625 -> v626 [label = "0", style = solid];
  v231 -> v626 [label = "1", style = solid];
  v53 -> v626 [label = "2", style = solid];
  v626 -> v627 [label = "0", style = solid];
  v44 -> v627 [label = "1", style = solid];
  v627 -> v628 [label = "0", style = solid];
  v172 -> v628 [label = "1", style = solid];
  v87 -> v629 [label = "0", style = solid];
  v59 -> v629 [label = "1", style = solid];
  v629 -> v630 [label = "", style = solid];
  v630 -> v631 [label = "", style = solid];
  v628 -> v632 [label = "0", style = solid];
  v631 -> v632 [label = "1", style = solid];
  v632 -> v633 [label = "0", style = solid];
  v173 -> v633 [label = "1", style = solid];
  v633 -> v634 [label = "0", style = solid];
  v174 -> v634 [label = "1", style = solid];
  v634 -> v635 [label = "0", style = solid];
  v580 -> v635 [label = "1", style = solid];
  v635 -> v636 [label = "0", style = solid];
  v43 -> v636 [label = "1", style = solid];
  v636 -> v637 [label = "0", style = solid];
  v232 -> v637 [label = "1", style = solid];
  v55 -> v637 [label = "2", style = solid];
  v637 -> v638 [label = "0", style = solid];
  v44 -> v638 [label = "1", style = solid];
  v638 -> v639 [label = "0", style = solid];
  v175 -> v639 [label = "1", style = solid];
  v88 -> v640 [label = "0", style = solid];
  v59 -> v640 [label = "1", style = solid];
  v640 -> v641 [label = "", style = solid];
  v641 -> v642 [label = "", style = solid];
  v639 -> v643 [label = "0", style = solid];
  v642 -> v643 [label = "1", style = solid];
  v643 -> v644 [label = "0", style = solid];
  v176 -> v644 [label = "1", style = solid];
  v644 -> v645 [label = "0", style = solid];
  v177 -> v645 [label = "1", style = solid];
  v645 -> v646 [label = "0", style = solid];
  v60 -> v646 [label = "1", style = solid];
  v646 -> v647 [label = "", style = solid];
  v647 -> v648 [label = "0", style = solid];
  v61 -> v648 [label = "1", style = solid];
  v648 -> v649 [label = "0", style = solid];
  v62 -> v649 [label = "1", style = solid];
  v649 -> v650 [label = "0", style = solid];
  v645 -> v650 [label = "1", style = solid];
  v650 -> v651 [label = "0", style = solid];
  v43 -> v651 [label = "1", style = solid];
  v20 -> v652 [label = "0", style = solid];
  v45 -> v652 [label = "1", style = solid];
  v651 -> v653 [label = "0", style = solid];
  v652 -> v653 [label = "1", style = solid];
  v55 -> v653 [label = "2", style = solid];
  v653 -> v654 [label = "", style = solid];
  v654 -> v655 [label = "0", style = solid];
  v178 -> v655 [label = "1", style = solid];
  v89 -> v656 [label = "0", style = solid];
  v59 -> v656 [label = "1", style = solid];
  v656 -> v657 [label = "", style = solid];
  v657 -> v658 [label = "", style = solid];
  v655 -> v659 [label = "0", style = solid];
  v658 -> v659 [label = "1", style = solid];
  v659 -> v660 [label = "0", style = solid];
  v179 -> v660 [label = "1", style = solid];
  v660 -> v661 [label = "0", style = solid];
  v180 -> v661 [label = "1", style = solid];
  v661 -> v662 [label = "0", style = solid];
  v60 -> v662 [label = "1", style = solid];
  v662 -> v663 [label = "", style = solid];
  v663 -> v664 [label = "0", style = solid];
  v61 -> v664 [label = "1", style = solid];
  v664 -> v665 [label = "0", style = solid];
  v62 -> v665 [label = "1", style = solid];
  v665 -> v666 [label = "0", style = solid];
  v661 -> v666 [label = "1", style = solid];
  v666 -> v667 [label = "", style = solid];
  v667 -> v668 [label = "", style = solid];
  v668 -> v669 [label = "0", style = solid];
  v233 -> v669 [label = "1", style = solid];
  v19 -> v669 [label = "2", style = solid];
  v669 -> v670 [label = "", style = solid];
  v670 -> v671 [label = "", style = solid];
  v671 -> v672 [label = "", style = solid];
  v672 -> v673 [label = "0", style = solid];
  v234 -> v673 [label = "1", style = solid];
  v18 -> v673 [label = "2", style = solid];
  v673 -> v674 [label = "", style = solid];
  v674 -> v675 [label = "0", style = solid];
  v60 -> v675 [label = "1", style = solid];
  v675 -> v676 [label = "0", style = solid];
  v62 -> v676 [label = "1", style = solid];
  v676 -> v677 [label = "0", style = solid];
  v64 -> v677 [label = "1", style = solid];
  v677 -> v678 [label = "0", style = solid];
  v65 -> v678 [label = "1", style = solid];
  v678 -> v679 [label = "0", style = solid];
  v666 -> v679 [label = "1", style = solid];
  v679 -> v680 [label = "", style = solid];
  v680 -> v681 [label = "0", style = solid];
  v235 -> v681 [label = "1", style = solid];
  v49 -> v681 [label = "2", style = solid];
  v681 -> v682 [label = "", style = solid];
  v682 -> v683 [label = "0", style = solid];
  v181 -> v683 [label = "1", style = solid];
  v90 -> v684 [label = "0", style = solid];
  v59 -> v684 [label = "1", style = solid];
  v684 -> v685 [label = "", style = solid];
  v685 -> v686 [label = "", style = solid];
  v683 -> v687 [label = "0", style = solid];
  v686 -> v687 [label = "1", style = solid];
  v687 -> v688 [label = "0", style = solid];
  v182 -> v688 [label = "1", style = solid];
  v688 -> v689 [label = "0", style = solid];
  v183 -> v689 [label = "1", style = solid];
  v689 -> v690 [label = "", style = solid];
  v690 -> v691 [label = "0", style = solid];
  v236 -> v691 [label = "1", style = solid];
  v56 -> v691 [label = "2", style = solid];
  v691 -> v692 [label = "", style = solid];
  v692 -> v693 [label = "0", style = solid];
  v184 -> v693 [label = "1", style = solid];
  v91 -> v694 [label = "0", style = solid];
  v59 -> v694 [label = "1", style = solid];
  v694 -> v695 [label = "", style = solid];
  v695 -> v696 [label = "", style = solid];
  v693 -> v697 [label = "0", style = solid];
  v696 -> v697 [label = "1", style = solid];
  v697 -> v698 [label = "0", style = solid];
  v185 -> v698 [label = "1", style = solid];
  v698 -> v699 [label = "0", style = solid];
  v186 -> v699 [label = "1", style = solid];
  v699 -> v700 [label = "0", style = solid];
  v60 -> v700 [label = "1", style = solid];
  v700 -> v701 [label = "", style = solid];
  v701 -> v702 [label = "0", style = solid];
  v61 -> v702 [label = "1", style = solid];
  v702 -> v703 [label = "0", style = solid];
  v62 -> v703 [label = "1", style = solid];
  v703 -> v704 [label = "0", style = solid];
  v699 -> v704 [label = "1", style = solid];
  v704 -> v705 [label = "", style = solid];
  v17 -> v706 [label = "0", style = solid];
  v45 -> v706 [label = "1", style = solid];
  v705 -> v707 [label = "0", style = solid];
  v706 -> v707 [label = "1", style = solid];
  v56 -> v707 [label = "2", style = solid];
  v707 -> v708 [label = "", style = solid];
  v708 -> v709 [label = "0", style = solid];
  v187 -> v709 [label = "1", style = solid];
  v92 -> v710 [label = "0", style = solid];
  v59 -> v710 [label = "1", style = solid];
  v710 -> v711 [label = "", style = solid];
  v711 -> v712 [label = "", style = solid];
  v709 -> v713 [label = "0", style = solid];
  v712 -> v713 [label = "1", style = solid];
  v713 -> v714 [label = "0", style = solid];
  v188 -> v714 [label = "1", style = solid];
  v714 -> v715 [label = "0", style = solid];
  v189 -> v715 [label = "1", style = solid];
  v715 -> v716 [label = "0", style = solid];
  v60 -> v716 [label = "1", style = solid];
  v716 -> v717 [label = "", style = solid];
  v717 -> v718 [label = "0", style = solid];
  v61 -> v718 [label = "1", style = solid];
  v718 -> v719 [label = "0", style = solid];
  v62 -> v719 [label = "1", style = solid];
  v719 -> v720 [label = "0", style = solid];
  v715 -> v720 [label = "1", style = solid];
  v720 -> v721 [label = "", style = solid];
  v721 -> v722 [label = "", style = solid];
  v722 -> v723 [label = "0", style = solid];
  v237 -> v723 [label = "1", style = solid];
  v16 -> v723 [label = "2", style = solid];
  v723 -> v724 [label = "", style = solid];
  v724 -> v725 [label = "", style = solid];
  v725 -> v726 [label = "", style = solid];
  v726 -> v727 [label = "0", style = solid];
  v238 -> v727 [label = "1", style = solid];
  v15 -> v727 [label = "2", style = solid];
  v727 -> v728 [label = "", style = solid];
  v728 -> v729 [label = "0", style = solid];
  v60 -> v729 [label = "1", style = solid];
  v729 -> v730 [label = "0", style = solid];
  v62 -> v730 [label = "1", style = solid];
  v730 -> v731 [label = "0", style = solid];
  v64 -> v731 [label = "1", style = solid];
  v731 -> v732 [label = "0", style = solid];
  v65 -> v732 [label = "1", style = solid];
  v732 -> v733 [label = "0", style = solid];
  v720 -> v733 [label = "1", style = solid];
  v733 -> v734 [label = "", style = solid];
  v734 -> v735 [label = "0", style = solid];
  v239 -> v735 [label = "1", style = solid];
  v49 -> v735 [label = "2", style = solid];
  v735 -> v736 [label = "", style = solid];
  v736 -> v737 [label = "0", style = solid];
  v190 -> v737 [label = "1", style = solid];
  v93 -> v738 [label = "0", style = solid];
  v59 -> v738 [label = "1", style = solid];
  v738 -> v739 [label = "", style = solid];
  v739 -> v740 [label = "", style = solid];
  v737 -> v741 [label = "0", style = solid];
  v740 -> v741 [label = "1", style = solid];
  v741 -> v742 [label = "0", style = solid];
  v191 -> v742 [label = "1", style = solid];
  v742 -> v743 [label = "0", style = solid];
  v192 -> v743 [label = "1", style = solid];
  v743 -> v744 [label = "0", style = solid];
  v689 -> v744 [label = "1", style = solid];
  v744 -> v745 [label = "", style = solid];
  v745 -> v746 [label = "0", style = solid];
  v240 -> v746 [label = "1", style = solid];
  v56 -> v746 [label = "2", style = solid];
  v746 -> v747 [label = "", style = solid];
  v747 -> v748 [label = "0", style = solid];
  v193 -> v748 [label = "1", style = solid];
  v94 -> v749 [label = "0", style = solid];
  v59 -> v749 [label = "1", style = solid];
  v749 -> v750 [label = "", style = solid];
  v750 -> v751 [label = "", style = solid];
  v748 -> v752 [label = "0", style = solid];
  v751 -> v752 [label = "1", style = solid];
  v752 -> v753 [label = "0", style = solid];
  v194 -> v753 [label = "1", style = solid];
  v753 -> v754 [label = "0", style = solid];
  v195 -> v754 [label = "1", style = solid];
  v754 -> v755 [label = "0", style = solid];
  v60 -> v755 [label = "1", style = solid];
  v755 -> v756 [label = "", style = solid];
  v756 -> v757 [label = "0", style = solid];
  v61 -> v757 [label = "1", style = solid];
  v757 -> v758 [label = "0", style = solid];
  v62 -> v758 [label = "1", style = solid];
  v758 -> v759 [label = "0", style = solid];
  v754 -> v759 [label = "1", style = solid];
  v759 -> v760 [label = "", style = solid];
  v14 -> v761 [label = "0", style = solid];
  v45 -> v761 [label = "1", style = solid];
  v760 -> v762 [label = "0", style = solid];
  v761 -> v762 [label = "1", style = solid];
  v56 -> v762 [label = "2", style = solid];
  v762 -> v763 [label = "", style = solid];
  v763 -> v764 [label = "0", style = solid];
  v196 -> v764 [label = "1", style = solid];
  v95 -> v765 [label = "0", style = solid];
  v59 -> v765 [label = "1", style = solid];
  v765 -> v766 [label = "", style = solid];
  v766 -> v767 [label = "", style = solid];
  v764 -> v768 [label = "0", style = solid];
  v767 -> v768 [label = "1", style = solid];
  v768 -> v769 [label = "0", style = solid];
  v197 -> v769 [label = "1", style = solid];
  v769 -> v770 [label = "0", style = solid];
  v198 -> v770 [label = "1", style = solid];
  v770 -> v771 [label = "0", style = solid];
  v60 -> v771 [label = "1", style = solid];
  v771 -> v772 [label = "", style = solid];
  v772 -> v773 [label = "0", style = solid];
  v61 -> v773 [label = "1", style = solid];
  v773 -> v774 [label = "0", style = solid];
  v62 -> v774 [label = "1", style = solid];
  v774 -> v775 [label = "0", style = solid];
  v770 -> v775 [label = "1", style = solid];
  v775 -> v776 [label = "", style = solid];
  v776 -> v777 [label = "", style = solid];
  v777 -> v778 [label = "0", style = solid];
  v241 -> v778 [label = "1", style = solid];
  v13 -> v778 [label = "2", style = solid];
  v778 -> v779 [label = "", style = solid];
  v779 -> v780 [label = "", style = solid];
  v780 -> v781 [label = "", style = solid];
  v781 -> v782 [label = "0", style = solid];
  v242 -> v782 [label = "1", style = solid];
  v12 -> v782 [label = "2", style = solid];
  v782 -> v783 [label = "", style = solid];
  v783 -> v784 [label = "0", style = solid];
  v60 -> v784 [label = "1", style = solid];
  v784 -> v785 [label = "0", style = solid];
  v62 -> v785 [label = "1", style = solid];
  v785 -> v786 [label = "0", style = solid];
  v64 -> v786 [label = "1", style = solid];
  v786 -> v787 [label = "0", style = solid];
  v65 -> v787 [label = "1", style = solid];
  v787 -> v788 [label = "0", style = solid];
  v775 -> v788 [label = "1", style = solid];
  v788 -> v789 [label = "", style = solid];
  v789 -> v790 [label = "0", style = solid];
  v243 -> v790 [label = "1", style = solid];
  v49 -> v790 [label = "2", style = solid];
  v790 -> v791 [label = "", style = solid];
  v791 -> v792 [label = "0", style = solid];
  v199 -> v792 [label = "1", style = solid];
  v96 -> v793 [label = "0", style = solid];
  v59 -> v793 [label = "1", style = solid];
  v793 -> v794 [label = "", style = solid];
  v794 -> v795 [label = "", style = solid];
  v792 -> v796 [label = "0", style = solid];
  v795 -> v796 [label = "1", style = solid];
  v796 -> v797 [label = "0", style = solid];
  v200 -> v797 [label = "1", style = solid];
  v797 -> v798 [label = "0", style = solid];
  v201 -> v798 [label = "1", style = solid];
  v798 -> v799 [label = "0", style = solid];
  v744 -> v799 [label = "1", style = solid];
  v799 -> v800 [label = "", style = solid];
  v800 -> v801 [label = "0", style = solid];
  v244 -> v801 [label = "1", style = solid];
  v56 -> v801 [label = "2", style = solid];
  v801 -> v802 [label = "", style = solid];
  v802 -> v803 [label = "0", style = solid];
  v202 -> v803 [label = "1", style = solid];
  v97 -> v804 [label = "0", style = solid];
  v59 -> v804 [label = "1", style = solid];
  v804 -> v805 [label = "", style = solid];
  v805 -> v806 [label = "", style = solid];
  v803 -> v807 [label = "0", style = solid];
  v806 -> v807 [label = "1", style = solid];
  v807 -> v808 [label = "0", style = solid];
  v203 -> v808 [label = "1", style = solid];
  v808 -> v809 [label = "0", style = solid];
  v204 -> v809 [label = "1", style = solid];
  v809 -> v810 [label = "0", style = solid];
  v60 -> v810 [label = "1", style = solid];
  v810 -> v811 [label = "", style = solid];
  v811 -> v812 [label = "0", style = solid];
  v61 -> v812 [label = "1", style = solid];
  v812 -> v813 [label = "0", style = solid];
  v62 -> v813 [label = "1", style = solid];
  v813 -> v814 [label = "0", style = solid];
  v809 -> v814 [label = "1", style = solid];
  v814 -> v815 [label = "", style = solid];
  v815 -> v816 [label = "", style = solid];
  v11 -> v817 [label = "0", style = solid];
  v57 -> v817 [label = "1", style = solid];
  v816 -> v818 [label = "", style = solid];
  v817 -> v819 [label = "", style = solid];
  v818 -> v820 [label = "0", style = solid];
  v819 -> v820 [label = "1", style = solid];
  v820 -> v821 [label = "", style = solid];
  v821 -> v822 [label = "0", style = solid];
  v98 -> v822 [label = "1", style = solid];
  v822 -> v823 [label = "0", style = solid];
  v99 -> v823 [label = "1", style = solid];
  v823 -> v824 [label = "", style = solid];
  v824 -> v825 [label = "0", style = solid];
  v100 -> v825 [label = "1", style = solid];
  v825 -> v826 [label = "0", style = solid];
  v101 -> v826 [label = "1", style = solid];
  v826 -> v827 [label = "0", style = solid];
  v822 -> v827 [label = "1", style = solid];
  v10 -> v828 [label = "0", style = solid];
  v57 -> v828 [label = "1", style = solid];
  v827 -> v829 [label = "", style = solid];
  v828 -> v830 [label = "", style = solid];
  v829 -> v831 [label = "0", style = solid];
  v830 -> v831 [label = "1", style = solid];
  v831 -> v832 [label = "", style = solid];
  v832 -> v833 [label = "0", style = solid];
  v102 -> v833 [label = "1", style = solid];
  v833 -> v834 [label = "", style = solid];
}
